model/halfcheetah-medium-expert-append-v2.pt (torch, 284503 bytes, 5 tensors)

l1.weight f4 [256, 17]
0	0xbd87ea5b	-0.06636497
1	0x3df411b6	0.119174406
2	0x3e64fa1f	0.22361039
3	0xbc2c20e9	-0.010505893
4	0x3e85beb6	0.26122063
5	0xbe19a6e0	-0.15005064
6	0xbdbdd5b4	-0.09269276
7	0x3e53796c	0.20651788
8	0x3e6e0a29	0.23246063
9	0xbd6cfba7	-0.057857182
10	0x3df59791	0.119917996
11	0xbd3cd201	-0.046098713
12	0xbf0b70dc	-0.54469085
13	0xbde09356	-0.10965602
14	0x3dc4af37	0.09603732
15	0x3cbcbdf7	0.023039801
16	0x3e91a055	0.28442636
17	0xbdbe8840	-0.093033314
18	0x3e2089b3	0.15677528
19	0xbf2327f7	-0.63732857
20	0xbd07e3e5	-0.03317632
21	0xbdcf86c6	-0.10133128
22	0x3e40292e	0.18765709
23	0x3e89bff1	0.26904252
24	0xbf032ad9	-0.51237255
25	0xbe3396b0	-0.17537951
26	0x3d1f8540	0.038945436
27	0xbd1d26f5	-0.03836723
28	0xbe2b09ed	-0.16703005
29	0xbe013cd5	-0.12620862
30	0xbe30e54f	-0.17274974
31	0x3e945d67	0.2897751
32	0xbecc55b8	-0.39909148
33	0xbe14460d	-0.14479847
34	0xbb62f6af	-0.0034631898
35	0x3d16d53e	0.036824457
36	0x3db12c2a	0.08651002
37	0x3cf6df7b	0.03013586
38	0x3db35143	0.08755734
39	0xbd9bb3c4	-0.07602647
40	0xbeb3d024	-0.35119736
41	0xbe52a377	-0.2057017
42	0x3d374ed7	0.044752922
43	0x3e525ffe	0.2054443
44	0xbd0054e6	-0.031330965
45	0x3eafef8f	0.34362456
46	0x3f0e96ee	0.5569905
47	0x3d7ec7a8	0.062202126
48	0xbde56bb0	-0.112021804
49	0x3e833740	0.2562809
50	0x3e3e01d2	0.18555382
51	0xbd9e5afe	-0.07732199
52	0x3d97a5f5	0.07404701
53	0xbf20b65d	-0.62778264
54	0xbe4245ad	-0.18971892
55	0xbe1ae4d8	-0.1512636
56	0x3ea1cb4d	0.3160042
57	0xbe9508f3	-0.2910839
58	0xbeb81786	-0.35955447
59	0xbe13f056	-0.1444715
60	0x3deb277d	0.11482141
61	0xbda78edc	-0.08181545
62	0x3eab9e40	0.33519173
63	0xbd30cd68	-0.04316464
64	0xbd6950e4	-0.05696191
65	0xbefce87e	-0.49396127
66	0xbd149c2f	-0.03628176
67	0x3e3392d8	0.17536485
68	0xbd9298d2	-0.071580544
69	0xbe22e566	-0.15907821
70	0xbea6a0ea	-0.32544643
71	0x3dfefced	0.124505855
72	0x3e06e37a	0.13172713
73	0x3e694add	0.22782464
74	0x3e00069d	0.12502523
75	0x3cf30669	0.029666143
76	0x3f6ce4aa	0.92536414
77	0x3e55ef74	0.20892125
78	0xbe3d1574	-0.18465215
79	0xbe1412fb	-0.14460365
80	0xbea32116	-0.3186118
81	0xbc272397	-0.010201356
82	0xbf0b457f	-0.5440292
83	0x3c7855e9	0.015157201
84	0xbed5d01d	-0.4176034
85	0x3dcda31d	0.10040877
86	0xbdeaf9af	-0.114734046
87	0xbe78e9cb	-0.24307935
88	0x3dade42c	0.08490786
89	0x3dce4745	0.10072187
90	0xbe2a8dac	-0.16655606
91	0xbdbcbcb1	-0.092156775
92	0x3e99e784	0.30059445
93	0xbf1b651c	-0.60701156
94	0xbd0be2b8	-0.034151763
95	0x3eb39c0e	0.35079998
96	0xbf079775	-0.5296548
97	0xbeb3f871	-0.35150483
98	0xbe8a830d	-0.2705311
99	0x3ec884d4	0.3916384
100	0x3e422062	0.18957666
101	0x3d385681	0.04500437
102	0xbd51fd25	-0.051266808
103	0xbd9b029d	-0.07568858
104	0xbeaac5c8	-0.3335402
105	0xbee6df41	-0.45092204
106	0x3e1aa043	0.15100197
107	0x3ee27dfe	0.4423675
108	0xbd7f384f	-0.06230956
109	0x3d9c6ea3	0.0763829
110	0x3f312507	0.69197124
111	0x3e55f586	0.20894441
112	0x3e1c0448	0.15236008
113	0x3dc1fd99	0.09472198
114	0x3e8d05e2	0.2754355
115	0x3dab923b	0.083775006
116	0xbef0e8d5	-0.47052637
117	0xbe294e98	-0.16533887
118	0xbe0f98b9	-0.14023103
119	0xbc93b41f	-0.018030224
120	0xbc969ec7	-0.018386258
121	0xbe7c0efe	-0.24615094
122	0xbeb16678	-0.3464849
123	0xbca98696	-0.020694058
124	0x3ed8b5b4	0.42326128
125	0xbd41fe3a	-0.04736159
126	0x3d035ece	0.032072835
127	0x3d5d8846	0.05408504
128	0xbe1d547c	-0.1536426
129	0xbdcbac67	-0.099449925
130	0xbe9a5bda	-0.30148202
131	0x3d6015ba	0.05470822
132	0x3c4ede5c	0.012626257
133	0x3edffe5f	0.43748757
134	0xbe807eda	-0.2509678
135	0x3db5d68a	0.08878811
136	0xbdb669b8	-0.08906883
137	0x3d658fee	0.056045465
138	0x3ebbf62f	0.3671126
139	0x3e599db7	0.2125157
140	0x3dc1d4e9	0.094644375
141	0xbe056419	-0.13026465
142	0x3e09f48f	0.13472198
143	0x3d816b3e	0.06319283
144	0x3d8af9a8	0.067858994
145	0xbeaf1860	-0.34198284
146	0x3da349cf	0.07973062
147	0xbe746d26	-0.23869762
148	0xbed5f1c9	-0.4178603
149	0xbe30e310	-0.17274117
150	0x3ee00a11	0.4375768
151	0x3e57dcf1	0.21080376
152	0x3da775c6	0.081767604
153	0x3de2f1f2	0.11081304
154	0xbe127f67	-0.14306413
155	0x3eab79ba	0.33491307
156	0x3e193ce6	0.14964637
157	0x3de90ede	0.11379789
158	0xbcc5de65	-0.024153898
159	0xbea74111	-0.3266683
160	0xbeb17a74	-0.34663737
161	0xbeab966b	-0.33513197
162	0xbd5333e0	-0.051563144
163	0x3e84d85e	0.25946325
164	0x3edcd882	0.43133932
165	0x3f014ecb	0.50510854
166	0x3e5fe730	0.21865535
167	0x3e055522	0.13020757
168	0xbdd17a18	-0.10228366
169	0xbe41c059	-0.18921031
170	0x3d92e86a	0.07173236
171	0xbe5a4909	-0.21316923
172	0xbea43526	-0.320718
173	0xbe7c6bf8	-0.24650562
174	0x3cc8b5a3	0.024500674
175	0x3e8234b2	0.25430828
176	0x3e8de9ed	0.27717534
177	0x3e9b8389	0.3037379
178	0xbdbe1e4b	-0.09283122
179	0xbe986f68	-0.29772496
180	0xbcb35af9	-0.021893965
181	0xbf115712	-0.56773484
182	0xbf0c9664	-0.5491698
183	0x3e332ff3	0.1749876
184	0xbe1dfe8b	-0.15429132
185	0x3d9eed6e	0.0776013
186	0x3e9fc7e7	0.312072
187	0x3df2656c	0.11835751
188	0xbd0b70b7	-0.03404304
189	0xbdb94340	-0.0904603
190	0x3df7243a	0.120674565
191	0xbe683354	-0.2267583
192	0xbea09bfc	-0.31369007
193	0xbe16e84f	-0.14737056
194	0xbd37e453	-0.04489548
195	0x3d86f471	0.06589592
196	0x3dec10f8	0.11526674
197	0xbe45c4ff	-0.1931343
198	0x3eb6f7b7	0.35735866
199	0x3f28daf3	0.6595909
200	0xbe180021	-0.14843799
201	0x3ec13b0f	0.3774037
202	0x3db5bb1c	0.08873579
203	0x3e91b19d	0.2845582
204	0xbe75eed3	-0.24016885
205	0x3e1a61e9	0.15076412
206	0xbe968c73	-0.2940403
207	0xbebe9197	-0.3722045
208	0x3a94aa90	0.0011342335
209	0xbd391531	-0.045186225
210	0xbe8089fe	-0.2510528
211	0x3bfbc416	0.0076832874
212	0x3e9c6996	0.30549306
213	0x3e0e9c6c	0.13926858
214	0xbc645a28	-0.013937511
215	0x3e9f8cee	0.31162208
216	0x3e5d6581	0.21620752
217	0xbd301680	-0.042990208
218	0xbeaa2aa7	-0.33235666
219	0xbcb1e202	-0.021714214
220	0x3db56bb2	0.08858432
221	0xbc71da3d	-0.014761505
222	0xbdb4338f	-0.087988965
223	0xbe59cb18	-0.2126888
224	0x3ef1502c	0.4713148
225	0xbe912381	-0.283474
226	0x3d871144	0.0659509
227	0x3eac7b57	0.3368785
228	0x3ec50180	0.38477707
229	0xbea56939	-0.3230684
230	0x3ea1774c	0.3153633
231	0xbf17d3c6	-0.59307516
232	0xbf079063	-0.5295469
233	0xbbbf0684	-0.005829634
234	0x3e009fb9	0.1256093
235	0x3de91b0a	0.113821104
236	0x3eb65efc	0.35619342
237	0x3f089e3f	0.53366464
238	0xbc82602c	-0.015914999
239	0x3f4b7acc	0.7948425
240	0x3e8ee247	0.2790701
241	0xbded7ee4	-0.11596468
242	0x3ea5425e	0.32277197
243	0x3e45ee11	0.19329096
244	0x3ea28d1d	0.31748286
245	0x3f14da7b	0.58145875
246	0xbc378fad	-0.011203689
247	0xbe01079d	-0.1260056
248	0x3ea5b768	0.3236649
249	0xbd1bc53f	-0.038029905
250	0x3e975540	0.29557228
251	0xbde03c1c	-0.10948965
252	0xbdb05f6c	-0.0861195
253	0x3eb7aafc	0.35872638
254	0x3d48081a	0.04883585
255	0xbd15c73e	-0.036566965

l1.bias f4 [256]
0	0x3f2059be	0.62636936
1	0x3e979eb5	0.2961327
2	0x3f255233	0.6457855
3	0x3f2586c4	0.6465876
4	0x3dd86a75	0.1056718
5	0x3e178a9e	0.14798972
6	0x3c88eda4	0.016714878
7	0x3eef5ade	0.46749014
8	0x3ef471a3	0.47742948
9	0x3f4abaa1	0.79191023
10	0x3c87c6e6	0.016574334
11	0x3f19a1fb	0.6001279
12	0x3f416db5	0.75558025
13	0x3ebc7ab0	0.36812353
14	0xbdfb93d0	-0.12284052
15	0x3d39bc32	0.045345493
16	0xbc1d1f25	-0.009589945
17	0x3b064570	0.0020488165
18	0xbe554b0b	-0.20829408
19	0x3e54a314	0.20765334
20	0x3f2ed82f	0.6829862
21	0xbc47deda	-0.012199128
22	0x3f2da0c4	0.67823434
23	0x3bd4f148	0.0064984895
24	0x3eb55f48	0.35424256
25	0x3ea7bfd2	0.32763535
26	0x3e509dd8	0.20372713
27	0x3e419ad1	0.18906714
28	0x3f0804c4	0.5313227
29	0x3ec11415	0.37710634
30	0x3e7093fc	0.23493952
31	0x3f35abca	0.70965254
32	0x3ef3cae3	0.47615728
33	0x3edc227b	0.42995057
34	0x3e80a01a	0.25122148
35	0x3ee44408	0.44583154
36	0x3f0216fe	0.50816333
37	0x3e476578	0.19472301
38	0x3f02d9e4	0.51113725
39	0x3eade9a1	0.33967307
40	0x3ec41fcd	0.38305512
41	0x3ef92f58	0.48668933
42	0x3e114c5b	0.14189284
43	0x3ecbf8cd	0.39838257
44	0x3e00655b	0.12538664
45	0x3ee5f56c	0.44913805
46	0x3cabf452	0.020990524
47	0x3ead40d9	0.33838537
48	0x3f5b82a7	0.85746235
49	0xbde096c6	-0.10966258
50	0x3e1d82c6	0.15381917
51	0x3f18f93d	0.5975531
52	0x3f13c721	0.5772572
53	0x3d9e7d3b	0.077387296
54	0x3dc5cd49	0.09658296
55	0x3f17b4ca	0.5926024
56	0x3f1d91f5	0.6155084
57	0x3e4d8b84	0.20072752
58	0x3f082dea	0.5319506
59	0x3d8b4ee5	0.06802157
60	0xbd845888	-0.064621985
61	0x3e09fb6a	0.13474813
62	0x3d841622	0.06449534
63	0x3f1621f7	0.58645576
64	0x3e901408	0.28140283
65	0x3f130fc9	0.5744596
66	0x3eac879d	0.33697215
67	0x3f301cce	0.6879395
68	0x3f0c94c0	0.54914474
69	0x3ed1f6ab	0.41008505
70	0x3e745e6c	0.23864144
71	0x3da46825	0.080276765
72	0x3e8619e6	0.26191634
73	0x3dbc1c26	0.091850564
74	0x3eb0e3d9	0.34548834
75	0x3dcc8631	0.099865325
76	0x3f1a2db4	0.6022599
77	0x3e82104d	0.25403062
78	0xbdfa6cdf	-0.12227797
79	0x3e4e9289	0.20173086
80	0xbeda62c3	-0.42653474
81	0x3f45051a	0.7696091
82	0xbd806c0b	-0.062706076
83	0x3e5277ef	0.20553564
84	0x3ef4faf0	0.478477
85	0x3e8c457c	0.27396762
86	0x3e851dec	0.2599939
87	0xbd7476d4	-0.059683636
88	0x3f112e40	0.56711197
89	0x3ee5ecfd	0.4490737
90	0x3ecf8226	0.40528983
91	0x3f50e402	0.8159791
92	0x3e74a3a8	0.23890555
93	0x3e97c2db	0.2964085
94	0x3f0821a4	0.5317633
95	0xbe1ce932	-0.15323332
96	0x3f31d17e	0.69460285
97	0xbb305ffe	-0.0026912685
98	0x3edc5ecc	0.43041074
99	0x3cec5136	0.028847318
100	0xbe145c05	-0.14488228
101	0x3e9ed02f	0.31018206
102	0x3f3e0cc4	0.7423823
103	0x3eb2e955	0.34943643
104	0x3f31fda0	0.69527626
105	0x3f133bf1	0.5751334
106	0xbcbb6d3c	-0.022879235
107	0x3f46ced7	0.7765936
108	0x3ea4565d	0.3209714
109	0x3e89012b	0.26758704
110	0xbd8a9c70	-0.06768119
111	0x3e886650	0.26640558
112	0x3e5b6477	0.21425043
113	0xbb5bc619	-0.0033534823
114	0xbd3f70fc	-0.04673861
115	0x3efeffbe	0.4980449
116	0x3e02f3c4	0.12788302
117	0x3f4f78ac	0.81043506
118	0x3ef5a81b	0.47979817
119	0x3e242ebb	0.16033451
120	0x3e8b4fd4	0.27209342
121	0x3e153768	0.14571917
122	0x3ed292a1	0.41127494
123	0x3f040b7d	0.5158003
124	0x3c7a76b9	0.015287095
125	0x3f085cb0	0.5326643
126	0x3ef195db	0.47184643
127	0x3f107243	0.5642435
128	0x3e8395a5	0.25700107
129	0x3e5edbb3	0.21763496
130	0xbd252053	-0.04031403
131	0x3e51ee29	0.20501007
132	0x3f207f5d	0.6269434
133	0x3ede7a23	0.43452558
134	0x3ed54867	0.416568
135	0x3f41b86a	0.7567202
136	0x3e1e80bf	0.154788
137	0x3f2a4a8e	0.6652001
138	0x3f594311	0.8486796
139	0x3f370877	0.7149729
140	0x3ee0cea4	0.43907654
141	0x3f005daa	0.5014292
142	0x3ebd2a53	0.36946353
143	0x3f445921	0.766985
144	0x3dcfd291	0.10147584
145	0x3f48636b	0.782767
146	0x3e4ec2f4	0.20191556
147	0x3ee06e2a	0.43834049
148	0xbdde78a1	-0.10862852
149	0x3ed22962	0.41047198
150	0x3f2ac4ea	0.66706717
151	0x3f1b0a34	0.60562444
152	0x3ea41984	0.32050717
153	0xbdb9f311	-0.09079564
154	0x3f32fed4	0.69920087
155	0x3ecb9b74	0.3976704
156	0x3f29bce2	0.6630384
157	0x3e8d93dc	0.2765187
158	0x3e99c442	0.30032545
159	0x3f0e0e6e	0.5549077
160	0x3ed6aa14	0.41926634
161	0x3ebe8048	0.37207246
162	0x3ee38f61	0.44445327
163	0x3dfdc607	0.12391286
164	0x3db3747a	0.087624505
165	0x3f337177	0.7009501
166	0x3e8c4cd4	0.27402365
167	0x3f133330	0.5749998
168	0x3dbebabe	0.09312962
169	0x3e6efb75	0.2333811
170	0x3c3c6988	0.01149977
171	0x3ec4912d	0.3839201
172	0x3efe25c0	0.49638176
173	0x3dc6a252	0.09698929
174	0x3d4f0a27	0.05054679
175	0x3e7f7119	0.24945487
176	0x3f32a8c1	0.6978875
177	0x3e3de01e	0.18542525
178	0x3e59480b	0.21218888
179	0x3f4b8fea	0.7951647
180	0x3f048b23	0.51774806
181	0x3ef710c0	0.48254967
182	0x3ea4d3da	0.3219288
183	0x3e509238	0.20368278
184	0x3f5db41f	0.8660297
185	0x3e982b8a	0.29720718
186	0x3e65ad6f	0.22429441
187	0x3f59275d	0.8482569
188	0x3f2454f0	0.64192104
189	0x3ed8226a	0.42213756
190	0x3e983186	0.29725283
191	0x3f3465a4	0.7046759
192	0x3e71d147	0.23614989
193	0x3f286c9f	0.6579074
194	0x3f1c6ea8	0.6110635
195	0x3f10918e	0.564721
196	0x3e153942	0.14572623
197	0x3f2c39b3	0.6727554
198	0x3f50556a	0.8138033
199	0x3e951e5d	0.29124728
200	0xbe42007f	-0.18945502
201	0x3eb16814	0.34649718
202	0x3ed62cd5	0.4183108
203	0x3ea04c20	0.3130808
204	0x3ef65d9f	0.48118302
205	0x3f1d83d7	0.61529297
206	0xbdeac1aa	-0.1146272
207	0x3e951ad6	0.29122037
208	0x3f3efa4e	0.74600685
209	0x3efafa93	0.49019298
210	0x3efe863c	0.49711788
211	0x3ea81e82	0.32835776
212	0x3f16338c	0.58672404
213	0x3bcbf0e8	0.0062237866
214	0x3f11380b	0.5672614
215	0x3e0b6c86	0.13615617
216	0x3f2367f7	0.6383051
217	0x3f30205f	0.68799394
218	0x3f10a9e3	0.56509227
219	0x3e10fbc1	0.14158536
220	0x3ee35dab	0.444074
221	0x3f232129	0.63722473
222	0x3eb5dac8	0.3551848
223	0x3f13eaf3	0.5778038
224	0x3e71c61b	0.23610727
225	0x3df66d7b	0.120326005
226	0x3ece5fed	0.4030756
227	0x3f35515a	0.7082726
228	0x3dfeaa44	0.12434819
229	0x3f1187eb	0.5684802
230	0x3ecd95fb	0.4015349
231	0x3eca4f19	0.39513472
232	0x3deed252	0.11661209
233	0x3eca96e1	0.39568236
234	0x3e196efa	0.1498374
235	0x3d04d947	0.032433774
236	0x3ea994c4	0.33121312
237	0x3f1506ff	0.582138
238	0x3e8ef085	0.27917877
239	0xbd2a4dde	-0.041578166
240	0xbdfd59f4	-0.12370673
241	0xbd9268dd	-0.07148907
242	0xbb7e6fd7	-0.0038823986
243	0x3f3bceae	0.73362243
244	0x3f15559a	0.5833374
245	0x3eeeaed3	0.46617755
246	0x3e8d421f	0.2758951
247	0x3eb54b47	0.35408995
248	0x3ee39002	0.44445807
249	0x3d83b0fb	0.06430241
250	0x3ebde8d7	0.37091705
251	0x3e13830e	0.14405462
252	0x3eededa4	0.46470368
253	0x3f31346d	0.6922062
254	0xbc5605bf	-0.013062893
255	0x3f08834b	0.5332534

l2.weight f4 [256, 256]
0	0x3e76c235	0.24097522
1	0x3e463020	0.19354296
2	0x3e511688	0.20418751
3	0x3eb57fad	0.3544897
4	0x3ce1277f	0.027484654
5	0x3dcad136	0.09903185
6	0x3d6c7541	0.05772901
7	0x3e3ef2f3	0.18647365
8	0x3e427346	0.18989286
9	0x3e860a2d	0.26179639
10	0x3e307c86	0.17235002
11	0x3e5293d9	0.20564212
12	0x3e9148e8	0.28375936
13	0x3ce1ea74	0.027577616
14	0xbe2e4da1	-0.170218
15	0x3da5dc1a	0.08098622
16	0xbd7a5772	-0.06111855
17	0x3de51d72	0.11187257
18	0x3d373d91	0.04473645
19	0x3e0eb20c	0.13935107
20	0x3e3b933c	0.18317884
21	0x3dbf1e76	0.09331982
22	0x3e9e08d9	0.30866125
23	0x3e1fada3	0.15593581
24	0x3e9a188a	0.30096847
25	0x3e6bc996	0.23026118
26	0x3e20e06a	0.15710607
27	0x3d1ebf8c	0.038756892
28	0x3e2d89dd	0.16947122
29	0x3e038add	0.12845941
30	0x3dcb06f5	0.09913436
31	0x3e28500a	0.16436782
32	0x3dfa758f	0.12229454
33	0x3dc0bec3	0.09411385
34	0x3de3c21b	0.11121007
35	0x3e24ef5b	0.16106932
36	0x3e07e410	0.13270593
37	0x3e4d6f97	0.200621
38	0x3e3e7e53	0.18602876
39	0x3e84f83b	0.25970635
40	0x3e35fd58	0.17772424
41	0x3e00e0d9	0.12585773
42	0x3d843ea8	0.06457263
43	0x3e0d0ae2	0.13773683
44	0x3e77c86f	0.24197553
45	0x3dfc3cbf	0.12316274
46	0x3deb7391	0.11496652
47	0x3d1f1e62	0.038847335
48	0x3e958687	0.292042
49	0x3d003948	0.031304628
50	0x3cba351c	0.022730403
51	0x3e8bbac0	0.27290916
52	0x3e3d4921	0.18484928
53	0x3c8d27f8	0.017230973
54	0x3d8eca90	0.069722295
55	0x3e5c5a0d	0.21518727
56	0x3e835e1e	0.25657743
57	0x3dd9028a	0.105961874
58	0x3e9162b3	0.28395614
59	0x3e0f77e9	0.14010586
60	0x3d583660	0.05278623
61	0x3e2b3912	0.1672099
62	0xbc81bd78	-0.015837416
63	0x3eaa4f40	0.33263588
64	0x3e099b4c	0.13438147
65	0x3e4ad46c	0.19807595
66	0x3e4c4873	0.19949512
67	0x3e7b06e3	0.24514346
68	0x3e27a65c	0.16372055
69	0x3e5ea776	0.21743569
70	0x3da86859	0.08223028
71	0x3e12aa96	0.14322886
72	0x3e6fc3e8	0.23414576
73	0x3e0e9a42	0.13926032
74	0x3e279fcb	0.1636955
75	0x3dc79fed	0.097473
76	0x3e25247d	0.161272
77	0x3e21eb95	0.15812524
78	0x3e0292c8	0.12751305
79	0x3d998586	0.07496171
80	0x3d885fea	0.06658919
81	0x3e2e6d21	0.17033817
82	0x3de6ea00	0.11275101
83	0x3d935d43	0.07195523
84	0x3e2cd42a	0.16877809
85	0x3e3b9375	0.18317969
86	0x3db460ed	0.088075496
87	0x3d6e1f37	0.058135238
88	0x3e0facca	0.14030758
89	0x3db451ef	0.0880469
90	0x3e2e044c	0.16993827
91	0x3e85ed30	0.26157522
92	0x3dc3daed	0.09563241
93	0x3e8a41b2	0.27003247
94	0x3e4afff0	0.19824195
95	0x3dd40ae5	0.103536405
96	0x3e361969	0.1778313
97	0x3d8aa370	0.067694545
98	0x3e75c73c	0.24001783
99	0x3dc7c2f1	0.09753979
100	0x3be3d3cc	0.0069527384
101	0x3d52824e	0.0513938
102	0x3e586c40	0.21135044
103	0x3e51be27	0.20482694
104	0x3e8c3e95	0.27391496
105	0x3e12f207	0.14350139
106	0x3db1bf95	0.086791195
107	0x3e50ec67	0.2040268
108	0x3db73948	0.089464724
109	0x3d602bf7	0.05472943
110	0x3daba495	0.08381001
111	0x3e437aa8	0.19089758
112	0x3dacd858	0.08439702
113	0x3dc37fc6	0.09545855
114	0x3c5ea54f	0.013589217
115	0x3dcc01a4	0.099612504
116	0x3e58fe16	0.21190676
117	0x3e52b176	0.20575508
118	0x3e516d23	0.20451789
119	0x3e070f22	0.13189366
120	0x3ba952bf	0.005167335
121	0x3dcc7e96	0.09985082
122	0x3df0867a	0.11744399
123	0x3e291c9e	0.16514823
124	0x3e1c55b4	0.15267068
125	0x3e54b058	0.20770395
126	0x3e113736	0.14181218
127	0x3eb404a2	0.35159785
128	0x3dfec9e7	0.124408536
129	0x3d83ca98	0.06435126
130	0x3d89b646	0.06724219
131	0x3dea01eb	0.11426147
132	0x3e62ab6b	0.22135703
133	0x3e1238ba	0.14279452
134	0x3e0339f4	0.12815076
135	0x3e4f7da7	0.20262776
136	0x3e0f5afe	0.13999555
137	0x3eb93482	0.36172873
138	0x3e6ad57d	0.22933002
139	0x3dd3f2b5	0.10349027
140	0x3e24a108	0.16077054
141	0x3e92b2a7	0.28651926
142	0x3e0645c2	0.13112548
143	0x3e92024b	0.28517374
144	0x3e25a752	0.16177109
145	0x3e4b14de	0.19832179
146	0x3d6e69ca	0.058206357
147	0x3e8f9e55	0.28050485
148	0x3beb589d	0.0071821944
149	0x3d9b5845	0.075851955
150	0x3e89b1ca	0.26893455
151	0x3eba16e9	0.36345604
152	0x3e177bd1	0.14793326
153	0x3e58f66f	0.21187757
154	0x3df03ab4	0.11729947
155	0x3e08206e	0.13293621
156	0x3e75c6a8	0.24001563
157	0x3d9356ec	0.071943134
158	0x3e394eba	0.18096438
159	0x3e9d05a5	0.3066837
160	0x3e67eace	0.22648165
161	0x3e439eef	0.19103597
162	0x3dce4811	0.10072339
163	0x3d6b2a85	0.057413597
164	0x3ddb6218	0.10712069
165	0x3e3b5eb6	0.18297848
166	0x3d8acf2a	0.06777795
167	0x3de8f03a	0.113739446
168	0xbd2112d4	-0.039324597
169	0x3dede1a7	0.116153054
170	0x3e573618	0.21016729
171	0x3d3f3751	0.046683613
172	0x3e9d6df0	0.30747938
173	0x3dfb97be	0.12284802
174	0x3e0220a4	0.12707764
175	0x3d52b615	0.05144318
176	0x3e89f49c	0.26944435
177	0x3e72eaf9	0.23722447
178	0x3dc5e8cb	0.09663542
179	0x3e48f721	0.19625522
180	0x3dda879d	0.106703974
181	0x3e70c249	0.23511614
182	0x3dcfabf3	0.101402186
183	0x3d94f56a	0.072733715
184	0x3efb9744	0.49138844
185	0x3e1d1738	0.15340889
186	0x3e090c58	0.13383615
187	0x3e959c35	0.2922074
188	0x3e556e51	0.20842864
189	0x3e2ccfea	0.16876188
190	0x3d9adb0e	0.075613126
191	0x3e3b33cc	0.18281478
192	0x3cb7831d	0.022401387
193	0x3e8568e7	0.26056597
194	0x3e340ba5	0.17582567
195	0x3dbe70ce	0.092988595
196	0x3dfc58dd	0.12321637
197	0x3e683954	0.22678119
198	0x3e66826c	0.2251069
199	0x3e243800	0.16036987
200	0xbd899ad3	-0.067189835
201	0x3e057fac	0.13036984
202	0x3e03117c	0.12799639
203	0x3e425efb	0.18981545
204	0x3e84be13	0.25926265
205	0x3d0a0721	0.033698205
206	0x3db14f75	0.08657733
207	0x3e13b524	0.14424568
208	0x3e8fc7db	0.28082165
209	0x3e3e601b	0.18591349
210	0x3e7a418d	0.24439068
211	0x3e9dbb65	0.30807033
212	0x3e5a8561	0.21339943
213	0x3e165382	0.14680293
214	0x3e0ab5fd	0.13545986
215	0x3e1ba364	0.15199047
216	0x3ee04462	0.43802172
217	0x3e6bddbc	0.23033804
218	0x3e5c4038	0.21508873
219	0x3d029f22	0.031890042
220	0x3e2d1788	0.16903508
221	0x3e778b00	0.24174118
222	0x3e1429a0	0.14469004
223	0x3e718485	0.23585708
224	0x3e0211ef	0.12702154
225	0x3d77eb2c	0.06052701
226	0x3dfe42a0	0.124150515
227	0x3e89a684	0.26884854
228	0x3dd97117	0.10617273
229	0x3dd0fe72	0.102047816
230	0x3e00ecfa	0.125904
231	0x3e3c69ca	0.1839973
232	0x3e5f2f3b	0.2179536
233	0x3e1721d3	0.14758997
234	0x3d972708	0.073804915
235	0x3e292034	0.16516191
236	0x3e8330c7	0.25623152
237	0x3e5c0d6a	0.21489492
238	0x3df46e0d	0.11935053
239	0x3dfe119f	0.12405705
240	0x3dab5b97	0.08367079
241	0xbc91cbc6	-0.017797362
242	0x3dd9599a	0.10612793
243	0x3e80cf5e	0.2515821
244	0x3e94ef29	0.29088715
245	0x3e3fd292	0.1873267
246	0x3db63786	0.08897309
247	0x3dc4083c	0.09571883
248	0x3e221e2d	0.15831824
249	0x3dda5926	0.10661535
250	0x3e1dada5	0.15398271
251	0x3dd838b4	0.1055769
252	0x3dfacfe1	0.12246681
253	0x3e76e302	0.24110034
254	0x3dfa0712	0.1220838
255	0x3e8c8ffd	0.27453604

l2.bias f4 [256]
0	0x3eaefeb6	0.34178704
1	0x3d1550de	0.036454074
2	0x3ef1db88	0.47237802
3	0x3dc3bede	0.095578894
4	0x3c3bf263	0.011471364
5	0x3edf7fb1	0.43652108
6	0xbe29f187	-0.16596042
7	0x3ed895cb	0.42301783
8	0xbee01fb0	-0.43774176
9	0x3ec36a84	0.38167202
10	0x3ee44a7a	0.4458807
11	0xbecacd9c	-0.39609993
12	0x3ecd7659	0.40129355
13	0x3ee7059b	0.45121464
14	0xbe658944	-0.22415644
15	0x3ebc969c	0.36833656
16	0x3edf6a12	0.43635613
17	0x3eca5fd4	0.39526236
18	0xbeb73f7c	-0.35790622
19	0xbddb8c84	-0.107201606
20	0x3eca516a	0.3951524
21	0xbe9750ec	-0.29553926
22	0xbe816879	-0.2527502
23	0x3edcd785	0.43133178
24	0x3ee62707	0.4495165
25	0x3ec8410d	0.3911213
26	0xbdd24bb5	-0.10268346
27	0x3d368b01	0.04456616
28	0xbe112180	-0.14172935
29	0x3ecd9325	0.40151325
30	0x3e10eb9d	0.1415238
31	0x3ee668ef	0.45001933
32	0x3ef09a61	0.46992782
33	0x3ebd5b50	0.36983728
34	0x3ef08736	0.46978158
35	0xbe9566bb	-0.2917994
36	0x3d805197	0.06265562
37	0x3ecdd6b0	0.40202856
38	0x3d9b13a0	0.075721025
39	0xbd89b857	-0.06724613
40	0x3ed0dfc0	0.40795708
41	0xbe803455	-0.25039926
42	0x3ee648f7	0.44977543
43	0x3ee6ac98	0.45053554
44	0x3ed71014	0.42004454
45	0x3ed896b1	0.42302468
46	0xbee4449f	-0.44583604
47	0x3ee29c63	0.4425994
48	0x3e354b1f	0.17704438
49	0x3ee77896	0.45209187
50	0x3edeee8f	0.4354138
51	0xbc0671c5	-0.008205836
52	0x3eadda01	0.33955386
53	0x3ed0c203	0.4077302
54	0x3ee6cf2c	0.45079935
55	0xbe9b6367	-0.30349275
56	0xbeed88d8	-0.46393466
57	0x3ee831bf	0.45350453
58	0xbdb0ab68	-0.08626443
59	0xbe43e0ec	-0.1912877
60	0xbe1902eb	-0.1494252
61	0x3ec76489	0.3894389
62	0x3edf5ae6	0.43624038
63	0x3ee0c603	0.4390107
64	0xbe1d9c55	-0.15391667
65	0xbeb08eaf	-0.3448386
66	0xbd1fb318	-0.038989156
67	0x3eba388f	0.36371276
68	0x3ef63547	0.48087522
69	0x3ee78625	0.45219532
70	0xbe950e0f	-0.29112288
71	0x3eaca7a0	0.33721638
72	0x3eb6cd2c	0.3570341
73	0x3ec1d335	0.3785645
74	0xbea8413d	-0.32862273
75	0xbefd715e	-0.49500555
76	0x3d7708cf	0.060311135
77	0xbeda0b25	-0.42586628
78	0x3ed7651d	0.4206933
79	0xbdc42bbf	-0.095786564
80	0xbeb08f71	-0.34484437
81	0xbf014591	-0.50496775
82	0x3dd02fca	0.10165365
83	0x3ed7d79c	0.42156684
84	0xbe644df2	-0.22295359
85	0x3ebdb225	0.37049976
86	0x3ec53492	0.3851667
87	0xbe25eb82	-0.1620312
88	0x3ed18222	0.40919596
89	0x3ee57741	0.44817546
90	0x3ed9c302	0.42531592
91	0x3ec22f1b	0.37926564
92	0x3edfc595	0.4370543
93	0x3ed31a88	0.4123118
94	0x3eab7e1b	0.33494648
95	0xbed9abf8	-0.42514014
96	0x3ee8bcb6	0.45456475
97	0xbdbeda0d	-0.09318934
98	0xbe407336	-0.1879395
99	0x3ec9e63c	0.39433467
100	0xbe20ac97	-0.15690838
101	0x3eaedea3	0.34154233
102	0x3eb7281c	0.3577279
103	0xbe3340ee	-0.17505237
104	0x3eb3751e	0.3505029
105	0x3ec7e5e0	0.39042568
106	0x3eaf1200	0.3419342
107	0x3ef68a0f	0.48152205
108	0xbe322664	-0.17397457
109	0x3edb35f4	0.428146
110	0x3eb6a95e	0.35676092
111	0xbd1b2c6f	-0.037884172
112	0x3ebd1acc	0.36934507
113	0x3ed894d5	0.4230105
114	0x3ede0e98	0.4337051
115	0xbec3037c	-0.38088596
116	0x3eecec7b	0.4627417
117	0xbed06ea9	-0.40709427
118	0x3ece92d8	0.40346408
119	0x3ce53f35	0.027984241
120	0x3ecbfd13	0.39841518
121	0x3ed39430	0.41323996
122	0xbe5c11ad	-0.21491118
123	0xbce203a7	-0.027589632
124	0x3ed4dc98	0.4157455
125	0xbedc55d7	-0.4303424
126	0xbe1f182f	-0.15536569
127	0xbe74b983	-0.23898892
128	0x3ee2e6ab	0.4431661
129	0x3ec736b8	0.38908935
130	0x3ee1be9f	0.44090745
131	0xbec1f956	-0.3788554
132	0x3ebef9af	0.37299868
133	0x3ed721d9	0.4201801
134	0xbcf1dd73	-0.02952454
135	0x3eeb2e97	0.45933983
136	0x3ec1428e	0.3774609
137	0x3eaa769b	0.33293614
138	0x3eb7154d	0.3575844
139	0xbea3ed3e	-0.3201694
140	0xbb26f28d	-0.0025474161
141	0x3c872551	0.016497286
142	0x3ee10c0e	0.4395451
143	0x3ed25733	0.41082153
144	0x3edb2624	0.42802536
145	0xbee27ebd	-0.4423732
146	0xbe8cf81c	-0.27533042
147	0xbe7eb2eb	-0.2487294
148	0x3ebda3dd	0.3703908
149	0x3cc890cd	0.024483109
150	0x3f247c50	0.64252186
151	0xbf05bde6	-0.5224289
152	0xbeb824c2	-0.35965544
153	0x3ee1fbf7	0.44137546
154	0x3eeb4926	0.45954245
155	0x3ed37b48	0.41304994
156	0x3ecce77b	0.40020356
157	0xbe17ec0c	-0.14836138
158	0x3ecaceb8	0.3961084
159	0x3ed04097	0.40674278
160	0xbef35ee9	-0.47533348
161	0x3ee62c36	0.44955605
162	0x3eb9ee31	0.36314538
163	0x3ec9617d	0.3933219
164	0x3ebcf60d	0.36906472
165	0x3ed12dd4	0.40855277
166	0x3eadc92c	0.33942544
167	0x3ee33f6d	0.44384328
168	0xbe055f24	-0.13024575
169	0x3edf7235	0.4364182
170	0x3ecc8f12	0.39952904
171	0x3edfa0f1	0.43677476
172	0xbd2e1138	-0.04249689
173	0x3ec34fa8	0.3814671
174	0xbea8a5ae	-0.32938904
175	0x3ed36b25	0.41292682
176	0x3ecaebe6	0.396331
177	0x3eb59979	0.35468653
178	0x3edd1455	0.43179575
179	0xbedc8927	-0.4307339
180	0x3ec089de	0.37605184
181	0x3ee5fa35	0.44917455
182	0x3ec7c46e	0.3901705
183	0x3f6b72bd	0.9197195
184	0x3ebdde0d	0.37083474
185	0xbede9ec1	-0.43480495
186	0xbe54407a	-0.20727721
187	0x3eba2fc9	0.36364582
188	0x3ee84fec	0.45373476
189	0xbe48a451	-0.19593932
190	0xbe3781d7	-0.17920624
191	0xbcc454e7	-0.023966266
192	0x3ec57412	0.38565117
193	0x3d9bc151	0.076052316
194	0x3ee20680	0.44145584
195	0x3ee3e540	0.4451084
196	0x3ed1d21a	0.40980607
197	0x3eb166b4	0.3464867
198	0x3ee341a6	0.44386023
199	0x3eccac1c	0.3997506
200	0xbf1364eb	-0.57575864
201	0x3ec0e86c	0.37677324
202	0x3eee406a	0.4653352
203	0x3ed9a8f7	0.42511722
204	0x3ec9b6f7	0.39397404
205	0xbeb1de1b	-0.34739766
206	0x3ecbe0ea	0.39820033
207	0xbccd7d02	-0.025084022
208	0xbec3f61e	-0.3827371
209	0x3ecbaf31	0.39782098
210	0x3d7a84b6	0.06116172
211	0x3ecc0a4a	0.398516
212	0x3ef6cd1e	0.48203367
213	0x3ec58680	0.38579178
214	0xbd978d77	-0.07400029
215	0x3ed976b7	0.42473385
216	0x3dffb181	0.12485028
217	0x3ee1e158	0.44117236
218	0xbee4fcc3	-0.44724092
219	0x3daac49e	0.08338283
220	0x3c471807	0.012151725
221	0x3dcc631d	0.09979842
222	0x3eb6c08e	0.35693783
223	0x3ee8bae6	0.45455092
224	0x3eb48327	0.3525631
225	0x3eef84c2	0.46780974
226	0x3ebe1d30	0.37131643
227	0x3ecc761a	0.39933854
228	0x3eced66f	0.40397975
229	0x3eea167e	0.45720285
230	0xbeb204b1	-0.34769204
231	0x3ebd2010	0.36938524
232	0xbea6e031	-0.3259292
233	0x3ed45aa0	0.4147539
234	0xbe14cb06	-0.14530572
235	0x3ec44dd6	0.38340634
236	0xbd8063af	-0.06269013
237	0xbb2d9185	-0.0026484441
238	0x3ed82a7e	0.4221992
239	0x3eb52045	0.35376182
240	0xbe18ac49	-0.14909472
241	0xbd178b6f	-0.03699821
242	0x3ed3425a	0.4126156
243	0xbdfc2b8d	-0.12312994
244	0xbe8995c7	-0.26872084
245	0x3edc87ae	0.43072265
246	0xbe692764	-0.22768933
247	0x3edd0a24	0.431718
248	0x3ecc5971	0.39911988
249	0x3eb9dce8	0.3630135
250	0x3edf376a	0.43596965
251	0x3ebf017a	0.37305814
252	0x3ef6c111	0.48194173
253	0xbec34cbb	-0.38144478
254	0x3ee1bbd6	0.4408862
255	0x3eb692d9	0.3565891

l3.weight f4 [1, 256]
0	0x3e69a101	0.22815324
1	0xbfad7bc8	-1.35534
2	0x3e601237	0.21881948
3	0xbfc7aa6f	-1.5598887
4	0xbf93f21f	-1.1558264
5	0x3e433e29	0.19066681
6	0xbf794afc	-0.9738004
7	0x3e6b4e20	0.22979021
8	0xbf65a0c8	-0.8969846
9	0x3e4eb41c	0.20185894
10	0x3e4cbea2	0.19994596
11	0xbf5d5cd6	-0.8646978
12	0x3e60fb3d	0.2197084
13	0x3e4979ea	0.19675413
14	0xbfa73600	-1.3063354
15	0x3e767c9e	0.24070975
16	0x3e52a741	0.20571615
17	0x3e599750	0.21249127
18	0xbef84756	-0.48491925
19	0xbf88c5c8	-1.0685358
20	0x3e81b48c	0.2533306
21	0xbf847662	-1.0348628
22	0xbf8caf44	-1.0990987
23	0x3e84d921	0.25946906
24	0x3e72288a	0.23648277
25	0x3e491ad1	0.19639136
26	0xbf77d89d	-0.968149
27	0xbc16f06e	-0.009212596
28	0xbfb1226a	-1.3838627
29	0x3e6194b3	0.2202938
30	0xbf9c23ef	-1.2198466
31	0x3e4a8e03	0.19780736
32	0x3e42ae35	0.19011767
33	0x3e6a4344	0.22877222
34	0x3e576a4f	0.21036647
35	0xbf169775	-0.58824855
36	0xbfccb9c0	-1.5994186
37	0x3e64c747	0.22341643
38	0xbfa93970	-1.3220654
39	0xbf4d9a5e	-0.8031367
40	0x3e690dcd	0.22759171
41	0xbf6afd24	-0.9179251
42	0x3e83a132	0.2570892
43	0x3e784245	0.2424403
44	0x3e533ce3	0.20628695
45	0x3e7b880e	0.2456362
46	0xbf4902a2	-0.7851964
47	0x3e7f05a4	0.24904495
48	0xbfb3f000	-1.4057617
49	0x3e70fa9d	0.23533101
50	0x3e75a2ef	0.23987935
51	0xbfa2a249	-1.2705775
52	0x3e7a20c6	0.24426565
53	0x3e829e27	0.25511286
54	0x3e720b8e	0.2363722
55	0xbf2091e9	-0.6272264
56	0xbf2d1a88	-0.6761861
57	0x3e6b3810	0.22970605
58	0xbf9cb183	-1.2241672
59	0xbf3ec003	-0.74511737
60	0xbf4d98a4	-0.80311036
61	0x3e605b84	0.2190991
62	0x3e6ed2be	0.2332258
63	0x3e72358d	0.2365324
64	0xbf5a3e0d	-0.8525093
65	0xbf6be2fc	-0.92143226
66	0xbfbd1049	-1.4770595
67	0x3e5c0bd8	0.21488893
68	0x3e4b3f02	0.19848254
69	0x3e48f944	0.19626337
70	0xbf557679	-0.833839
71	0x3e723d5f	0.23656224
72	0x3e7c1660	0.2461791
73	0x3e744fd9	0.23858584
74	0xbfa24041	-1.2675859
75	0xbf4d6d50	-0.8024492
76	0xbfa3344d	-1.2750336
77	0xbf2524db	-0.6450936
78	0x3e48ca85	0.19608505
79	0xbf973a8f	-1.1814746
80	0xbf810cb7	-1.0082005
81	0xbf189d83	-0.59615344
82	0xbf8f844c	-1.1212249
83	0x3e69408b	0.22778527
84	0xbf56b5a4	-0.8387091
85	0x3e734e36	0.23760304
86	0x3e652ab6	0.22379574
87	0xbfa4c2c1	-1.2871934
88	0x3e7d0b5a	0.24711362
89	0x3e59480e	0.21218893
90	0x3e59be89	0.2126409
91	0x3e6c44f1	0.23073174
92	0x3e64c3cb	0.22340314
93	0x3e75e354	0.240125
94	0x3e777f14	0.2416957
95	0xbf4f90c4	-0.8108027
96	0x3e73ed17	0.23820911
97	0xbf6faf68	-0.93627024
98	0xbfa24784	-1.2678075
99	0x3e7e0ec9	0.24810328
100	0xbf662ee8	-0.89915323
101	0x3e6b4aae	0.22977707
102	0x3e84b174	0.25916636
103	0xbf3449a8	-0.7042489
104	0x3e5b79cf	0.21433185
105	0x3e847e18	0.25877452
106	0x3e7328b4	0.23745996
107	0x3e4a565e	0.19759509
108	0xbeb0b2b2	-0.34511334
109	0x3e535c2e	0.20640633
110	0x3e8412b3	0.25795516
111	0xbf898d5d	-1.0746266
112	0x3e4f70ed	0.20257922
113	0x3e67617c	0.22595781
114	0x3e7bc279	0.24585904
115	0xbf8a7935	-1.081824
116	0x3e63c466	0.22242889
117	0xbf3567ff	-0.7086181
118	0x3e7276da	0.23678151
119	0xbf974d9a	-1.1820557
120	0x3e4d7ac1	0.20066358
121	0x3e51bd33	0.2048233
122	0xbf8ec3a8	-1.115346
123	0x3fa6fe14	1.3046288
124	0x3e6265c1	0.22109129
125	0xbf244b0e	-0.64177024
126	0xbfd1e985	-1.639939
127	0xbfa6947f	-1.3014067
128	0x3e561ac7	0.20908652
129	0x3e4e13e5	0.20124777
130	0x3e4a8d54	0.19780475
131	0xbf50a03a	-0.81494486
132	0x3e5470a4	0.20746094
133	0x3e522957	0.20523582
134	0xbf8d1dfa	-1.1024773
135	0x3e6521cb	0.22376172
136	0x3e5d6695	0.21621163
137	0x3e7dd875	0.24789603
138	0x3e702c55	0.23454411
139	0xbf35089b	-0.70716256
140	0xbfd1e12e	-1.6396844
141	0xbfd36ec6	-1.651818
142	0x3e4644b4	0.19362146
143	0x3e712c76	0.23552117
144	0x3e478ebc	0.19488043
145	0xbf6b3a4a	-0.9188582
146	0xbfb9193e	-1.4460828
147	0xbf242b4e	-0.6412858
148	0x3e524313	0.205334
149	0xbfc87e31	-1.566351
150	0x3f537ed4	0.826154
151	0xbf841abe	-1.0320661
152	0xbf681b18	-0.9066634
153	0x3e521a3d	0.20517822
154	0x3e49a1d0	0.19690633
155	0x3e7d393a	0.24728861
156	0x3e5a9657	0.21346413
157	0xbf1f40c3	-0.62208194
158	0x3e686759	0.22695674
159	0x3e52ead1	0.20597388
160	0xbf125248	-0.571568
161	0x3e490378	0.1963023
162	0x3e7fa768	0.24966204
163	0x3e61f915	0.22067674
164	0x3e818c42	0.2530232
165	0x3e48f9f1	0.19626595
166	0x3e7a4a72	0.24442461
167	0x3e83cb9d	0.25741282
168	0xbf887d66	-1.0663269
169	0x3e758ddc	0.23979896
170	0x3e7005ff	0.23439787
171	0x3e4d041a	0.20021096
172	0xbf97e4a9	-1.1866657
173	0x3e4b5024	0.1985479
174	0xbf943831	-1.1579648
175	0x3e8000b5	0.2500054
176	0x3e415a21	0.18882038
177	0x3e71831f	0.23585175
178	0x3e81f822	0.25384623
179	0xbf825606	-1.0182502
180	0x3e5ea4aa	0.21742502
181	0x3e64cbed	0.22343417
182	0x3e5cb89b	0.21554796
183	0x3fea2918	1.8293791
184	0x3e6ae3a7	0.22938405
185	0xbf48c6d7	-0.78428406
186	0xbf4730bb	-0.7780873
187	0x3e522573	0.20522098
188	0x3e49050b	0.1963083
189	0xbf9befac	-1.2182517
190	0xbfafedb0	-1.3744411
191	0xbf873754	-1.056376
192	0x3e86a824	0.26300156
193	0xbf8d898f	-1.1057605
194	0x3e732e81	0.23748209
195	0x3e832354	0.2561289
196	0x3e57780a	0.21041885
197	0x3e83c553	0.25736484
198	0x3e557378	0.20844829
199	0x3e4fc563	0.20290141
200	0xbf771694	-0.96518826
201	0x3e6189da	0.22025242
202	0x3e49dbde	0.19712779
203	0x3e5f43a3	0.21803145
204	0x3e5e97df	0.21737622
205	0xbf82a9e6	-1.0208099
206	0x3e70d266	0.2351776
207	0xbf7d7f92	-0.9902278
208	0xbf8deabd	-1.1087261
209	0x3e5f7014	0.21820098
210	0xbf99c1d2	-1.2012274
211	0x3e74364a	0.23848835
212	0x3e4fa2ea	0.2027699
213	0x3e803ed1	0.25047925
214	0xbee80299	-0.45314482
215	0x3e7de141	0.24792959
216	0xbfa9e2d1	-1.3272344
217	0x3e56c3f6	0.2097319
218	0xbf2bf5b0	-0.67171764
219	0xbfb93d78	-1.4471884
220	0xbfa7de8f	-1.3114794
221	0xbfaed448	-1.3658533
222	0x3e583fbe	0.21118066
223	0x3e66bded	0.22533388
224	0x3e5c2f3b	0.21502392
225	0x3e5310ff	0.20611952
226	0x3e512d68	0.20427477
227	0x3e576ec8	0.21038353
228	0x3e81e196	0.2536742
229	0x3e4ec5f6	0.20192704
230	0xbf6c8c9d	-0.9240206
231	0x3e812e6d	0.25230733
232	0xbf8acc11	-1.0843526
233	0x3e70b6bf	0.23507212
234	0xbfbcb85c	-1.4743762
235	0x3e78dc70	0.2430284
236	0xbf95d600	-1.1705933
237	0xbf8d60a6	-1.104512
238	0x3e7088a7	0.23489629
239	0x3e6deb0e	0.23234197
240	0xbfae285b	-1.3606066
241	0xbd060d77	-0.032727685
242	0x3e5725ab	0.21010463
243	0xbf2971d2	-0.661893
244	0xbfbe18c9	-1.4851314
245	0x3e758973	0.23978214
246	0xbfb40f35	-1.4067141
247	0x3e556ba0	0.20841837
248	0x3e4f98d6	0.20273146
249	0x3e807b95	0.25094286
250	0x3e6f99a1	0.23398449
251	0x3e4b40ed	0.19848986
252	0x3e4eb0de	0.20184657
253	0xbf41ec25	-0.7575095
254	0x3e803d50	0.25046778
255	0x3e801369	0.2501481
