model/halfcheetah-medium-expert-v2.pt (torch, 284503 bytes, 5 tensors)

l1.weight f4 [256, 17]
00000000: 403f 733d 6057 083e 3456 37bd 33f5 19bf
00000010: 509b 013f 1c87 59be a8e6 503e 3d65 73be
00000020: 0349 1ebe 89c0 bbbe 7a80 ed3e 0631 d53e
00000030: e375 363e 1f3f a83e 454d 80be bfdd a7be
00000040: 67f8 e1be ae00 913e 22a9 bebd f52b 6c3e
00000050: 25c4 153f 2f70 733e aa5e 89be 60de 83be
00000060: 70f8 dc3e 64b6 223e 7eaa ebbd 0839 b33e
00000070: 415a 56be eb45 07bd ceaa 10bf 7f86 5b3e
00000080: 0cab 8c3e dd1f 2bbe 616d 153d 42ce c5be
00000090: 4c06 21be 2120 00bf c709 89bd 90bc b33e
000000a0: b839 933e 0d21 b5bc a1e9 36bd db69 bc3e
000000b0: ef4e 5dbe a060 973e a81e 853e 82fe 4d3e
000000c0: 40d5 ccbe 7323 9bbe 9f99 64be f805 36bc
000000d0: 4c3d 853e dfe9 423e 47bc ba3e 5ef4 503d
000000e0: 980a 85be 7a60 bfbd 3306 cebd 0d6a 0cbe
000000f0: 12ee 90bd d5f4 0abe f1e3 0bbf 7650 713e
00000100: 4ef2 91bd 051c f83e 07a8 bf3e d0d5 93bd
00000110: e366 a03c d8f3 7ebe 8249 bbbe 0109 9bbe
00000120: 3419 f1bd adec c03e c56e 4abd d818 033d
00000130: db13 25be 30b1 143e 8c35 10bd 1c61 e63e
00000140: 9ab3 dd3e 36c1 203e 9736 01bf 261a 9bbb
00000150: 8460 54be 3be6 6abd 59ee ccbd f58e 353e
00000160: d4e3 98be b295 793e 3b99 b3be df6f be3e
00000170: d3b3 1e3e 2cf8 8e3e 1f81 03bf 6787 ba3e
00000180: 388a 05bf bb07 f8be db41 7fbe 30b7 553d
00000190: 5a9e 6c3d 064a 0fbe c159 3c3c 4904 66be
000001a0: bb2a dc3e c964 b5bd e18f c53e ee15 12be
000001b0: 685c b43e c086 993e 63cc a13e cf9b a03d
000001c0: 3ca4 9dbe fa01 263e 7244 023f d4bc 383e
000001d0: 1d02 a6bd 5d27 95bd b077 6c3e 0af6 46bd
000001e0: b0c4 b1bd c575 533e 3aa2 8dbc 0a8e 5cbe
000001f0: 7367 a5be 376c 65be bdc6 1c3e 1def e53d
00000200: ff29 8f3e 3118 4d3e 4569 d23e b0e9 0b3f
00000210: af18 e6bd e455 a8be 5f05 c8bd 5bfb 0d3e
00000220: 4a56 58be 496c 273d 455f 47bd cf5c 413d
00000230: fa25 0a3d 1896 623e 5a89 6d3e fb4a cb3e
00000240: 82a4 423b ce9b f63d 0e9f 15be 28b2 09bf
00000250: 0a96 7bbe fbd6 91be 92f7 053e d1d9 7c3c
00000260: 6e8b babe 27d3 14bd 1eda 5abe 811b 9a3e
00000270: 8566 7cbd 518b a93e b08e 05be 4729 093e
00000280: 3e7a 083e 75c5 533e cfc7 99be 483b c73e
00000290: 933e adbe 9651 adbe 7675 d23c abd8 12be
000002a0: 9742 0f3e 042a c0bc 422f d2bd d98f f9bd
000002b0: f5b5 583e 8005 e63e b92f 5e3e dc52 9dbd
000002c0: 9517 68bd 157c 4f3e 086d dcbd 351f 9c3d
000002d0: 93e5 003e 419a 44be f464 9dbe 4355 4cbe
000002e0: d442 b0bd 23f1 613e a1cc 143e b804 c53d
000002f0: 49e6 56be cad3 15bd 054e 6abe 9377 1fbe
00000300: 3a7c 283f 953f 12bc ac5e c63e 7e57 09bd
00000310: 156d 10be f2be d0bd ab78 87be be03 393e
00000320: 6a7b 61bb dabc 323c 47f7 bf3d 9217 be3e
00000330: 1e75 aebd 111c a53e 931e 9b3e 9181 ffbe
00000340: 0a7f 1e3f abfe 84be 3a6c b03e 84f3 cfbe
00000350: 020d 0abd 4715 16bf 06a0 893e f180 8f3e
00000360: 88b0 183e b76a 113d ea9c 96be 36db 21be
00000370: afc5 e3be c990 e0bc 0971 63be 4d4f 4fbd
00000380: 931c 873e 5f95 963d 3b11 c7bd c2fb fb3d
00000390: 8b53 1bbe bd5b 5c3e 7e7f b23e ee56 433e
000003a0: eae5 c53e a332 073f 67a0 a9bd f289 d6be
000003b0: f3d7 82bd e204 ac3e a294 4b3e 1dc5 94bf
000003c0: f959 5a3e 6f45 b63e 3e89 cc3e f329 92be
000003d0: 9306 033e c3f5 2d3e 83d4 a6bc c4a2 283e
000003e0: a74f 68be 7b72 76bd 076c 3c3d 97a0 94be
000003f0: d3eb e2be 8db2 b2be 5c2f c8be 98cf 173e
0.05938649 0.13314581 -0.044759944 -0.6013977 0.50627613 -0.21242946 0.20400488 -0.23769088
-0.1545754 -0.3667033 0.46387082 0.41638964 0.17818408 0.32860658 -0.25058952 -0.32786366
-0.44134828 0.2832083 -0.09309603 0.23063643 0.5850242 0.23773263 -0.26830035 -0.25755596
0.43158293 0.15889889 -0.11507128 0.3500445 -0.20932867 -0.033025663 -0.5651063 0.21438025
0.27474248 -0.16711374 0.036481265 -0.38633925 -0.15725058 -0.50049025 -0.06691318 0.351048
0.28754973 -0.022110486 -0.0446564 0.3679951 -0.21612142 0.29565907 0.2599995 0.20116618
-0.40006447 -0.30300483 -0.22324227 -0.0111098215 0.26023328 0.19034527 0.3647177 0.051014297
-0.25984645 -0.09344573 -0.10059776 -0.1371233 -0.07076658 -0.13569959 -0.54644686 0.2356585
-0.07126294 0.48458877 0.37432882 -0.07218516 0.01958031 -0.24897707 -0.3657952 -0.30280307
-0.11772385 0.3768057 -0.049422044 0.032006115 -0.16120856 0.14520717 -0.035207316 0.44995964
0.43301088 0.15698704 -0.5047392 -0.0047333417 -0.20739943 -0.05734847 -0.10006399 0.17730315
-0.2986132 0.2437351 -0.35077843 0.37194726 0.15498285 0.27923715 -0.513689 0.3643143
-0.5216403 -0.48443398 -0.24927466 0.052176654 0.057768203 -0.13993081 0.011496008 -0.22462572
0.4300135 -0.08857114 0.38586333 -0.14266178 0.3522675 0.2998562 0.31601247 0.07842218
-0.30789363 0.16211691 0.5088569 0.18040782 -0.08105872 -0.072828986 0.23092532 -0.048574485
-0.08680093 0.20650394 -0.01728927 -0.21538559 -0.32305488 -0.22404562 0.15310188 0.11227248
0.27961728 0.2002876 0.4109594 0.54653454 -0.11235177 -0.3287803 -0.097666495 0.13865416
-0.21126667 0.040874753 -0.04867484 0.04720765 0.033727624 0.22127569 0.23196927 0.39705643
0.0029700105 0.12041436 -0.14611456 -0.5378747 -0.24568954 -0.2848433 0.13082722 0.015432791
-0.364345 -0.036334183 -0.21372268 0.3009911 -0.061621208 0.33114102 -0.13042712 0.13394652
0.13327882 0.20680793 -0.30035254 0.38912416 -0.33836803 -0.33851308 0.025690775 -0.14340465
0.13990246 -0.023457535 -0.1026292 -0.1218564 0.21163161 0.4492607 0.21697892 -0.0768182
-0.056663115 0.20262177 -0.107629836 0.0762314 0.12587576 -0.19199468 -0.30741084 -0.199544
-0.086064965 0.22064643 0.14531185 0.09620041 -0.20986284 -0.03657893 -0.22881325 -0.15572958
0.65814555 -0.008926292 0.38744104 -0.033530705 -0.14104111 -0.1019267 -0.2645925 0.18067834
-0.0034405836 0.0109092835 0.09373336 0.37127358 -0.08518432 0.32247975 0.30296764 -0.4990354
0.61912596 -0.25975546 0.3445757 -0.40615475 -0.03370381 -0.58626217 0.268799 0.28028062
0.14911091 0.03550216 -0.2941659 -0.15806279 -0.44486758 -0.027412789 -0.22211088 -0.050612736
0.26388988 0.07352709 -0.09720083 0.12303878 -0.15168588 0.2151937 0.34862894 0.1907613
0.38651973 0.5281164 -0.082825474 -0.4190212 -0.06388845 0.33597475 0.19880918 -1.1622654
0.21323384 0.3559985 0.39948457 -0.2854763 0.12795477 0.16988282 -0.020365005 0.1646834
-0.22686635 -0.06016777 0.04600146 -0.2902877 -0.44320545 -0.34901848 -0.39098632 0.14825284

l1.bias f4 [256]
00000000: 558b f53e 96e1 4e3e 93d1 bc3e fe24 003f
00000010: 89d2 a73e 0b17 033e 28f4 cb3e 14ac 293f
00000020: 984d 723e 4a3a 2e3f 17e8 433f 139c 0a3f
00000030: 5b8d 8a3e c598 f53e 158c 74be 30fd 243f
00000040: bd55 003e 59b8 94be f694 c73e 4529 433f
00000050: 5938 1d3f 0e35 b13e 8e93 ea3e d80b 443e
00000060: c731 1f3f e693 d03d 258b 233f 3c50 fbbd
00000070: e9dd 1b3f fc92 e33e a72c 1c3f 022a 343f
00000080: fea2 1a3f ce27 133f a3f8 f43e c228 903b
00000090: 7936 073e 5767 263f ff2d 1a3f b469 bd3e
000000a0: f76f 2c3f 36ae 813d bf9a fa3e 4dc3 2a3f
000000b0: 88e4 263f a51e 3a3f 485f d2bd fc3c e33e
000000c0: be81 c93e 4ade 923e 2d38 c73e 61e9 c13d
000000d0: 8d4a 513e 3d9f 2a3f a512 143f da6e 423f
000000e0: 4256 003f c0ee d83e c419 0c3f bf80 303f
000000f0: dbeb e63d 6b0c ad3e 849c 543e e852 a0bd
00000100: 244b 863e 1e2c bb3e d385 6d3e 9a82 0e3f
00000110: 1497 623e 7812 5dbb a1ee 203e 8414 343f
00000120: 3b36 453f 9a4a 213f 72b5 503d 13c8 123f
00000130: 5d7c 0e3f e119 173f 7765 dcbd 34a0 ec3e
00000140: 0811 833e dc1a 953e 72f8 553e da68 bf3e
00000150: d416 d93e 89f9 3b3f ef2b e83e 7b8b ef3e
00000160: 7ef5 643e fa4b 453f 8c98 e53d ceaf e5bd
00000170: 4ef8 113c 9e31 af3e 4efb 403f 9f2a 483e
00000180: c313 cd3e e9ce 333f 5eae 173d 9996 6e3d
00000190: 6b21 af3e 3bc7 b73e 2973 4b3e b7ad 383f
000001a0: acaa 1a3f 2421 023f b2df cd3e e92d f43d
000001b0: 5522 5fbe a241 1a3d 0f0c f73e 7f07 8d3e
000001c0: 2ea2 0d3f 99d7 953e 094c c73e 4b93 7b3e
000001d0: 730a ff3e 2d4a 393f 3286 3a3e 0074 cabd
000001e0: 6d53 eb3e cdcd c93e 5f17 283f c26c 463f
000001f0: 60fb 363e 3520 9a3e 3237 3e3f 6004 ec3e
00000200: db65 a13e 44f4 0f3f 03bd 99be 5e08 ea3d
00000210: edd6 03be 02d4 3c3f 5b78 273e 3461 313f
00000220: 3893 663e 37a8 d03e 0fad e13d 25c7 0c3f
00000230: 7621 c53e 2ab8 91bd aa50 133f fd38 5d3e
00000240: 0998 b53e 08d0 023f 9bd2 323f 54c0 233e
00000250: 8942 733e 1b3e 1c3f e5f7 b53e c397 fb3d
00000260: f5fb 0e3f 7b67 c53d 79ae bc3e e80e 243f
00000270: f621 2d3f 74a7 3f3e 4be2 823d f6eb 1f3f
00000280: 42e6 27be 81ec 193e c16f ef3e a864 2e3f
00000290: eb81 893e d1d7 b93e a717 1a3f 62ff 6d3f
000002a0: a639 2c3f 9f3d a73e 5915 9c3e bf14 6b3e
000002b0: 244e 1b3f 5bee c93e 5e7e bf3e 1991 493f
000002c0: 96ad 0b3f e79e b83e d911 183f 628c a43e
000002d0: af1c 493f 4b8a ed3e a98b 503f fba0 8a3e
000002e0: 9976 483f 6391 cf3e 5a28 123d 81c9 0d3f
000002f0: 9779 32bd 26e2 073f 44b2 b63c f34b 0e3e
00000300: 02e8 6c3e 1ba0 fa3e 1d22 d63e 539e a83d
00000310: b1a8 833e 645c 3d3e c4a9 c23c 54dd c03e
00000320: 58ba bbbc 60fd 2c3f 2278 973e 0367 603f
00000330: 0548 243f 10de 553f 30d4 2d3f 3f4c 533f
00000340: eb0c ba3e bea2 1d3f a3b7 eb3e 4e1f 803e
00000350: 51a2 cf3e 1331 7a3d 7ccc 2b3f 5c52 0e3f
00000360: 6d31 0d3f c4ae 453f e6c7 e93e 2755 a33e
00000370: b08d b43c 57f4 9b3e 2bb9 02bd a473 0f3f
00000380: a376 553f a7d0 3fbe a14f 093f 3246 393f
00000390: d721 dd3e 0ee7 c13e 69fb 5f3e 93d7 0f3f
000003a0: 6e5a 863e fb10 113f d3f2 593e 52c3 d23d
000003b0: 4108 f83e c472 dc3d f96f 093f fbec 273e
000003c0: 3397 613e 8118 c43e 720f 943e aae9 813d
000003d0: c413 ef3e 67fe c73e e296 4b3f 5702 2a3f
000003e0: 2f7e 1d3e e7ec 0a3f 2d8d 9a3e f0d4 fd3e
000003f0: 3523 f53e 049a 6dbd 9065 433d 95c8 043e
0.47957864 0.20203242 0.36878642 0.50056446 0.32777813 0.12801759 0.39834714 0.66278195
0.23662412 0.6805769 0.76526016 0.541444 0.2706097 0.47968116 -0.23881562 0.64448833
0.12532707 -0.29046896 0.38980836 0.7623485 0.61414105 0.3461079 0.458157 0.19145143
0.6218533 0.101844594 0.6388419 -0.12271163 0.60885483 0.44448078 0.61005634 0.703766
0.60404956 0.5748261 0.47845945 0.00439939 0.13204373 0.65001434 0.60226434 0.36994708
0.67358345 0.06332056 0.48946187 0.66704255 0.6519246 0.7270301 -0.1027208 0.44382465
0.39356798 0.28685218 0.38910046 0.094683416 0.20438595 0.6664923 0.5784095 0.75950396
0.5013162 0.42369652 0.54726815 0.6894645 0.112754546 0.33798537 0.20762831 -0.07828313
0.26229203 0.36557096 0.23195581 0.5566803 0.22127944 -0.0033732932 0.1571603 0.70343804
0.77035874 0.6300446 0.05095429 0.5733654 0.55658513 0.59023863 -0.107615404 0.46215975
0.2559893 0.29122055 0.20895556 0.37384683 0.4240023 0.73427635 0.4534602 0.46786103
0.22359273 0.77069056 0.11210737 -0.11215173 0.008909298 0.34217542 0.7538346 0.19547509
0.4005414 0.70237595 0.037031524 0.05824909 0.34205183 0.35894188 0.19868149 0.7214007
0.60416675 0.5083182 0.40209728 0.11922819 -0.2179044 0.03766025 0.48251387 0.27544782
0.5532559 0.2926605 0.38925198 0.24567907 0.4981266 0.7237881 0.18215254 -0.098854065
0.45962086 0.39414826 0.6566066 0.775097 0.1786933 0.30102697 0.7430297 0.46097088
0.31523022 0.56232095 -0.30027017 0.11427377 -0.12874956 0.73761 0.16354506 0.69288945
0.22517097 0.40753338 0.110193364 0.5499137 0.3850209 -0.07115205 0.5754496 0.2160377
0.35467556 0.5109868 0.6985261 0.15991336 0.2375585 0.61032265 0.3554069 0.122848056
0.55853206 0.09638878 0.36851862 0.64085245 0.67629945 0.18716222 0.06390818 0.6246942
-0.1639643 0.15031625 0.4676495 0.6812234 0.26856932 0.36297467 0.6019234 0.9296781
0.67275465 0.326642 0.30485037 0.22957133 0.6066611 0.39439663 0.37401098 0.78737026
0.54561746 0.36058733 0.59402233 0.32138354 0.7855939 0.46394572 0.81463104 0.27075943
0.78305966 0.4054061 0.035683013 0.55385596 -0.04357299 0.5307945 0.0223018 0.1389616
0.23135379 0.48950276 0.418229 0.08233323 0.2571464 0.18492275 0.023762591 0.3766886
-0.022916004 0.6757412 0.29583842 0.87657183 0.64172393 0.83541965 0.679019 0.8253822
0.3633798 0.6157645 0.4603854 0.25023884 0.40553525 0.061081957 0.67108893 0.5559442
0.5515354 0.77219796 0.45660323 0.31900904 0.022040218 0.30459854 -0.03191487 0.5603583
0.8338415 -0.18731938 0.5363713 0.72372735 0.4318988 0.37871593 0.21873249 0.56188315
0.26240867 0.56666535 0.21284036 0.10291161 0.48443797 0.10764077 0.5368648 0.16398995
0.22030334 0.38299945 0.28918034 0.06343396 0.46694767 0.3906128 0.79527104 0.6640982
0.15380166 0.54267734 0.30185834 0.4957652 0.47878423 -0.05800821 0.04770428 0.12967141

l2.weight f4 [256, 256]
00000000: 3d75 783e 442f 0f3e 0aa3 373e 55b4 0d3e
00000010: 631c 433e 3dfa 4d3e bbcc 133e 4100 333e
00000020: 5284 003e 3968 063e 2aee 823e 3645 283e
00000030: 7824 f03d 93d7 163e 22ad 01be d4d5 323e
00000040: f479 3c3e 16a4 633d b919 6c3e 4186 a63e
00000050: 451c 963e 5ed2 593e 640c cb3d 9840 e73c
00000060: 0a88 193e f29b 263d 892b 1a3e 1538 eb3d
00000070: db39 fb3d 8b54 7e3e 6537 803e 80bc 833e
00000080: 01a9 a73d 9793 393e 4d39 3a3e 3b26 973d
00000090: c74d ef3d 04e1 1b3e 5cd0 193e 99bd 773e
000000a0: 7bd9 483e d4c9 303e c80d 353e 34c8 713e
000000b0: 2a67 ac3d a7d1 5f3e 1561 313d 932b 8a3e
000000c0: ad38 ec3d fe10 003e 92e7 1e3e 90f8 b73d
000000d0: c6d8 be3d df9c 143e 3242 973e 2dbc 203e
000000e0: 3b72 063d f69a 3f3e b8d2 2b3e d669 113e
000000f0: 6f35 b53c 9444 5a3e a993 913e eb69 ce3d
00000100: a10f 113e dfe8 9b3d b73b 733e c12b 063e
00000110: edea 263e c0c5 553e 0f02 47bd 087f 953e
00000120: 4242 773e a0d2 973e 92e7 6d3d 2472 7c3e
00000130: 5f56 823e d86d 4e3e 4b3c bf3d f945 663e
00000140: 3ea0 213e 07b1 103e c16f c13d 68e2 9d3d
00000150: 8091 2a3e 8ca1 2c3e ea69 193e e927 193e
00000160: 290c 283e 2751 423e 53ed 093e a242 4b3d
00000170: e051 353e e6cc 3a3e ff1b 813e 3c19 143e
00000180: dad4 263e 51a2 333e 275a d83d 7e1c fe3c
00000190: 6d8b 293e 8dd9 533e 55b7 113e f71f 7e3e
000001a0: 3443 393e 8adf 563e f04a 803e 3662 403d
000001b0: af39 25bd bb31 7fbd 806d 593e 4a46 203e
000001c0: ae27 5e3e caa6 093e 5ee9 283e cf9c 493e
000001d0: 07a8 373e b206 893e 4738 9a3d e99d 103e
000001e0: a784 463e 054f 223e 17df 3f3e 95b7 b33e
000001f0: e4ab 013e df18 683e 3a85 6a3e 998a 1e3e
00000200: aa39 2b3e db0d 2b3e d0c9 0bbc 7af3 3f3d
00000210: ab30 0e3d db25 593e 4a8d 533d 8520 d23e
00000220: ec78 9c3c 1281 423e 3f6a 253e 3b3a ec3d
00000230: 6485 ad3d 5341 713d b171 8b3e ad43 a33d
00000240: 91b0 233e 6ef9 a13e 31c8 513e c74a a03d
00000250: 5983 1e3e 2d9b 353e f9a4 203e d43d 773e
00000260: 71b4 603e 099a e8bb 9b84 223e 4aaf a33e
00000270: 4796 5d3e b843 7c3e 4343 483e 3d56 863e
00000280: e3db 923d 0a01 08bd 20a4 d03e 9f2f 503e
00000290: 1333 9e3e ef4a 113e 11a2 f63d 481d 233e
000002a0: d89b b03e a70d 433e c4bf 583e d4ed 833e
000002b0: 6a2e 383e 1322 873e f3a0 e33d ab1d 953e
000002c0: e4a3 a23e c9ad 8c3d 15ff f33d 5c09 4e3e
000002d0: 57a0 103e 88eb 0e3e da4b af3e 463a 323e
000002e0: 9478 863e 598b 453e 0ab8 bd3c 225c 5f3e
000002f0: 9697 dcbc 8a3e 3c3e e518 3ebc cfb0 583e
00000300: f9e7 a93d e02e 543e 4e00 243e b680 3e3a
00000310: 056a 1b3e 7629 0b3e b8c9 763e 6f3c 283e
00000320: 3cf2 c43d a2b5 453e 987a f23d 3f06 713e
00000330: a3af 563e 0640 9f3e 5154 833e f2d1 613e
00000340: c8d1 d43d cada 8a3e 6c4f 1f3e e554 693e
00000350: 7f71 243e 990e ad3d 2c32 133e 261b 2a3e
00000360: 00d1 e33d ca3e 833e 5bef 3b3e 2a14 143e
00000370: 46ce 813d 42c5 a13d aa10 bbbc 89cc 363e
00000380: 86b2 213e 69ab f13d 5ad1 983e c70a 7e3e
00000390: 083a 103e 412d 4b3e 7772 1d3e 9223 b73d
000003a0: fa38 2c3e 8af3 103e 8487 363e 48c8 fd3d
000003b0: 5159 0f3e 52a4 aa3d 04b8 f83d da4b b43d
000003c0: 9542 af3d 75bd 193e e87c ea3d 37ef 083e
000003d0: 89a2 093e dc34 4b3d 97f7 863e f8c1 703e
000003e0: e761 e73d 5b44 263e 6365 1a3d 3dc1 5d3e
000003f0: 592b 183e 1054 c53d c19a 9a3c 5519 843d
0.24263473 0.13982874 0.17933288 0.13838322 0.19053797 0.2011499 0.14433567 0.17480566
0.12550476 0.13125695 0.2557233 0.16432652 0.11725706 0.14730673 -0.12663701 0.17464381
0.18405896 0.055576406 0.23056687 0.32524303 0.29318443 0.21271655 0.09914473 0.028229043
0.14993301 0.040676065 0.1505567 0.11485306 0.122668944 0.24836938 0.25042263 0.25729752
0.08186532 0.18122707 0.18185921 0.07380339 0.11684757 0.15222555 0.15020889 0.2419342
0.19614212 0.17264491 0.17681038 0.23611528 0.084181145 0.2185732 0.043305475 0.2698637
0.115342475 0.12506482 0.15518025 0.089829564 0.0931869 0.14512967 0.2954269 0.15696783
0.032823782 0.18711457 0.16779602 0.1420053 0.022120206 0.21315223 0.28432968 0.10078796
0.14166118 0.07612776 0.23753248 0.13102628 0.16300555 0.20876217 -0.048585948 0.2919848
0.24146369 0.29652882 0.05808217 0.24652916 0.2545652 0.2015909 0.09337672 0.2248763
0.15783784 0.1413003 0.094451435 0.07709199 0.16657066 0.168585 0.1498181 0.14956631
0.16410889 0.1897627 0.13469438 0.049624093 0.17707014 0.18242225 0.25216672 0.14462751
0.16292134 0.17542388 0.1056407 0.031019446 0.16557093 0.20688458 0.14230092 0.24816881
0.18092042 0.20983711 0.25057173 0.04696866 -0.040338214 -0.062303286 0.21233177 0.15651813
0.21694824 0.13442531 0.16495273 0.19688724 0.17935191 0.2676292 0.07530265 0.14122738
0.1938654 0.15850456 0.18737446 0.35101 0.12663227 0.22665738 0.22902384 0.15482558
0.16721216 0.16704504 -0.008532003 0.046863057 0.034714382 0.21205847 0.051648416 0.41040435
0.019100629 0.18994549 0.16153811 0.11534544 0.08472708 0.05890019 0.27235177 0.079718925
0.15985323 0.31635612 0.20486523 0.07826763 0.15479793 0.17734976 0.15687932 0.2414468
0.21943833 -0.0070984405 0.15870897 0.31969672 0.21639358 0.24635208 0.19556908 0.2623767
0.07170846 -0.033204116 0.40750217 0.20330666 0.30898342 0.14188741 0.120426305 0.15929139
0.344939 0.19048177 0.21166903 0.25767386 0.17986456 0.26393184 0.11114683 0.29124197
0.31765664 0.068690844 0.119138874 0.20120758 0.14123665 0.13957036 0.34237558 0.17405042
0.2626387 0.19291438 0.023159046 0.2181249 -0.02692775 0.18383232 -0.011602615 0.21161197
0.082961984 0.20721006 0.16015741 0.0007267104 0.15177162 0.13590035 0.24100387 0.16429304
0.09616515 0.19307569 0.11839789 0.23537539 0.20965438 0.31103534 0.25650266 0.22052744
0.10391575 0.27120048 0.15557641 0.22786291 0.1605892 0.0845005 0.14374608 0.16611919
0.11123848 0.25633842 0.18353026 0.14460817 0.06338172 0.07898952 -0.022835094 0.17851461
0.15790758 0.11800272 0.29847223 0.24808799 0.14084637 0.19841482 0.15375696 0.089423314
0.1681861 0.14155403 0.17825133 0.12391716 0.13998915 0.08332123 0.12144473 0.0880353
0.085576214 0.15013678 0.11449605 0.13372503 0.13440908 0.049610958 0.2636077 0.23511493
0.1129797 0.16237013 0.037694346 0.21655746 0.14860286 0.09635174 0.01887262 0.06450144

l2.bias f4 [256]
00000000: 2f3d c63e 5520 7dbd a818 e73e fed7 3e3c
00000010: 4929 bfbe a29a e23e 0f72 bcbd 79d1 11bd
00000020: 776f b63e 76f4 b3bc 1b77 6abe fba4 c63e
00000030: 4772 b63e bf82 ef3e c30d cf3e 63b0 39bc
00000040: 990d cebe d860 993d 383c e73e 9637 22be
00000050: d7c4 bc3e dc3d 8dbe 6a72 cd3e 0536 d73e
00000060: 21a1 ef3e 5ef0 49be 024e cf3e fced e43e
00000070: 347d 07be af37 d63e f38d 9e3d a638 cd3e
00000080: 47b6 cb3e dfe3 cf3e 7644 a1bd 8e4b b7be
00000090: a753 b4be caf2 c43e e6af ed3e b32f 02be
000000a0: 9da1 d53e e3d8 cc3e cfb0 d13e e3b4 e23e
000000b0: 4c67 d5be 1473 a3be bb29 e0ba a58a d53e
000000c0: 8df7 b33b 15b9 eb3e 8cfc 3abd bf3c d23e
000000d0: ab02 b93b 9084 dd3e 44a0 e03e 0bc0 d73e
000000e0: 549b b93e d9d4 b23e ed50 7abe 5165 e43e
000000f0: 5002 ee3e f7a0 e03e 52c9 e83e 6fa7 de3e
00000100: bfab d43e 05c7 bf3e 0ef2 7dbe 7f0e fbbe
00000110: b8f4 0abe b8d1 e13e 208d d13e 6b20 df3e
00000120: adf4 c53e 9ad6 d53e 6f7e db3e c273 cb3e
00000130: 5143 c33e 64d0 d83e 90e1 ef3e 24db 4abe
00000140: 4cff e03e c24f 113d 3d89 16be a776 d33e
00000150: 7d13 f73e ea70 fa3e 4de4 9bbe 1a82 c93e
00000160: 2d7a f43e 804e 0f3d 684c 6bbc 2c5f c03e
00000170: b50d 013f 0e02 e83e 1290 be3e a8e9 87be
00000180: 88c3 f3be b0df f23e 47bd bd3e 0fdc dc3e
00000190: b5ec 71bd 62b1 a0be 13c0 e23e 3e29 9abe
000001a0: be71 f73e 4bea 93be 2d18 c1be 603b c6bd
000001b0: 807e dfbe 326d e83e d2bb 82be 5551 8cbe
000001c0: 8c86 f73e 7dc7 003e c675 73be cf14 e53e
000001d0: 225f bc3e 222e bfbe 8c99 efbd c5eb 8abe
000001e0: 9aaa 05be d0ae ba3e 9d39 1bbd f3d9 a8be
000001f0: ba9c c73e 4455 47be d467 db3e ca07 d03e
00000200: 2b9e bbbe bf3a c83a c4f3 fbbe a4d5 84be
00000210: 2ec9 c23e 6c7f f13e c9f2 1abe 793b ca3d
00000220: 9715 c4be ba5e f53e 42a7 a3bd cd8d d6be
00000230: 4cac 2ebc a24e 7fbc 5e9a ed3e 41eb d53e
00000240: 3ba8 b13c f405 e33e cd11 ec3e 73a3 d83e
00000250: 191d ef3e c544 c4be d31e 35bc 0b8c dd3e
00000260: 6126 b9bb 6a73 bb3e 42be d73e 9191 a0be
00000270: 7ccc b5be d2e2 d93e 3653 013f 4ec1 f33e
00000280: a8f9 d43e 5687 ff3e ef4f 31be 6d8d d93e
00000290: b99d a9be ed4b d03e 6b05 c13e 6637 f53e
000002a0: a270 99bd cbd7 e43e bce9 c7be d846 c63e
000002b0: 23b8 24bd bf79 183e 8b69 83bd 2c8a 4bbe
000002c0: 6f2a 01be d1a2 b3be 1c2d ce3e 08f1 8ebe
000002d0: 3447 cabe fd95 e93e 8327 7ebe 1380 bbbe
000002e0: fb25 b93e 40d9 f53e 9af9 dc3e 4c46 dd3e
000002f0: 96c9 013e 8762 c5be 087a db3e 1403 c8be
00000300: 5993 c43e 1a8e 9bbe 2dd4 11bd f1be f4be
00000310: c32a ec3e a45b d83e a654 b53e 4089 99be
00000320: 1444 cebe 08c7 b33c a265 eb3e 33de cd3e
00000330: 021f e33e c078 dd3e 4fe3 8fbe 60bf e63e
00000340: 2eaa d03e 349d 53be b436 93bd d29a 023f
00000350: 85d7 cc3e a417 0f3e 6b6b be3e 7adf bf3e
00000360: 7898 cf3e 8c65 e9be 8fc6 94be 1feb 0e3c
00000370: 5ee3 bb3e b547 ec3e d74e 9fbe 3580 55be
00000380: 5b51 acbe 0f73 c93e 2c77 cf3e 7406 d73e
00000390: 5d96 a33c 5679 c03e 83f2 013e 7fba 3c3e
000003a0: 2fb9 f43e 6d16 c03e aad9 ec3e 3aa3 09be
000003b0: f134 ca3e 6162 cc3e d12e dd3e 1489 c33e
000003c0: 7092 a1be ae78 0cbd 9f51 d13e 2da5 a83c
000003d0: ef0a 66be 40dd 69be 1883 0bbd 77b1 ee3e
000003e0: 857c 7cbe 0e1c ea3e db10 b23e a54d cf3e
000003f0: 2803 a1be 1522 d73e 3736 ed3e f8a4 c63e
0.38718554 -0.061798412 0.45136 0.011648176 -0.37336186 0.442586 -0.092014425 -0.03560016
0.35631916 -0.021967154 -0.22896998 0.38797745 0.35634062 0.4677944 0.40440187 -0.011333558
-0.4024475 0.074891746 0.4516313 -0.15841517 0.36868927 -0.27586257 0.40126354 0.420334
0.4680262 -0.19720599 0.40489203 0.44712818 -0.13231355 0.41839358 0.077419184 0.40082282
0.39787504 0.4060354 -0.07874386 -0.3579983 -0.35220072 0.38466483 0.46423262 -0.12713508
0.41724864 0.4000922 0.40955207 0.4427863 -0.41680372 -0.31923735 -0.001710228 0.4170734
0.005492157 0.46039644 -0.045651004 0.4106197 0.00564607 0.432652 0.43872273 0.42138705
0.36251318 0.34928015 -0.24444933 0.44608548 0.4648614 0.43872806 0.45466095 0.43487117
0.41537282 0.37456527 -0.24799368 -0.49034497 -0.13569915 0.44105315 0.40927982 0.4357942
0.38663235 0.4176529 0.428699 0.39736754 0.38137296 0.4234649 0.46851778 -0.19810158
0.43944776 0.035476454 -0.1470079 0.41301462 0.48257056 0.48914272 -0.30447617 0.39357072
0.47749463 0.034986973 -0.014361478 0.3757261 0.5041154 0.45314068 0.37219292 -0.26545453
-0.47610116 0.47436285 0.3705847 0.4313664 -0.059063632 -0.31385332 0.44287166 -0.3010959
0.48328966 -0.2888969 -0.37713757 -0.09679294 -0.436512 0.4539581 -0.2553392 -0.274058
0.4834484 0.12576099 -0.23775396 0.44742438 0.3679133 -0.37339884 -0.116992086 -0.27133003
-0.1305336 0.36461496 -0.03789674 -0.32978782 0.3898676 -0.1946612 0.42852652 0.40630943
-0.3664411 0.0015276297 -0.49209416 -0.25944245 0.38044113 0.47167528 -0.15131678 0.09874625
-0.38297722 0.47923833 -0.07990886 -0.4190506 -0.010661196 -0.015582712 0.46406835 0.41781047
0.021686664 0.4434048 0.4610733 0.42312202 0.46701887 -0.38333717 -0.011054712 0.43270907
-0.005650327 0.3661149 0.42137343 -0.31361058 -0.35507572 0.42555863 0.50517595 0.47608417
0.41596723 0.4990794 -0.17315648 0.42490712 -0.33128145 0.40682927 0.37699446 0.47893828
-0.07492186 0.44695887 -0.39045513 0.38725924 -0.04021467 0.14890192 -0.06416615 -0.19876927
-0.12613843 -0.35085157 0.4026879 -0.27918267 -0.3950745 0.45622244 -0.2481976 -0.3662115
0.3616179 0.4801731 0.4315918 0.43217695 0.12674555 -0.38551733 0.4286654 -0.39064848
0.38393667 -0.30381852 -0.035602737 -0.47801927 0.46126375 0.42257416 0.35416144 -0.29987526
-0.40286314 0.021945491 0.45975977 0.40208587 0.44359595 0.43256187 -0.2810311 0.45067883
0.40754837 -0.20665437 -0.07188168 0.5101749 0.40008178 0.13973862 0.37191328 0.37475187
0.40546012 -0.45585287 -0.29057738 0.008723049 0.36696905 0.46148458 -0.31114838 -0.20849688
-0.3365582 0.39345595 0.40520608 0.4199711 0.01996916 0.37592572 0.12690167 0.18430518
0.47797534 0.3751711 0.46259815 -0.13441172 0.39493516 0.39918807 0.4319978 0.3819052
-0.31557035 -0.034294777 0.40882584 0.020586574 -0.22465108 -0.22838306 -0.034060568 0.4661977
-0.24656875 0.4572453 0.34778485 0.40488926 -0.3144772 0.4201819 0.46330425 0.38797736

l3.weight f4 [1, 256]
00000000: 8bff 783e 07e5 abbf 0ee8 493e bc0f 6bbf
00000010: dfbf 4fbf eefb 6c3e ea1f 1bbf 5138 90bf
00000020: 7d8f 803e 30be aebf 5e73 75bf 41c6 853e
00000030: 543c 823e b112 6b3e 8c22 663e 756b 6cbc
00000040: c30d 2cbf 9b14 6fbf 5fab 583e ff7a 5abf
00000050: 05e7 853e b6f9 7bbf f7d4 5c3e e469 843e
00000060: c295 703e 23cf 87bf 7558 563e db24 853e
00000070: b378 d9be de95 6c3e 69c2 8abf 9663 7a3e
00000080: 56a5 643e 37b9 883e 45a4 9fbf 43a2 01bf
00000090: 2829 b0bf 0b33 5a3e 3fe7 673e 4fcc 47bf
000000a0: 27fd 693e 9ca9 623e 8ba5 823e 5f13 833e
000000b0: a5c0 47bf f430 19bf 9796 d9bf a15d 533e
000000c0: 154b abbf eac1 543e a401 f0bb 34ec 503e
000000d0: 2467 a9bf 458a 653e f51d 7b3e f9e3 853e
000000e0: 86e9 683e 8cb3 873e 129f ffbe 3c2e 553e
000000f0: 2572 833e 3797 843e 5fd9 843e f16d 623e
00000100: a10d 863e 6211 733e 1ac8 77bf 6829 5dbf
00000110: df3a 55bf be98 873e ce5c 843e 9717 533e
00000120: 5e91 6f3e 6c4f 4f3e 5b1e 523e de08 6e3e
00000130: 5d24 6c3e adac 763e 5b2a 723e 6bcd 38bf
00000140: a363 6f3e 2045 a4bf a19e 9ebf 484a 8a3e
00000150: c3a4 573e b482 523e 423e 31bf eb76 683e
00000160: 5375 703e a725 c6bf 3f44 9dbf 64b6 873e
00000170: ca9d 4c3e ff4c 713e e055 803e d1c3 68bf
00000180: 94b9 53bf 2b86 6a3e 54db 713e 1ad6 733e
00000190: 58e2 09bd b39d 8ebf e5ac 633e e2c7 59bf
000001a0: db2e 563e c2fc c9be 162f 7fbf 2436 b2bf
000001b0: abad 59bf 4616 763e 729a 7dbf 8cc7 44bf
000001c0: 87c4 673e b74c b3bf a6c8 85bf 2c5a 523e
000001d0: 5e73 813e 03c0 2bbf ecee 9abf a12c 73bf
000001e0: dfb5 4cbf 53b0 803e d304 b0bf 44b6 e8be
000001f0: bf1f 873e c7d2 53bf 0b77 5a3e 585c 5f3e
00000200: bf35 64bf f40c 24bd 06bd 41bf 9ad9 19bf
00000210: b8d3 723e 3997 5f3e 1a17 60bf 022c 51bf
00000220: db4c 49bf d37a 663e 085d 54bf a117 90bf
00000230: 8928 c4bc 6dc1 5bbf 6fca 773e c476 663e
00000240: aa08 ddbf 05c7 863e 9be6 7b3e 6c0c 843e
00000250: 4710 5f3e 4308 51bf dd55 e4bf f151 5b3e
00000260: 51a6 8dbf 2851 803e 395d 563e 7739 b4bf
00000270: ca76 96bf 79d3 533e 0973 523e a48b 723e
00000280: 5e7b 5c3e 5a8f 553e 70a4 47bf 49e3 6a3e
00000290: d5e2 6cbf c22e 583e f28f 813e 873d 693e
000002a0: 46f3 d6bf 78c2 5d3e 81ac b9bf 3984 723e
000002b0: 99f7 b0bf 152e bcbf ec30 16bd 301c b5bf
000002c0: bc7b 69bd 5619 56bf cabd 853e 7543 5cbf
000002d0: 1766 69bf a4b9 673e 0b90 11bf 9bea 6cbf
000002e0: 65d8 7e3e 2b3c 4e3e f720 443e ce87 793e
000002f0: 5339 aebf 7eb7 69bf 404a 863e eee5 7cbf
00000300: 1c3f 6b3e 2dbd 3dbf 2892 f2bf 43f9 adbf
00000310: 4e94 793e 42fb 7e3e d215 803e a64d 53bf
00000320: da0f 99bf 76a2 cbbf 5422 623e d333 6c3e
00000330: bd00 753e 1d47 833e 4cda 0fbf 776d 5e3e
00000340: f50b 583e d643 81bf b46b afbf fb64 493e
00000350: 0997 7d3e 77f4 9cbf 08d0 853e 9ade 603e
00000360: d518 623e bf4d 8ebf d20d fdbe 758b b2bf
00000370: 38d2 773e 1818 5e3e 1a1f 2bbf 9740 74bf
00000380: f5d1 22bf 7dfe 603e ffe4 533e 4157 553e
00000390: fa87 65bd 268c 683e d6fc a6bf 80e0 a4bf
000003a0: 4db5 6b3e 0ba7 663e 3883 783e f8a5 68bf
000003b0: 850c 733e dd25 773e 8376 4b3e 86d7 833e
000003c0: b4db 1abf a88d e3bc de72 803e 20e6 9fbc
000003d0: fba2 30bf 5d41 1fbf e91f d2bb 240f 543e
000003e0: afa1 8abf fa84 563e b9b7 863e 09c9 843e
000003f0: c185 83bf 5c08 873e 8bc6 713e c9bd 843e
0.24316232 -1.3429269 0.19717428 -0.91820884 -0.8115215 0.23142979 -0.6059557 -1.1267186
0.25109473 -1.3651791 -0.9587916 0.26127818 0.25436652 0.22956349 0.22474116 -0.014429917
-0.672085 -0.93390816 0.21159123 -0.8534393 0.26152816 -0.98427904 0.21565615 0.25862038
0.23494628 -1.0610088 0.20932181 0.2600468 -0.424749 0.23104045 -1.0840579 0.24452052
0.22328696 0.26703808 -1.2472006 -0.50638217 -1.376256 0.21308534 0.22646807 -0.78046125
0.22850476 0.22135013 0.25516924 0.25600716 -0.7802833 -0.5984032 -1.6999081 0.20641185
-1.3382288 0.20777097 -0.0073244143 0.20402604 -1.3234601 0.22416027 0.24523146 0.26150492
0.22745332 0.2650417 -0.4992605 0.20818418 0.25673023 0.25896618 0.2594709 0.22112252
0.26182273 0.237371 -0.96789706 -0.86391306 -0.83292955 0.2648372 0.25852054 0.20614468
0.23395297 0.20245141 0.20519392 0.2324557 0.23060746 0.24089308 0.2364897 -0.7218844
0.23377852 -1.2833595 -1.239216 0.27009797 0.21058945 0.20557672 -0.6923562 0.22701614
0.23482256 -1.548024 -1.2286452 0.2650634 0.19982067 0.23564528 0.25065517 -0.9092379
-0.82705045 0.22902744 0.23618823 0.23812142 -0.033663124 -1.1141876 0.22233923 -0.8507062
0.20916311 -0.3945065 -0.9968122 -1.3922772 -0.8503062 0.24031934 -0.9906379 -0.76866984
0.22633563 -1.4007787 -1.0451858 0.2054221 0.2528333 -0.6708986 -1.2104163 -0.94989973
-0.79965013 0.25134525 -1.3751472 -0.45451558 0.26391408 -0.82743496 0.21334474 0.2181257
-0.8914451 -0.040051416 -0.7567905 -0.6009766 0.23713577 0.2183503 -0.8753525 -0.81707776
-0.786329 0.22507791 -0.82954454 -1.1257211 -0.02394511 -0.8584202 0.24198316 0.22506243
-1.7268269 0.26323715 0.24599688 0.25790727 0.21783553 -0.8165323 -1.7838703 0.21417977
-1.1066381 0.25061917 0.20933999 -1.4080037 -1.1755002 0.20686139 0.20551695 0.23686081
0.21531436 0.20855466 -0.77985287 0.22938265 -0.9253362 0.21111587 0.25305134 0.22777377
-1.6792991 0.21656215 -1.4505769 0.23683251 -1.3825561 -1.4701563 -0.03666775 -1.4149227
-0.057002768 -0.8363241 0.2612136 -0.8604043 -0.911714 0.2262941 -0.5686042 -0.9254548
0.24887235 0.2014014 0.191532 0.24368212 -1.3611244 -0.9129561 0.26228523 -0.98788345
0.22973293 -0.74116784 -1.8950853 -1.3591694 0.2437298 0.24900535 0.25016648 -0.8254036
-1.1957963 -1.5908954 0.22083408 0.23066644 0.23926063 0.25640193 -0.5619247 0.21721445
0.21098311 -1.0098827 -1.3704743 0.19667427 0.24764647 -1.2262105 0.26135278 0.21959916
0.22079785 -1.1117476 -0.49424607 -1.3948809 0.24201286 0.21688879 -0.6684433 -0.95411056
-0.6360162 0.2197208 0.20692824 0.20834066 -0.05603788 0.22709712 -1.304591 -1.2881012
0.2301838 0.2252466 0.24268806 -0.9087825 0.23735245 0.24135537 0.19869427 0.2575037
-0.6049149 -0.027777508 0.25087637 -0.019518912 -0.6899869 -0.6220911 -0.0064124954 0.207089
-1.0830592 0.20949164 0.26312044 0.25934628 -1.0275193 0.26373565 0.23610894 0.25926045
