model/hopper-medium-replay-v2.pt (torch, 278359 bytes, 5 tensors)

l1.weight f4 [256, 11]
0.12422673 -0.4229958 0.39294612 0.051016875 -0.3836846 0.42264262 -0.0865884 -0.07181603
-0.14329706 0.10798947 0.3682841 0.06193952 -0.13581142 0.17181511 0.18070479 0.4488077
0.13232252 0.1742879 -0.08862242 0.29752344 0.28900135 0.13681127 -0.22560678 0.2867575
-0.39091486 0.22986376 -0.04681076 0.48604545 -0.14641318 0.38313547 -0.23298837 -0.06270532
-0.19782172 0.1814349 0.06799341 0.11086627 -0.3688207 0.2161338 0.13291408 -0.0577989
-0.3383456 0.36252588 0.16654946 0.48304206 0.07591615 0.47823367 -0.6296498 0.7639036
0.39720023 -0.16952111 -0.22889034 -0.14920546 0.045516316 0.24360028 0.36636692 0.13758503
-0.6050313 0.04563469 -0.15312906 -0.3984773 -0.013057448 0.09201503 -0.06806604 0.081509635
-0.1543806 0.26268452 -0.7501655 -0.09682596 0.2466756 -0.25350142 0.4430965 0.24425489
0.0526573 -0.014028095 -0.015192493 -0.15429442 -0.058277294 -0.048429582 -0.32195926 0.17822449
0.17714374 0.56180286 -0.21793345 0.14182736 -0.028868424 -0.34039968 -0.25873303 -0.63495344
0.017711777 -0.0937075 -0.46104503 0.078666285 0.16581841 -0.19746143 0.5143659 0.020804547
0.24534 0.017742857 0.797076 -0.09986978 -0.051392715 0.19511588 -0.4179591 -0.03265632
0.25936088 -0.43428364 -0.1559497 -0.02338692 0.004724087 0.28913954 0.30728245 0.40631187
-0.3253844 -0.12168069 0.5875867 0.009552191 -0.084811494 0.031913135 -0.11082662 0.106367335
0.35270968 -0.32176685 0.089381225 0.07964809 -0.27498296 0.08192178 0.21421388 -0.4725765
-0.19358894 0.13865565 -0.2456668 -0.24548581 -0.29380363 0.20449631 0.3798526 -0.24920265
0.16016358 -0.09314921 -0.51819927 -0.15180713 0.2449007 0.4205221 0.3440779 0.07057767
0.10201045 -0.02972394 -0.20651339 -0.3484959 0.0009490984 0.2977029 -0.24460565 -0.13429396
0.2331541 0.49795082 0.6133662 0.23950616 -0.059431177 -0.19124363 -0.269602 0.104098156
-0.11520087 0.16796793 -0.19398797 0.05491707 0.4538182 0.3227425 0.8613961 -0.53844327
0.105630636 -0.14092024 -0.09693273 0.43210584 0.6695284 -0.07276181 0.23586337 0.35392448
-0.029701035 0.443451 0.28268728 0.019773489 0.08510379 -0.32496095 -0.5226576 0.14710256
0.38950706 0.27428406 0.61795133 -0.28241932 0.11269442 0.53154373 0.07544597 0.70295143
-0.44172567 0.6610959 -0.14273976 0.0017946169 0.40301177 -0.12118442 -0.15470423 0.12008202
-0.21613677 0.73179936 -0.1385159 -0.30668953 0.42901862 -0.024660995 -0.05578352 0.27632558
0.045160282 0.19749807 0.062574044 -0.2519503 0.8188198 -0.09097905 -0.1027775 0.3754433
-0.13184509 0.23961383 0.11451257 -0.8098688 0.22752981 0.2185861 0.36510417 0.15614511
0.4842844 -0.3849479 0.42652398 0.108873695 0.006956482 0.040228646 0.0936774 0.25035167
-0.6041511 -0.34661472 0.3748284 0.15335996 -0.051294066 0.16992883 -0.014898895 0.39022517
0.14033149 0.3608154 -0.2087955 -0.16683309 0.18293875 -0.050248463 0.24133761 0.17328392
-0.26875892 0.045092933 -0.28640756 0.053375613 0.010113603 0.076197565 0.0189835 -0.072926834
00000000: 956a fe3d e892 d8be 3c30 c93e 12f7 503d
00000010: 4f72 c4be 9d64 d83e 4255 b1bd 4814 93bd
00000020: 77bc 12be 9529 dd3d bc8f bc3e 4bb4 7d3d
00000030: 2612 0bbe 4df0 2f3e ad0a 393e 1fca e53e
00000040: 8e7f 073e 8778 323e ac7f b5bd fe54 983e
00000050: fcf7 933e 4118 0c3e 7705 67be e1d1 923e
00000060: fe25 c8be 6861 6b3e a4bc 3fbd f3da f83e
00000070: 56ed 15be 552a c43e 8194 6ebe a66b 80bd
00000080: c791 4abe 12ca 393e 2140 8b3d db0d e33d
00000090: 11d6 bcbe 2e52 5d3e a11a 083e 8abe 6cbd
000000a0: a23b adbe fe9c b93e f18b 2a3e 4a51 f73e
000000b0: ed79 9b3d 0bdb f43e bb30 21bf 308f 433f
000000c0: d45d cb3e f196 2dbe 3b62 6abe 51c9 18be
000000d0: 516f 3a3d 5a72 793e 7294 bb3e 17e3 0c3e
000000e0: 55e3 1abf 71eb 3a3d ddcd 1cbe 3705 ccbe
000000f0: e8ee 55bc 6072 bc3d 3566 8bbd 86ee a63d
00000100: f315 1ebe 967e 863e d90a 40bf b04c c6bd
00000110: 8798 7c3e f0ca 81be 8bdd e23e f41d 7a3e
00000120: 2eaf 573d 18d6 65bc efe9 78bc 5bff 1dbe
00000130: 2cb4 6ebd 195e 46bd d8d7 a4be 7b80 363e
00000140: 2b65 353e 50d2 0f3f f229 5fbe 313b 113e
00000150: 797d ecbc de48 aebe a878 84be 4f8c 22bf
00000160: 4a18 913c b8e9 bfbd 180e ecbe ca1b a13d
00000170: 4dcc 293e 5433 4abe 7cad 033f 4c6e aa3c
00000180: 693a 7b3e 7859 913c 2c0d 4c3f 8788 ccbd
00000190: 2b81 52bd 75cc 473e bcfe d5be a2c2 05bd
000001a0: f3ca 843e 6d5a debe 47b1 1fbe ed95 bfbc
000001b0: 84cc 9a3b 190a 943e 2054 9d3e 1c08 d03e
000001c0: c998 a6be ba33 f9bd 156c 163f cb80 1c3c
000001d0: a6b1 adbd 59b7 023d 11f9 e2bd 1ed7 d93d
000001e0: 5d96 b43e a0be a4be 810d b73d 8a1e a33d
000001f0: 91ca 8cbe 9bc6 a73d e25a 5b3e 8cf5 f1be
00000200: 2e3c 46be bffb 0d3e 1490 7bbe a260 7bbe
00000210: 6e6d 96be 7b67 513e 0a7c c23e fb2e 7fbe
00000220: ec01 243e 03c5 bebd b5a8 04bf 5473 1bbe
00000230: 40c7 7a3e ac4e d73e fa2a b03e 078b 903d
00000240: dbea d03d 9f7f f3bc 3f78 53be 0e6e b2be
00000250: eacc 783a 846c 983e e779 7abe 5b84 09be
00000260: f3bf 6e3e 69f3 fe3e 9105 1d3f 1a41 753e
00000270: 1b6e 73bd 5fd5 43be 4609 8abe 6a31 d53d
00000280: 6fee ebbd c9ff 2b3e c8a4 46be b9f0 603d
00000290: dc5a e83e 813e a53e 7484 5c3f 6bd7 09bf
000002a0: e054 d83d 654d 10be ab84 c6bd fa3c dd3e
000002b0: 3766 2b3f 2504 95bd 2b86 713e 9735 b53e
000002c0: 964f f3bc 020c e33e 63bc 903e 03fc a13c
000002d0: e54a ae3d 4861 a6be e3cc 05bf 0ea2 163e
000002e0: 786d c73e f66e 8c3e 0f32 1e3f 4499 90be
000002f0: 55cc e63d 4013 083f 6b83 9a3d a0f4 333f
00000300: de29 e2be 953d 293f 5f2a 12be 5a39 eb3a
00000310: 8f57 ce3e 8a2f f8bd c96a 1ebe 90ed f53d
00000320: f552 5dbe 3457 3b3f 1dd7 0dbe 6906 9dbe
00000330: 54a8 db3e db05 cabc 437d 64bd 8c7a 8d3e
00000340: fdf9 383d ef3c 4a3e d226 803d a1ff 80be
00000350: 2d9e 513f 3953 babd 037d d2bd 1b3a c03e
00000360: 6602 07be 545d 753e 9185 ea3d 9053 4fbf
00000370: 93fd 683e 09d5 5f3e efee ba3e 81e4 1f3e
00000380: 20f4 f73e e417 c5be 5a61 da3e 2cf9 de3d
00000390: 33f3 e33b cbc6 243d f0d9 bf3d 182e 803e
000003a0: a6a9 1abf 7c77 b1be 82e9 bf3e 650a 1d3e
000003b0: ba19 52bd d301 2e3e 7f1a 74bc 98cb c73e
000003c0: 0fb3 0f3e ccbc b83e 7dce 55be 4bd6 2abe
000003d0: 4c54 3b3e 55d1 4dbd 3521 773e 5771 313e
000003e0: c59a 89be 5eb3 383d 03a4 92be 63a0 5a3d
000003f0: 87b3 253c 780d 9c3d 4983 9b3c aa5a 95bd

l1.bias f4 [256]
-0.059613634 0.60094684 0.44421032 0.31894097 0.17316802 0.047820427 0.12440864 -0.13651021
0.18921259 0.49925545 -0.10686311 0.17118394 -0.022332532 0.34624693 -0.14196745 0.290579
0.28815976 -0.10826187 0.27639496 -0.03445016 0.0190338 0.24613203 0.52040225 0.0647131
0.5406933 -0.091879964 0.24808164 0.49132898 0.34399086 -0.3630557 0.082859784 0.14851229
0.2491915 0.0020855668 0.28435495 0.1743634 -0.450047 0.051227495 0.13714103 0.5773499
-0.21885873 0.4230665 0.24301998 -0.08245506 0.175929 0.0063746925 -0.26978782 0.016821826
-0.03941639 0.28579 0.412996 -0.21635994 0.08797269 0.51525784 -0.046811014 0.32412824
-0.27942112 0.10858002 0.05870072 -0.11795793 0.5363895 0.15645814 -0.29049578 0.18522865
-0.099327885 0.49180183 -0.114696704 -0.07400487 0.10231649 -0.0010832241 -0.12704845 -0.028564448
-0.36484545 0.31890333 0.27015316 -0.15664503 -0.2999643 0.1412565 0.34001508 0.3900086
0.14797784 0.02628498 0.00040099415 0.086649105 -0.038218938 0.5251611 0.5993326 0.2475851
0.42417237 -0.1398061 0.17958182 -0.018905494 0.22390297 0.5824371 0.43024084 -0.010664008
0.17599073 0.052307747 0.45178488 0.07292292 0.031901766 0.15297717 0.22180314 -0.19465792
-0.21749692 0.08140359 0.30899477 0.04256478 0.19095194 0.5827966 -0.10367427 0.24641903
0.58454376 0.08409657 0.523223 0.5282308 0.1251447 -0.011334164 0.13951452 -0.13696274
0.02258526 0.20561941 0.42241675 -0.120441005 -0.137689 0.39790747 0.22495034 0.6005806
0.35478374 0.431342 0.2379073 -0.024397075 0.05191383 -0.20061249 0.44867116 -0.25775552
-0.29380664 0.51823026 -0.029049788 -0.06642744 0.4293908 -0.001283017 0.5344128 0.47786433
0.20488584 0.0863692 0.46642014 0.54971904 0.26520866 0.35290423 0.5147026 -0.07599247
0.2313333 0.35047755 0.34689435 0.089118555 0.02420786 0.088673286 -0.026263643 0.0836847
-0.17493711 0.27982438 -0.00620904 0.525221 0.11642486 0.17289844 0.4222837 0.5329979
-0.029471453 0.32194254 0.3396379 0.23252296 0.23301496 0.1733552 -0.052116998 0.5363431
0.33659905 -0.12646298 0.44763818 0.40023625 0.4492 0.09149074 0.43518722 0.12518342
0.042360157 -0.06365598 0.4557668 0.10468167 0.17604363 0.27705663 -0.26369172 -0.25215694
0.09217576 0.4273483 0.50155014 -0.10701539 0.27408308 -0.23691499 -0.27497324 0.05807125
0.39425167 -0.09441298 0.2495149 0.34419435 -0.23575287 0.19291095 -0.29350492 -0.19792883
0.073022075 0.41360152 -0.036390193 0.4720875 -0.31860325 0.01069231 0.13739045 -0.14200814
-0.2337461 0.3459205 0.34150663 0.34145948 -0.075108 -0.3129181 0.550982 0.29780224
0.23438093 0.15093933 0.50051725 0.27314234 -0.21032082 0.20247199 0.5593308 -0.21781094
0.13882878 0.023792895 0.3645403 0.39401612 0.32266712 -0.12321581 -0.0028495167 0.17040585
-0.07729882 0.24903975 0.084464446 0.49192378 0.08005407 0.39245352 0.00013178369 0.618644
0.29560235 0.48187888 0.33654124 0.49069956 0.3859265 0.15707676 -0.1891934 0.18984015
00000000: 6d2d 74bd a7d7 193f 896f e33e 3b4c a33e
00000010: f552 313e 5adf 433d f5c9 fe3d 55c9 0bbe
00000020: f2c0 413e 699e ff3e 0cdb dabd d84a 2f3e
00000030: b7f2 b6bc 4747 b13e ea5f 11be c5c6 943e
00000040: ad89 933e 66b8 ddbd a483 8d3e 9c1b 0dbd
00000050: c6ec 9b3c 090a 7c3e 1539 053f 4d88 843d
00000060: e06a 0a3f 902b bcbd 1d09 7e3e 798f fb3e
00000070: 921f b03e 70e2 b9be 64b2 a93d 9b13 183e
00000080: 0e2c 7f3e 01ae 083b f996 913e 528c 323e
00000090: 8f6c e6be ecd3 513d b36e 0c3e 34cd 133f
000000a0: 811c 60be 2c9c d83e 3bda 783e 33de a8bd
000000b0: bb26 343e cce2 d03b a121 8abe edcd 893c
000000c0: 1573 21bd 1153 923e 3674 d33e 768d 5dbe
000000d0: 072b b43d f0e7 033f e8bc 3fbd 23f4 a53e
000000e0: 4910 8fbe 345f de3d 2b70 703d ed93 f1bd
000000f0: d350 093f 9036 203e ddbb 94be 94ac 3d3e
00000100: 6b6c cbbd 73cd fb3e 1be6 eabd de8f 97bd
00000110: 4f8b d13d f8fa 8dba fd18 02be fdff e9bc
00000120: 06cd babe 4c47 a33e 8451 8a3e 8e67 20be
00000130: ec94 99be 8ba5 103e 7516 ae3e 35af c73e
00000140: 8187 173e 9953 d73c 863c d239 1675 b13d
00000150: 768b 1cbd f570 063f dc6d 193f f386 7d3e
00000160: 1f2d d93e 5529 0fbe 4ce4 373e b2df 9abc
00000170: d246 653e 991a 153f 8748 dc3e 17b8 2ebc
00000180: ea36 343e a640 563d 5950 e73e 9d58 953d
00000190: 6dab 023d 0ca6 1c3e 5d20 633e 6854 47be
000001a0: 83b7 5ebe edb6 a63d 9034 9e3e 6858 2e3d
000001b0: e888 433e 2832 153f 2d53 d4bd 4555 7c3e
000001c0: a9a4 153f d33a ac3d f1f1 053f 223a 073f
000001d0: ef25 003e eeb2 39bc e5dc 0e3e f63f 0cbe
000001e0: b904 b93c e58d 523e 0247 d83e c6a9 f6bd
000001f0: 58fe 0cbe 87ba cb3e 6259 663e a6bf 193f
00000200: 37a6 b53e dcd8 dc3e f99d 733e 60dc c7bc
00000210: 99a3 543d 5c6d 4dbe 3ab8 e53e 88f8 83be
00000220: d36d 96be bdaa 043f d2f9 edbc 1c0b 88bd
00000230: 1cd9 db3e e82a a8ba 47cf 083f a2aa f43e
00000240: 98cd 513e 56e2 b03d 9fce ee3e 63ba 0c3f
00000250: 6ec9 873e ddaf b43e 8dc3 033f f1a1 9bbd
00000260: a3e2 6c3e cb71 b33e 239c b13e ca83 b63d
00000270: 904f c63c 579a b53d da26 d7bc e262 ab3d
00000280: b722 33be 2445 8f3e 3475 cbbb e274 063f
00000290: 2870 ee3d 4a0c 313e 9235 d83e 8d72 083f
000002a0: 1e6e f1bc a7d5 a43e 05e5 ad3e 801a 6e3e
000002b0: 799b 6e3e 0784 313e a278 55bd c84d 093f
000002c0: b656 ac3e 837f 01be d530 e53e c4eb cc3e
000002d0: 8bfd e53e 7f5f bb3d dcd0 de3e 1530 003e
000002e0: d881 2d3d 115e 82bd 445a e93e 5863 d63d
000002f0: c844 343e 5eda 8d3e 9a02 87be b71a 81be
00000300: a5c6 bc3d 65cd da3e 9765 003f e32a dbbd
00000310: 9e54 8c3e d899 72be 4bc9 8cbe 1edc 6d3d
00000320: 5bdb c93e 985b c1bd d580 7f3e 3e3a b03e
00000330: 3369 71be 738a 453e 4746 96be dbad 4abe
00000340: 998c 953d 94c3 d33e e20d 15bd 74b5 f13e
00000350: f71f a3be cc2e 2f3c 15b0 0c3e 956a 11be
00000360: 235b 6fbe 7e1c b13e f5d9 ae3e c7d3 ae3e
00000370: 39d2 99bd cd36 a0be 280d 0d3f 8979 983e
00000380: 8e01 703e d78f 1a3e e621 003f 50d9 8b3e
00000390: 575e 57be d154 4f3e 4e30 0f3f d509 5fbe
000003a0: 2229 0e3e 51e9 c23c 07a5 ba3e 7bbc c93e
000003b0: a034 a53e 9258 fcbd f5be 3abb df7e 2e3e
000003c0: d84e 9ebd 4704 7f3e b2fb ac3d 6fdd fb3e
000003d0: 63f3 a33d abef c83e 6a2f 0a39 745f 1e3f
000003e0: 3159 973e d4b8 f63e 224f ac3e f93c fb3e
000003f0: 2998 c53e bbd8 203e eabb 41be 7565 423e

l2.weight f4 [256, 256]
-0.05014138 0.08571902 0.017598579 0.17988087 0.20933461 0.018105665 0.20869698 0.1992638
0.041872904 0.14516768 -0.016519357 -0.09493912 -0.071451634 0.11880035 -0.0704014 0.08388871
-0.00502346 0.20102254 0.02763733 -0.23351422 -0.082476445 0.15834294 0.009974068 0.20429577
0.07414799 -0.075548835 0.15178245 0.16171026 0.032992885 0.14512958 -0.04962104 -0.03484701
0.14451748 0.20945041 0.17086796 0.14142673 0.0888517 0.17913674 -0.09789411 0.103603326
0.32676706 0.09411687 0.20242515 0.12567091 0.20422518 0.18209593 -0.035322547 -0.14161637
0.16495551 0.05942229 0.07401578 -0.096160054 0.09967521 0.07390329 -0.021736834 0.086232476
0.14261156 0.22440211 0.21039665 0.19312997 0.16474965 0.03555393 0.17457701 0.12814201
0.006446754 0.10334133 0.012682487 0.27170655 0.18890865 -0.064823054 -0.02863497 0.17688029
-0.09465176 0.26221275 -0.08303604 -0.31151697 0.1285654 0.12926471 -0.08927099 0.11330712
0.09698545 0.046945974 0.054677285 0.041011002 -0.0063593597 0.08889621 0.17626587 0.18157353
0.09104667 -0.18340468 0.2716868 0.09744602 0.13435374 0.118571214 0.15880466 -0.069030605
0.012771982 -0.11721159 0.2027659 0.12820043 0.11740316 0.10799346 0.06853751 -0.052352745
0.21300904 0.06526282 0.16337433 0.042382017 -0.058519203 0.09185294 0.19658878 0.23360303
0.0676771 0.12307093 0.07476169 0.012121725 0.15642403 0.09693731 -0.008909593 0.24080575
-0.084319465 0.15882002 0.09687111 0.12530835 -0.02266424 0.07059043 0.10874478 0.020634321
0.078970954 0.0122548165 0.16762137 0.1796152 -0.0072973464 -0.079594076 0.11805703 -0.04593916
-0.014951095 0.087045476 -0.009035311 0.015355523 0.1308541 0.18529966 0.17907569 0.11008254
0.13024063 0.17058368 0.07878439 0.16293888 0.18260826 0.037645545 0.24944422 0.23918968
0.16834636 0.06976313 0.11187738 -0.07083921 0.08656424 0.028142957 -0.16814879 0.055024683
0.0939864 -0.039244626 0.1458829 0.18907999 0.11981231 0.0064539365 0.14392373 0.08292399
-0.15477762 0.10126812 -0.012260542 0.20870797 0.13567962 0.08270044 0.15055986 0.20055327
0.13562804 0.28130355 0.125319 0.16177346 0.094182275 0.049662523 0.1617488 0.23198597
0.13853034 0.08743826 0.14059523 0.1484762 0.16620408 0.2473729 -0.105744354 0.1735421
0.0031984833 0.0916114 0.16754594 0.018112676 0.16399793 -0.07855729 0.02992394 -0.02680587
0.04898699 -0.0757954 -0.035110634 0.056896612 -0.054708946 0.12412462 -0.14801683 0.006562252
-0.10673861 0.04366749 0.16795859 0.050771333 -0.007118095 0.090515204 0.11734906 0.04456445
0.06642413 0.03457551 0.0697952 0.06602585 0.0015387654 -0.2087739 0.20277916 0.01845958
0.001608355 -0.06308047 0.046417627 0.175929 0.12523802 0.10997372 0.12950978 -0.16435923
0.1093703 0.120668024 0.060266413 0.14296605 0.17267473 0.24518603 0.05256606 -0.07469859
0.019625902 0.058902115 0.030622536 0.07581893 0.14201792 0.08041913 -0.14928104 0.10658107
0.21372676 0.16281661 0.1508307 0.096522816 0.100995734 0.0081665125 0.17277108 0.015173657
00000000: 0c61 4dbd 748d af3d e52a 903c b132 383e
00000010: d05b 563e 5552 943c a9b4 553e cf0b 4c3e
00000020: ec82 2b3d d6a6 143e 9a53 87bc 716f c2bd
00000030: 3c55 92bd 994d f33d 9c2e 90bd d8cd ab3d
00000040: d69b a4bb dad8 4d3e af67 e23c 5a1e 6fbe
00000050: 69e9 a8bd a724 223e 466a 233c e932 513e
00000060: e7da 973d 59b9 9abd dc6c 1b3e 6097 253e
00000070: 8c23 073d d99c 143e 6e3f 4bbd bdbb 0ebd
00000080: 64fc 133e 2b7a 563e 03f8 2e3e 2bd2 103e
00000090: e1f7 b53d 9f6f 373e b57c c8bd fb2d d43d
000000a0: 034e a73e 58c0 c03d 8a48 4f3e e0af 003e
000000b0: 6820 513e 5b77 3a3e 60ae 10bd e203 11be
000000c0: 19ea 283e ca64 733d 9695 973d 90ef c4bd
000000d0: 8422 cc3d 9c5a 973d 7211 b2bc a79a b03d
000000e0: c408 123e abc9 653e 3872 573e ddc3 453e
000000f0: 22b4 283e ffa0 113d 51c4 323e a937 033e
00000100: 4b3f d33b 9fa4 d33d 35ca 4f3c 1f1d 8b3e
00000110: 4571 413e f3c1 84bd e293 eabc 1b20 353e
00000120: c8d8 c1bd c040 863e cd0e aabd 277f 9fbe
00000130: a6a6 033e f85d 043e b5d3 b6bd 900d e83d
00000140: 4fa0 c63d 6c4a 403d 4af5 5f3d 27fb 273d
00000150: 2d62 d0bb 370f b63d 0a7f 343e 69ee 393e
00000160: ad76 ba3d 70ce 3bbe 881a 8b3e c791 c73d
00000170: 0794 093e 77d5 f23d b09d 223e eb5f 8dbd
00000180: 9341 513c a10c f0bd dda1 4f3e f946 033e
00000190: 1171 f03d ad2b dd3d 655d 8c3d d56f 56bd
000001a0: 0b1f 5a3e 83a8 853d 9a4b 273e c498 2d3d
000001b0: d5b1 6fbd 651d bc3d 924e 493e a235 6f3e
000001c0: 4b9a 8a3d 9d0c fc3d a81c 993d 339a 463c
000001d0: 9f2d 203e 1287 c63d 8bf9 11bc c895 763e
000001e0: afaf acbd b7a1 223e 5c64 c63d d550 003e
000001f0: 5baa b9bc b791 903d 95b5 de3d 4f09 a93c
00000200: 86bb a13d 6dc8 483c f0a4 2b3e 0ced 373e
00000210: 941e efbb 3802 a3bd e2c7 f13d b32a 3cbd
00000220: 70f5 74bc e644 b23d d708 14bc bb95 7b3c
00000230: 9efe 053e 32bf 3d3e 9e5f 373e f472 e13d
00000240: cd5d 053e 7dad 2e3e b659 a13d 73d9 263e
00000250: a9fd 3a3e 3732 1a3d 4e6e 7f3e 24ee 743e
00000260: fd62 2c3e f9df 8e3d f81f e53d 2614 91bd
00000270: 9848 b13d 0f8c e63c 322f 2cbe 9061 613d
00000280: f17b c03d f9be 20bd 5462 153e 2f9e 413e
00000290: 2860 f53d 8b7b d33b be60 133e 0ed4 a93d
000002a0: 067e 1ebe a965 cf3d 71e0 48bc 8bb7 553e
000002b0: 99ef 0a3e d95e a93d 5d2c 1a3e d65d 4d3e
000002c0: 14e2 0a3e 0507 903e a053 003e f1a7 253e
000002d0: a3e2 c03d ee6a 4b3d 7aa1 253e bb8d 6d3e
000002e0: e6da 0d3e d512 b33d 32f8 0f3e 250a 183e
000002f0: 6731 2a3e 524f 7d3e 7f90 d8bd 05b5 313e
00000300: a59d 513b c29e bb3d 2a91 2b3e 0961 943c
00000310: 13ef 273e a5e2 a0bd 0d23 f53c fc97 dbbc
00000320: 95a6 483d 9e3a 9bbd 2bd0 0fbd 6c0c 693d
00000330: 7d16 60bd 0c35 fe3d b991 17be 2908 d73b
00000340: c699 dabd afdc 323d 56fd 2b3e 9af5 4f3d
00000350: e93e e9bb 0960 b93d b454 f03d 3689 363d
00000360: 6009 883d 0d9f 0d3d c9f0 8e3d 9038 873d
00000370: 66b0 c93a d3c8 55be 57a5 4f3e 8c38 973c
00000380: 70cf d23a 5530 81bd 6920 3e3d bb26 343e
00000390: 653e 003e e739 e13d 369e 043e c94d 28be
000003a0: 89fd df3d cc20 f73d ead9 763d b165 123e
000003b0: a5d1 303e 0c12 7b3e 824f 573d 93fb 98bd
000003c0: 80c6 a03c 5843 713d 1ddc fa3c f546 9b3d
000003d0: 256d 113e c9b2 a43d 21dd 18be 2d47 da3d
000003e0: 30db 5a3e 66b9 263e 5d73 1a3e c1ad c53d
000003f0: dad6 ce3d d6cc 053c e7ea 303e ee9a 783c

l2.bias f4 [256]
0.04877929 -0.071048215 0.050964277 -0.21418509 0.11804707 0.08445682 0.08639404 -0.1876829
0.021560214 0.06978281 0.012987259 0.087801665 0.23870564 0.09121994 0.043548368 0.028812697
-0.31986892 0.04336874 0.0284298 0.05137947 -0.028049443 0.010203721 0.050640974 -0.27135202
0.04008695 0.051229134 -0.00047831595 0.03260814 -0.18224746 -0.0056002345 0.019770138 0.080693
-0.01258095 0.07989098 0.09781881 0.09348461 0.0785224 0.06129444 0.07539663 0.027896281
0.044789735 0.10055005 -0.19989611 0.13687997 -0.08185965 -0.34425318 0.086138785 0.053873267
0.022298072 0.028140333 0.10293742 0.09140403 0.13476181 0.0888212 0.04228048 -0.08536791
-0.11021862 0.24675083 -0.017502233 -0.27314895 0.078401715 -0.18605375 0.08008962 0.045107313
0.09383909 0.045659762 0.102604955 0.06862367 0.120221235 -0.025188591 0.08477393 0.06698747
-0.01510548 0.07792052 0.0509756 -0.040657308 0.15351652 -0.07051427 0.052538373 0.09846059
-0.24988237 -0.029802479 0.016327906 0.06032332 0.04796148 0.047610417 -0.034290668 0.12004433
-0.0133911595 0.10587549 0.0015043558 -0.19921884 0.026205605 0.11293076 -0.23673211 0.044372104
0.0743155 0.0021814902 0.097376764 -0.23063596 0.11023374 0.0912259 0.08887435 0.030672038
0.03376282 0.047288787 0.02812167 0.093906686 0.08287973 0.026539786 -0.007645698 0.018566519
0.073936604 0.022037866 0.09592853 -0.023800245 0.043535348 -0.057419643 0.041140568 0.1198061
-0.37004074 0.053853273 0.07273479 0.039859224 0.003297142 0.08690802 0.04397257 -0.21773036
0.054778278 0.17343728 0.018580256 0.076740846 0.07396541 0.11772959 0.017475206 -0.03708556
0.07464885 -0.12139667 -0.00073327357 0.012199632 -0.34680724 0.029889818 0.082043596 -0.06676775
0.051873215 0.015448316 0.043590236 0.101521686 0.016301043 -0.004640386 0.030877016 0.108866416
-0.044238646 -0.29889044 0.06425942 -0.27366462 -0.108371146 0.006132608 -0.26504025 0.09574802
-0.1632005 0.014165367 0.22675435 0.10015284 0.050490085 0.027090477 0.17796849 0.1012376
0.082418665 0.12204186 -0.0012466747 0.09664394 -0.12410927 0.085834324 0.042581327 0.016401235
0.08188882 0.16630231 0.054705698 -0.2739396 0.057501886 -0.05344481 0.07845383 -0.14567173
0.10121802 -0.060157042 0.115207896 0.02225205 0.023122814 0.015919447 0.02960605 0.00950435
0.124186486 -0.2997352 -0.05018434 0.007465053 -0.060949016 0.08472659 -0.06341266 -0.259521
0.14347585 -0.19579253 -0.0135432985 -0.019182043 0.014293073 0.028624361 0.10831092 0.07236874
0.01924234 0.016781371 0.019396318 -0.0012546577 0.09153666 -0.34856355 0.06778894 0.08264527
0.07970459 -0.36629352 0.12595037 0.009038325 -0.006901003 -0.0064430754 0.06473732 0.08574761
-0.14669342 0.056002695 -0.14148666 0.16442835 0.022637513 0.026393758 -0.002594958 -0.059605524
-0.4594756 0.061444644 0.07572678 0.07107243 0.022966227 0.047743097 0.030859975 0.052979797
0.08941466 -0.0019237022 0.11731384 -0.018707825 -0.36061695 0.008400969 0.025154676 -0.027660247
-0.29684916 -0.037635762 0.005984558 -0.31294176 -0.17868069 0.009959318 0.111933485 -0.18796697
00000000: cbcc 473d ba81 91bd ebbf 503d 5653 5bbe
00000010: aac2 f13d b2f7 ac3d 5cef b03d f22f 40be
00000020: 0c9f b03c 4aea 8e3d 83c8 543c 5cd1 b33d
00000030: 406f 743e 85d1 ba3d c65f 323d 9b08 ec3c
00000040: dcc5 a3be 6ba3 313d 9de5 e83c 4773 523d
00000050: f2c7 e5bc 822d 273c e96c 4f3d a7ee 8abe
00000060: 3732 243d a4d5 513d 7bc6 fab9 1d90 053d
00000070: 149f 3abe 2c82 b7bb fcf4 a13c 5f42 a53d
00000080: 5420 4ebc e29d a33d 3a55 c83d dc74 bf3d
00000090: 5ad0 a03d e10f 7b3d 8c69 9a3d be86 e43c
000000a0: 7175 373d 2fed cd3d 91b1 4cbe 432a 0c3e
000000b0: 08a6 a7bd f441 b0be 8869 b03d 37aa 5c3d
000000c0: 72aa b63c 8e86 e63c dbd0 d23d 0932 bb3d
000000d0: 00ff 093e e4e7 b53d 4c2e 2d3d 5fd5 aebd
000000e0: 4dba e1bd 40ac 7c3e d860 8fbc 2eda 8bbe
000000f0: 1491 a03d e084 3ebe 0706 a43d 72c2 383d
00000100: b52e c03d bb05 3b3d 8c22 d23d 918a 8c3d
00000110: 8d36 f63d 4e58 cebc f49d ad3d ba30 893d
00000120: fa7c 77bc cb94 9f3d cacb 503d 4788 26bd
00000130: 6f33 1d3e c969 90bd 7a32 573d b5a5 c93d
00000140: 2ae1 7fbe 5424 f4bc 1ac2 853c 9615 773d
00000150: 4273 443d 2403 433d 5f74 0cbd cdd9 f53d
00000160: 9866 5bbc 40d5 d83d ce2d c53a 0600 4cbe
00000170: 23ad d63c 3e48 e73d e769 72be 86bf 353d
00000180: ba32 983d 55f7 0e3b 786d c73d d52b 6cbe
00000190: 3ac2 e13d a5d4 ba3d c103 b63d ed43 fb3c
000001a0: e24a 0a3d e3b1 413d 6b5f e63c 2652 c03d
000001b0: d9bc a93d f769 d93c c388 fabb d018 983c
000001c0: 136c 973d c188 b43c 2d76 c43d bbf8 c2bc
000001d0: 1f52 323d dc30 6bbd 0383 283d e75c f53d
000001e0: fb75 bdbe 4095 5c3d faf5 943d 6d43 233d
000001f0: dd14 583b d5fc b13d 951c 343d b5f4 5ebe
00000200: 305f 603d 8b99 313e 9f35 983c 4e2a 9d3d
00000210: 2d7b 973d 361c f13d 2a28 8f3c 07e7 17bd
00000220: 7fe1 983d d19e f8bd 2839 40ba f7e0 473c
00000230: b890 b1be 7edb f43c 7906 a83d 88bd 88bd
00000240: 0279 543d ef1a 7d3c ad8b 323d 9aea cf3d
00000250: c489 853c 610e 98bb ccf1 fc3c 5bf5 de3d
00000260: 9533 35bd 2b08 99be 719a 833d c51d 8cbe
00000270: b1f1 ddbd 0bf4 c83b 5bb3 87be 8a17 c43d
00000280: 081e 27be db15 683c 4b32 683e ef1c cd3d
00000290: b1ce 4e3d d9ec dd3c 5f3d 363e a955 cf3d
000002a0: 1ecb a83d 15f1 f93d 7667 a3ba 42ed c53d
000002b0: 002d febd e8c9 af3d c269 2e3d e25b 863c
000002c0: 53b5 a73d 274b 2a3e 1513 603d d041 8cbe
000002d0: 1987 6b3d f2e8 5abd 67ac a03d f82a 15be
000002e0: 654b cf3d 3b67 76bd 1ef2 eb3d ee49 b63c
000002f0: 0e6c bd3c 8069 823c 6388 f23c 22b8 1b3c
00000300: 7c55 fe3d e476 99be 188e 4dbd 679d f43b
00000310: ada5 79bd 2285 ad3d 7fde 81bd f0df 84be
00000320: 55eb 123e d67d 48be b6e4 5dbc a923 9dbc
00000330: 7e2d 6a3c a37d ea3c 1ed2 dd3d 1036 943d
00000340: 1da2 9d3c 1679 893c 07e5 9e3c 5473 a4ba
00000350: 9377 bb3d ec76 b2be eed4 8a3d ec41 a93d
00000360: 293c a33d d38a bbbe 22f9 003e 7c15 143c
00000370: cf21 e2bb 6f20 d3bb 0095 843d 719c af3d
00000380: cd36 16be 1563 653d e1e1 10be e85f 283e
00000390: 4e72 b93c b937 d83c 2c10 2abb ec24 74bd
000003a0: 6340 ebbe 61ad 7b3d a416 9b3d 6c8e 913d
000003b0: ab23 bc3c 448e 433d 0fce fc3c 5801 593d
000003c0: 091f b73d bc24 fcba 3d42 f03d 2741 99bc
000003d0: c9a2 b8be 38a4 093c 2e11 ce3c be97 e2bc
000003e0: 9dfc 97be f527 1abd 1c1a c43b e739 a0be
000003f0: 12f8 36be 682c 233c 623d e53d 6a7a 40be

l3.weight f4 [1, 256]
0.22679952 -0.9244644 0.2065202 -0.8293433 0.18088438 0.23165631 0.19319385 -1.5465039
0.2135619 0.18288583 0.19673605 0.23179992 0.32260108 0.21449374 -0.83579564 0.22739351
-1.1435523 0.00010359496 0.2302281 0.22539866 -1.14244 0.20417535 0.19223686 -1.2129613
0.22224538 0.22395317 0.19309406 -0.031656936 -1.1729715 -0.048987113 0.20247738 0.18159612
0.22828254 0.22758906 0.2028032 0.22331539 0.19831188 0.22674514 0.21053989 0.1945778
0.1840447 0.18265414 -0.80398864 0.17605089 -0.91643447 -1.3274148 0.19254056 -0.8805368
-0.04879123 7.220913e-05 0.22267863 0.22302896 0.18399481 0.17291352 -1.5423974 -1.136272
-1.0056506 0.35252854 0.22633977 -1.0525993 0.23508215 -1.118627 0.20551528 0.22688326
0.20154455 0.22019099 0.21457416 0.22602253 0.17432117 -1.6744621 0.18279973 0.22288415
0.22174335 0.23957855 0.1973837 -0.95261765 0.18787856 -1.4319952 0.23633051 0.21331523
-0.94326174 -1.3721699 -0.0484583 -0.8664039 -0.018454447 -0.02326158 -0.9853535 0.18754579
0.21984206 -0.98274577 0.22016676 -0.9954576 -0.014345193 0.18837509 -0.8041186 0.23084326
0.20434043 0.20871365 0.20406401 -0.90200114 0.19551568 0.18906905 0.19105588 -1.5708334
-0.021549696 -1.5638317 -0.049520668 0.22754663 0.2173146 0.20641853 0.19781002 -0.9802708
0.21926972 0.19928741 0.17357858 -0.04184433 0.20807827 -0.047626816 0.18100268 0.19009347
-0.9608921 0.2034509 0.19827382 0.23499423 -0.03552789 0.20397444 0.1794896 -1.7338645
0.18486933 0.21036969 0.23519586 0.21007422 0.20390022 0.19021799 0.21322457 -0.02685068
0.2318148 -1.0199444 0.20592387 0.20628801 -0.8309669 -0.9006621 0.18213437 -0.9605978
0.19002864 0.22819503 0.23748036 0.18375677 0.20256872 -0.048258994 -1.1444491 0.18509752
-1.2086766 -0.72410804 0.20185722 -1.220616 -0.715465 0.21161802 -1.2125913 0.18108124
-0.7707184 0.22924604 -1.3091624 0.2321686 0.212552 0.17344084 0.23032387 -0.9595936
0.19864127 0.1828344 0.19266595 0.18172854 -1.0369824 0.23426563 0.22610117 0.1786454
-1.0716633 0.19739835 0.23191498 -0.7944244 0.2345497 -1.0667638 0.18019511 -1.020217
0.18071336 -0.94852334 -1.8923537 0.18212682 -0.94153744 -0.023555996 0.19932051 0.18623428
0.17837852 -0.98584265 -1.8050985 0.19718876 -0.049568143 0.2266866 -0.014151594 -1.034611
0.20739365 -0.9237156 -0.97930104 -0.043553 0.18142906 -1.8142213 0.18204631 0.19334352
0.21581408 0.23111743 0.19598547 0.20120709 0.18375598 -0.87802887 0.18636094 0.20137078
-0.90857255 -1.1516694 0.18215187 0.21487479 0.21198228 0.20752902 0.21955365 0.23477618
-0.72401583 -0.039584514 -0.8121943 -1.89134 -0.8769182 0.23032208 -0.91150224 -1.1470743
-1.4680928 0.234478 -1.0254004 0.20429614 0.21500272 0.20946737 -0.043524157 0.21095707
0.23094982 0.21590221 0.17159632 -0.79465324 -1.0293032 0.20134726 0.20932145 -0.037103485
-1.3568512 -1.1127621 -0.9873083 -1.0685254 -0.89370835 0.21467711 0.18360111 -1.0982065
00000000: 223e 683e b3a9 6cbf 087a 533e d84f 54bf
00000010: c139 393e 5037 6d3e 9cd4 453e d7f3 c5bf
00000020: f9af 5a3e 6c46 3b3e 2d75 493e f55c 6d3e
00000030: f82b a53e 3fa4 5b3e b4f6 55bf d8d9 683e
00000040: ec5f 92bf 1f41 d938 eac0 6b3e e8ce 663e
00000050: 793b 92bf 5813 513e bdd9 443e 5142 9bbf
00000060: 4b94 633e fb53 653e 73ba 453e b4aa 01bd
00000070: ee23 96bf b6a6 48bd 3b56 4f3e 55f4 393e
00000080: e6c2 693e 1b0d 693e a4ab 4f3e caac 643e
00000090: 4512 4b3e e12f 683e c597 573e 673f 473e
000000a0: 3776 3c3e b009 3b3e 33d2 4dbf af46 343e
000000b0: 739b 6abf bae8 a9bf 5a29 453e dc6a 61bf
000000c0: 50d9 47bd fb6e 9738 de05 643e b461 643e
000000d0: 2369 3c3e 3e10 313e 476d c5bf 5c71 91bf
000000e0: 29b9 80bf 9f7e b43e 9dc5 673e 93bb 86bf
000000f0: 60b9 703e 2b2f 8fbf 9972 523e 1654 683e
00000100: b261 4e3e bf79 613e 54b9 5b3e 7372 673e
00000110: 4081 323e c654 d6bf da2f 3b3e be3b 643e
00000120: b010 633e 1454 753e f41e 4a3e c0de 73bf
00000130: 3d63 403e 9e4b b7bf a000 723e 4f6f 5a3e
00000140: 9a79 71bf 43a3 afbf 367c 46bd a5cc 5dbf
00000150: c82d 97bc 128f bebc 2140 7cbf 010c 403e
00000160: 471e 613e 3a95 7bbf 6573 613e 4fd6 7ebf
00000170: 1a08 6bbc 66e5 403e b7da 4dbf 2d62 6c3e
00000180: 9e3e 513e 08b9 553e 28f6 503e 8ce9 66bf
00000190: 4335 483e 519b 413e 27a4 433e 1211 c9bf
000001a0: fd88 b0bc a32b c8bf 2fd6 4abd fc01 693e
000001b0: b887 5e3e 615f 533e b68e 4a3e 07f3 7abf
000001c0: 3e88 603e 0012 4c3e 95be 313e f664 2bbd
000001d0: 7812 553e 5614 43bd c458 393e dda7 423e
000001e0: 06fd 75bf 6f55 503e 4b08 4b3e 54a2 703e
000001f0: b185 11bd adde 503e 1fcc 373e 46ef ddbf
00000200: 634e 3d3e 276b 573e 2fd7 703e b21d 573e
00000210: 38cb 503e 81c8 423e 8b57 5a3e f5f5 dbbc
00000220: dc60 6d3e 8a8d 82bf b5dd 523e 2a3d 533e
00000230: 3fba 54bf cb91 66bf 6f81 3a3e bde9 75bf
00000240: de96 423e f5ab 693e 0d2e 733e bc2a 3c3e
00000250: 2d6e 4f3e 39ab 45bd 4f7d 92bf 348a 3d3e
00000260: eab5 9abf 255f 39bf a9b3 4e3e 253d 9cbf
00000270: b728 37bf 65b2 583e 3136 9bbf 5c6d 393e
00000280: cd4d 45bf 79bf 6a3e a292 a7bf 9bbd 6d3e
00000290: 3ba7 593e 7a9a 313e 05da 6b3e eda7 75bf
000002a0: 9e68 4b3e f138 3b3e 394a 453e 0c17 3a3e
000002b0: d7bb 84bf 54e3 6f3e 1187 673e d2ee 363e
000002c0: 432c 89bf cb22 4a3e 1f7b 6d3e 665f 4bbf
000002d0: cc2d 703e b78b 88bf 1185 383e 7896 82bf
000002e0: ec0c 393e 6dd2 72bf a538 f2bf 747f 3a3e
000002f0: 9908 71bf 81f8 c0bc ad1a 4c3e 33b4 3e3e
00000300: dca8 363e 2f60 7cbf 780d e7bf daeb 493e
00000310: f707 4bbd 8820 683e 16dc 67bc 226e 84bf
00000320: 005f 543e a078 6cbf 79b3 7abf a164 32bd
00000330: 8ac8 393e 6738 e8bf 596a 3a3e d8fb 453e
00000340: 5efe 5c3e 0caa 6c3e 6ab0 483e 3b09 4e3e
00000350: 872a 3c3e 80c6 60bf 67d5 3e3e 2434 4e3e
00000360: 3698 68bf e769 93bf 0586 3a3e 2308 5c3e
00000370: e211 593e 7d82 543e acd2 603e 2b69 703e
00000380: 1a59 39bf 5f23 22bd f7eb 4fbf 6e17 f2bf
00000390: b67d 60bf 8dd9 6b3e 3658 69bf 55d3 92bf
000003a0: 77ea bbbf 001b 703e 5240 83bf 0233 513e
000003b0: ac29 5c3e 9d7e 563e 6346 32bd 2105 583e
000003c0: 1c7e 6c3e 7815 5d3e f2b6 2f3e 656e 4bbf
000003d0: 35c0 83bf fa2d 4e3e 5d58 563e d3f9 17bd
000003e0: 4dad adbf fd6e 8ebf 3dc0 7cbf 71c5 88bf
000003f0: 12ca 64bf 51d4 5b3e ee01 3c3e 0892 8cbf
