model/hopper-expert-v2.pt (torch, 278359 bytes, 5 tensors)

l1.weight f4 [256, 11]
000000 93 c4 9d 3e 33 9f 7e bd 2d 8d 80 3e d7 83 ef bd
       0.30814037 -0.062163543 0.2510771 -0.11695068
000010 ca 46 e8 be c5 a9 93 3d 56 f8 b7 3d ca cf a6 3e
       -0.45366508 0.07210115 0.08982913 0.32580405
000020 76 db b2 be d8 47 a9 3e 1e 0c 95 3e 1c 83 6d bd
       -0.3493306 0.33062625 0.29110807 -0.057986364
000030 4a 1f 31 be e9 f3 bc 3b 2e d7 18 be 67 a4 4e 3e
       -0.17297092 0.005766381 -0.14925835 0.20179902
000040 5b 42 23 3d b4 8a e2 3d 63 79 5d bd b9 7d 96 3e
       0.039858203 0.11061612 -0.05407084 0.29392794
000050 92 ab 3f 3e 9f 4c 05 3e 13 5e dd be d3 67 b1 3e
       0.18717793 0.1301751 -0.43235835 0.34649524
000060 36 a3 4a bf 63 2a dd bc 27 cf 91 be c8 fb 43 3f
       -0.7915529 -0.02699775 -0.28478357 0.7655606
000070 0b 48 34 be 40 b7 8c 3e 5f 6f 9e be e5 38 43 be
       -0.17605607 0.2748356 -0.30944344 -0.19064672
000080 bb e0 13 bf 9f 84 9b 3e 88 e6 80 be 7b 95 38 be
       -0.57764786 0.3037462 -0.2517588 -0.18025772
000090 86 e9 bb be f7 6a ad 3d 37 2d 98 bd aa cc 29 be
       -0.36701602 0.084676675 -0.07430499 -0.1658198
0000a0 5b 24 6b be 3c b3 0c 3f f1 21 8b 3e ee cd 43 3e
       -0.22963087 0.5496099 0.27174333 0.19121525
0000b0 51 f0 fc 3d 80 cf 8a 3e d4 26 f0 be 77 3f a3 3e
       0.12350524 0.27111435 -0.46904624 0.31884357
0000c0 21 a0 ea 3e ed cd 73 be 3d 10 ba be 53 da eb bd
       0.45825294 -0.23809023 -0.36340514 -0.115162514
0000d0 72 cd c1 bd 5c cd 8a 3e c6 8f 2b 3e ec 1e bf 3e
       -0.09463014 0.27109802 0.16754064 0.3732828
0000e0 72 a8 4a be c7 37 b4 be d0 57 b3 be 56 c6 e6 be
       -0.1979082 -0.35198805 -0.35027933 -0.45073193
0000f0 85 e2 17 be 12 b2 f2 bd 04 49 f6 bd a7 3f 0e 3e
       -0.14832504 -0.118503705 -0.120256454 0.13891469
000100 67 8b 11 be bb fb 8f 3e 16 f9 0b bf d2 79 f2 bd
       -0.14213334 0.28121743 -0.5467695 -0.11839642
000110 1a 61 96 3d dc f0 2c be a5 0d 3a bc 41 a0 43 3e
       0.073427394 -0.16888756 -0.011355792 0.19104101
000120 9a 41 2c 3e 6a 5e 96 3d cb 4f a1 be 33 b2 7d bc
       0.168219 0.07342227 -0.3150619 -0.015484381
000130 b5 d3 50 be f9 fc 9d be 61 04 9b be e1 0c 13 be
       -0.2039326 -0.30857065 -0.30276778 -0.14360382
000140 89 ff 97 3b 90 d4 4a 3e b7 58 50 be 21 23 ee 3d
       0.0046386165 0.19807649 -0.20346342 0.11627794
000150 58 ae a0 3e 74 c5 b3 be 7c c2 90 be 06 8a ab be
       0.31383014 -0.35111582 -0.2827338 -0.3350374
000160 6d 51 10 3e 7c bf af be 7f 42 bb be 59 b0 02 be
       0.14093561 -0.34325778 -0.3657417 -0.12762584
000170 3e fc b4 be 9c e8 a8 be e8 4e 9e 3e e0 67 62 bc
       -0.35348696 -0.32989967 0.30919576 -0.013818711
000180 5d 83 42 3e fc 45 25 be e8 6e ce 3e c4 0d 52 3c
       0.18995424 -0.16139978 0.4031899 0.012820665
000190 73 81 2d bc 09 85 18 3e 4d 1c 20 be 5a bd 8d bb
       -0.010589945 0.14894499 -0.15635796 -0.004325551
0001a0 c4 63 58 3e 93 b6 d0 be cb b0 8b be e0 25 1e 3c
       0.21131808 -0.40764293 -0.2728332 0.009652585
0001b0 dc 21 08 3e b9 62 4a 3d bd b9 f4 3e 49 3b 87 3e
       0.13294166 0.049410556 0.47797957 0.26412418
0001c0 a1 51 cb be de 2f a5 be cb e9 ad 3e 8b 1a 0b be
       -0.39710715 -0.32263082 0.33967432 -0.13584344
0001d0 21 23 58 be 1f 92 02 be 88 34 b3 bd bc 40 c0 bd
       -0.2110715 -0.12751053 -0.08750254 -0.09387347
0001e0 00 4d b0 3e 48 7f 38 be 37 04 ea 3c c2 b5 95 be
       0.34433746 -0.18017304 0.028566463 -0.29240233
0001f0 32 40 86 be 75 10 b0 bd 03 ba 7b be a6 33 18 be
       -0.26220852 -0.08596889 -0.24582677 -0.14863452
000200 d1 55 fa 3d b2 28 e6 3d 69 e3 b9 be f0 97 9b bd
       0.122233994 0.11238231 -0.36306313 -0.07597339
000210 fe f2 ce 3d 40 61 82 3d 5e 24 cd 3d 6d 41 d3 be
       0.10104941 0.06366205 0.10016702 -0.41260853
000220 bb 59 89 be b6 68 0d 3e 47 53 68 3d 3b c8 1d be
       -0.2682627 0.13809475 0.056720044 -0.15408413
000230 ec 3a da 3e 74 55 b4 3e 08 38 90 3e 66 5c c4 3d
       0.4262308 0.35221446 0.28167748 0.09587936
000240 f2 42 1d bd 28 03 62 3c d1 70 a5 be 41 c4 f7 be
       -0.038393922 0.013794698 -0.32312635 -0.48391917
000250 54 ad a7 3d 82 0e 96 3e 63 d9 7c be ee 94 21 bd
       0.081873566 0.29307944 -0.24692301 -0.03944867
000260 47 2f d5 3d 16 7e ca 3e 7a 76 dc 3e f6 2c 23 3e
       0.10409408 0.3954932 0.4305914 0.1593512
000270 27 cf 9b be 36 18 59 bd 62 6a dc be fd 3c 0d be
       -0.30431482 -0.053001605 -0.43049914 -0.13792796
000280 78 f5 9f be 66 e8 92 3e f7 61 b3 be 02 e0 af 3e
       -0.31241965 0.2869293 -0.3503568 0.34350592
000290 d9 4d 82 3e 49 51 6b 3e b1 cf 39 3d d2 93 87 be
       0.25450018 0.22980227 0.045364086 -0.26479965
0002a0 cd 6a 7f be bb e1 f1 be ff 58 5c bd 68 6b c2 3e
       -0.24943085 -0.4724253 -0.05379581 0.3797257
0002b0 16 70 38 3e d0 b7 e4 bc e4 fc cd 3e 3e e2 05 3e
       0.18011507 -0.02791968 0.40232003 0.13074586
0002c0 18 08 aa bd f9 24 ab 3e 99 6e 9c 3e 3b cc 58 be
       -0.08302325 0.33426645 0.3055313 -0.21171658
0002d0 5e 1f 5b 3d ea 38 52 be 1e fd f4 be 7d 12 a7 3d
       0.05349671 -0.20529523 -0.47849363 0.08157823
0002e0 1c cb 0c 3f cf c1 e5 3d 21 1f a8 3e b8 5e 0e be
       0.5499742 0.11218607 0.3283625 -0.1390332
0002f0 bd 3a e3 3c 79 d5 5f 3e ac 4f b5 be 30 52 bc 3d
       0.02773797 0.21858777 -0.35412347 0.091953635
000300 c4 12 a3 be d6 1e c6 3e f1 34 a8 be 9c bd d5 3d
       -0.31850255 0.386954 -0.3285289 0.10436556
000310 a4 8a b9 bc 5a f6 df bc 36 aa 2c be 2e 35 4b 3e
       -0.022649117 -0.02733915 -0.16861805 0.19844505
000320 e5 88 49 be a1 4b 49 3e f2 db 5e bd 48 8b da 3d
       -0.19681127 0.19657756 -0.054408975 0.10671097
000330 b1 4e 63 3d dd 11 c0 bd b3 ed 43 be 3e dc aa 3e
       0.055494968 -0.09378407 -0.19133644 0.33371156
000340 bb 76 5f be ad d4 10 be 54 fe 1b be f5 00 0c be
       -0.21822636 -0.1414363 -0.15233737 -0.1367224
000350 96 33 aa 3e fa ce 40 bd c3 2e 6e be 8c e9 b3 3e
       0.33242482 -0.04707239 -0.23260026 0.3513912
000360 c6 5b f8 bd bf 16 48 3e 77 e5 7f be ff 0c d5 be
       -0.121268794 0.19539927 -0.24989878 -0.41611478
000370 6d e2 bf 3e 61 46 d7 3b 0b af a5 3d 67 da 2f bd
       0.37477437 0.006569669 0.080900274 -0.042932894
000380 65 c6 39 be f8 c4 f7 be 80 95 76 3e e9 c9 92 3e
       -0.18142088 -0.48392463 0.24080467 0.2866967
000390 41 ce a9 3d 04 d1 f7 3d 90 d6 85 3e 50 32 a9 3e
       0.08291293 0.121004134 0.2614026 0.33046198
0003a0 b6 a3 8b be fd a9 d7 3b 05 e6 84 3e ee 9e dc 3d
       -0.2727334 0.0065815435 0.2595674 0.10772501
0003b0 68 cd d4 3d 08 33 b0 be fd d6 11 bd 3b 26 11 3f
       0.10390741 -0.34413934 -0.03560542 0.5669896
0003c0 6b 8e 80 3e 76 8a d9 3e c5 8e 2b be 77 f6 1e be
       0.25108656 0.4248845 -0.16753681 -0.15523706
0003d0 41 27 fc 3d 7a dc 56 3e 3f 32 a3 3e 55 2c 11 3d
       0.123121746 0.20982543 0.31874272 0.03544267
0003e0 2a be 7a be f1 b6 ec bd 14 af 8d be 7d bb f0 bc
       -0.24486604 -0.11558331 -0.27672637 -0.029386276
0003f0 b0 52 1e 3e ff 0d 38 be 8b a2 06 3e a4 16 5e be
       0.1546123 -0.17974089 0.13147943 -0.21688324

l1.bias f4 [256]
000000 5e 2b 68 bd c8 db 32 3f be c1 10 3e 2f 37 cb 3e
       -0.056681983 0.6986661 0.14136407 0.3969054
000010 1f 26 0e 3e cf ef 1f 3e af 79 b8 3e 7e ba 85 3d
       0.1388173 0.15618823 0.36030337 0.06529711
000020 9a 47 f3 3e 84 e5 26 3f 11 ea 86 3d 08 4b 1c be
       0.47515565 0.65193963 0.065876134 -0.15262997
000030 5d 49 4e bd 53 c1 82 3e 94 d9 b3 bc 67 17 a8 3e
       -0.050362933 0.2553812 -0.021954335 0.32830355
000040 59 be b6 3e 42 44 a1 3e 1b 3a d0 3e b2 ff 47 3e
       0.356921 0.3149739 0.4066933 0.19531134
000050 e5 3e f0 bd 96 3b bd 3e 2c f5 1c 3f ee 7c b0 3e
       -0.11730746 0.36959523 0.613116 0.34470314
000060 66 c2 10 3f 21 87 e2 3c 76 02 bd 3e 30 be 13 3f
       0.5654663 0.027652325 0.3691594 0.5771208
000070 30 9f 10 3f 0e b6 be 3d 7c b7 ec 3d 5a 0e 71 3d
       0.564929 0.09312068 0.11558434 0.058851577
000080 e0 d8 c8 3e be a4 5d 3e 01 54 1f 3f 70 a9 17 3e
       0.39227962 0.21644875 0.62237555 0.14810729
000090 ff 9b db bd 62 69 17 3e 85 c8 3e 3c 34 c4 2c 3f
       -0.10723113 0.14786294 0.011644487 0.6748688
0000a0 b6 4e 8e 3e e6 1e 0a 3f 82 f4 59 3e a1 e5 b4 bd
       0.27794427 0.539534 0.21284679 -0.08832861
0000b0 af 53 0d 3f 61 da 63 bd 03 7a 07 be 1f 3d 54 be
       0.55205816 -0.055628184 -0.13230138 -0.20726441
0000c0 66 69 0b 3e a6 c7 0a 3f c2 37 04 3f bf 8c 71 3c
       0.13614425 0.5421089 0.5164758 0.014743029
0000d0 91 30 91 3d e7 7f cf 3e 61 3d 07 3d 2b b6 dd 3e
       0.070893414 0.4052727 0.03301752 0.43303046
0000e0 ad e7 b9 3c f0 db 88 3e ea fb d9 3e db 46 2c be
       0.02269348 0.267303 0.42575008 -0.16823904
0000f0 9a b1 1a 3f 1d 09 01 3f d7 d5 a4 bd 8d a7 81 3e
       0.6042725 0.5040453 -0.08048599 0.25323144
000100 c6 4a ff 3d 8b 2d f1 3e ef 1e 1d 3e 38 54 17 3d
       0.12465434 0.4710506 0.15343831 0.03694555
000110 2d f6 25 3e e1 6a 83 3e e5 96 0b be df d0 7a 3d
       0.1620719 0.2566748 -0.1363178 0.06123435
000120 ad bd 01 3c 3d 5f a4 3e 87 06 e0 3e 85 5c cd bd
       0.007918757 0.3210391 0.4375498 -0.10027412
000130 89 fe 45 be cf ee 8f 3e ee 59 c3 3d 3e 06 1d 3f
       -0.19335379 0.28111884 0.09538637 0.6133765
000140 c5 62 20 3e 50 30 ae 3d ce 07 d1 bc f7 c3 c4 bb
       0.15662678 0.08505309 -0.025516417 -0.006004806
000150 99 11 c1 bd c9 e0 e1 3e 56 2b 49 3f 7b ed 41 3e
       -0.094271846 0.4411681 0.7858175 0.18938248
000160 8a 80 45 3f 46 7d 4b be 46 d5 f1 3e e0 40 c1 bd
       0.7714926 -0.19872007 0.47233027 -0.09436202
000170 00 15 8e 3d e7 66 09 3f 87 c2 22 3f 4e bf c4 bd
       0.06937599 0.5367264 0.63578075 -0.09606801
000180 f1 24 64 3e 58 a3 52 3e 85 a6 0e 3f bb a1 81 3e
       0.22279717 0.20570123 0.5572284 0.25318703
000190 e6 a7 ff bd 2b 1c e3 3d 0d 84 1a 3f 2b 06 30 3b
       -0.12483196 0.11089357 0.60357744 0.0026859145
0001a0 69 92 8d bd 3d 72 4f 3d bd 1f 0e 3f 0d a5 bf 3d
       -0.06912691 0.050646055 0.5551718 0.09357653
0001b0 d9 fa c5 3d 48 1e 47 3f c5 9c 7b 3e 39 77 6d 3e
       0.09666986 0.7778058 0.24571522 0.23190011
0001c0 f5 ba 1c 3f f1 34 cc 3c 09 60 22 3f df 37 11 3f
       0.61222774 0.024927588 0.6342779 0.5672588
0001d0 46 e5 1f 3e 3d 08 38 bc 8e d5 e6 bd a5 8a 80 3e
       0.15614805 -0.011232433 -0.11271201 0.25105777
0001e0 cc e3 3b 3e e1 32 bf 3e 53 0e 1b 3f 01 78 f6 3d
       0.18348616 0.37343505 0.6056873 0.12034608
0001f0 c3 ad 28 bd 6a c3 74 3d fc 26 7b 3e 92 34 03 3f
       -0.041181337 0.059756674 0.2452659 0.5125209
000200 20 79 0c 3f 7b 17 e2 3e 55 4c a1 3e 24 c8 4c 3e
       0.5487232 0.4415854 0.3150355 0.19998223
000210 0c 34 73 bd 11 d3 9f bd 08 55 5e 3e ce 66 04 bc
       -0.059375808 -0.078039296 0.21712124 -0.008081151
000220 f7 36 6a bb fc 23 25 3f 32 25 da bc 60 b2 c2 bd
       -0.0035738328 0.6450803 -0.026629064 -0.095066786
000230 63 fb f1 3e c0 a7 e0 bc 26 4d ab 3e 87 d5 23 3f
       0.47262105 -0.02742374 0.33457297 0.6399769
000240 6d 91 a3 3c d1 df f7 3e 19 ac 10 3f 22 ef 12 3f
       0.019966805 0.48412946 0.565126 0.5739614
000250 ab c4 f9 3d de ed f1 3e 37 ca 5b 3e a6 13 f4 bd
       0.121957146 0.4725179 0.21463858 -0.1191781
000260 59 b9 6d 3e 2b 5a e5 3e 79 39 0e 3f 9c 9c 0e be
       0.23215236 0.44795355 0.55556446 -0.13926929
000270 fe 4a 5e bd 4a dd 06 3e c4 89 b9 3d d4 75 ef 3d
       -0.054270737 0.13170353 0.0905948 0.11692396
000280 fe 2a 2b 3e 61 58 da 3e 43 cd 41 3e 86 35 0e 3f
       0.16715619 0.42645553 0.18925957 0.5555042
000290 33 c4 45 3e e1 ab a3 3e ef 4a 25 3f 3d fd 22 3f
       0.19313125 0.3196707 0.64567465 0.6366766
0002a0 0a 4f d1 bd 5e ed f0 3e 1f 07 86 3e 83 ef cb 3e
       -0.10220154 0.47056097 0.26177308 0.3983117
0002b0 39 56 9e 3e 54 15 f6 3e 98 43 2a bd 17 a2 18 3f
       0.30925158 0.48063147 -0.04156837 0.5962233
0002c0 a6 62 a1 3e 54 59 b8 3d 53 8e c9 3e b3 d8 b5 3e
       0.31520575 0.09001413 0.39366397 0.3551689
0002d0 00 fd e1 3e 5c 7a 7f be a0 0c c6 3e a4 f1 92 3e
       0.44138336 -0.2494902 0.38681507 0.28699982
0002e0 4e 71 df 3d 51 24 2c be 4e e8 17 3f a9 22 01 be
       0.10910283 -0.16810729 0.59338844 -0.12610878
0002f0 70 b6 b2 3e ba fd fd 3e ee ab 37 be 0c 9e 2f 3e
       0.34904814 0.4960764 -0.1793668 0.17150134
000300 c7 d0 3c 3e e8 7c 0f 3f b8 bd 29 3f 58 2f aa bc
       0.18439017 0.56049967 0.6630511 -0.020774528
000310 20 f1 75 3e 61 87 e6 bc c9 ef 5f be 88 1f 9b bd
       0.24017763 -0.028140726 -0.21868815 -0.075743735
000320 51 05 14 3f 7c 2e 03 3d 48 06 e3 3e c0 bc ab 3e
       0.5782061 0.032026753 0.4434073 0.33542442
000330 69 1a df bd f2 26 ea 3e 96 5b c6 bd f2 7b cc bd
       -0.10893709 0.45732838 -0.096854374 -0.09984578
000340 1b 53 61 bc 1c fe 4d 3e 72 f0 69 3e 85 0b 1a 3f
       -0.013752724 0.20116466 0.22845629 0.6017383
000350 2e ae 7b be ef 32 39 3d de d3 42 3e 60 6e 4c be
       -0.24578163 0.04521459 0.19026133 -0.1996398
000360 76 e4 2d 3e f2 76 af 3e ac 3a 8f 3e ac 0f 27 3f
       0.16981682 0.34270436 0.2797445 0.6525829
000370 1e c8 ef bd 32 ee 82 bd 25 d0 0f 3f 91 02 ed bc
       -0.11708091 -0.063930884 0.5617698 -0.028931888
000380 50 57 0a 3e f2 a2 96 bb 4a c3 33 3f dd 55 16 3f
       0.1350987 -0.0045970613 0.7021986 0.58724767
000390 3b aa e1 bd ea f4 c2 3d bc 0d 2f 3f 36 6a 85 bd
       -0.11018797 0.0951937 0.6838033 -0.06514399
0003a0 55 05 89 3e 32 af 08 3e e7 bc 0b 3f 45 db ea 3e
       0.2676188 0.13348082 0.5458512 0.45870414
0003b0 2e db 94 3e f0 a3 80 3e 27 35 2c bd 64 89 83 bd
       0.2907347 0.25125074 -0.042042878 -0.064226896
0003c0 a6 68 98 3d 47 4f b8 3e 3f 78 b2 bd 2d c8 34 3f
       0.07441835 0.35997984 -0.08714341 0.70617944
0003d0 d1 dd 28 3e 07 7a f8 3e b5 05 d5 bd 18 a5 08 3f
       0.16490866 0.485306 -0.10401479 0.53376913
0003e0 f1 2a 8c 3e 5e bd 14 3f b8 c4 d6 3e 5d ed b9 3e
       0.27376512 0.5810145 0.4194696 0.36313906
0003f0 09 0b ba 3e 0b 15 a5 3e 7b 1b ba ba 6d f1 b4 3e
       0.36336544 0.32242617 -0.0014198864 0.35340443

l2.weight f4 [256, 256]
000000 59 ba 48 3d f8 bf 05 3e 0c b9 65 3e e1 a4 30 3e
       0.04900584 0.13061512 0.22433871 0.17250396
000010 68 6f 5c 3d c9 9f f2 3d 4e a3 23 3e e8 4c 03 3e
       0.053817183 0.11846883 0.15980265 0.12822306
000020 f9 f4 e7 3d 73 d6 51 3e a4 58 29 bb 45 44 6c 3d
       0.11326022 0.20491962 -0.0025840187 0.057682294
000030 c6 fa 3e 3e 3f 05 26 3e fc 6d 86 3d 74 aa 78 3d
       0.1865035 0.16212939 0.065639466 0.06070943
000040 c1 2d 04 3e d9 8a 04 3e 37 a9 74 3d 71 4d 1b 3d
       0.12908079 0.12943591 0.05973169 0.03791565
000050 71 34 a1 bb f0 43 15 3e 7e c3 04 3e 2c 5e c8 3d
       -0.0049195816 0.14576697 0.129652 0.09783587
000060 26 d8 38 3e f8 a3 a6 3d 6a 13 27 3e 94 c4 17 3e
       0.18051204 0.08136743 0.16316 0.14821082
000070 8c 2e f0 3d 3a 9f e5 3c 56 fd dd 3d b7 e3 d1 bc
       0.11727628 0.028030027 0.108393356 -0.025621278
000080 51 fb 59 3d 19 aa fd 3d 83 13 10 3e 4e ff 18 3e
       0.05321819 0.12385959 0.14069943 0.14941141
000090 3e 3c 04 3d 84 3d 9e 3d 32 11 94 3b d7 7b 40 3e
       0.032284014 0.07726577 0.0045186514 0.18797241
0000a0 2f a9 56 3e d7 70 31 3e c8 76 f3 3d 72 05 50 3d
       0.20962976 0.17328201 0.1188789 0.050786443
0000b0 03 be 1b 3e ee 2f cd 3d 19 dd 46 bd 78 c5 5c 3e
       0.15209202 0.100189075 -0.0485507 0.21559703
0000c0 86 61 f6 3d a9 49 69 3d 29 67 b5 3d 20 28 31 3e
       0.1203032 0.056955013 0.08857567 0.17300463
0000d0 d5 c5 36 3d c9 21 10 3e be 06 b3 3d f5 5f 95 3d
       0.04462226 0.14075388 0.0874152 0.07293693
0000e0 fc 03 0c 3e e6 f3 27 3e 5a 7d 1a 3e e4 ce ab 3d
       0.13673395 0.16401634 0.1508688 0.08389071
0000f0 fc 31 61 3e c9 68 41 3e 4a 8b bf bb fd df a5 3d
       0.21991724 0.18887629 -0.005845462 0.08099363
000100 c7 a7 cf 3c 19 26 28 3e fd 35 19 3e 14 71 15 3e
       0.025348557 0.16420783 0.14962001 0.14593917
000110 66 f5 d7 3d e4 e2 35 3e b1 f5 ac 3c 1f 6b cf 3d
       0.10544853 0.17762333 0.021113249 0.101278536
000120 0a 86 a1 3d 4c 09 1b 3e cc 74 ca 3d 6a 2c bc bb
       0.07886894 0.15140265 0.098855585 -0.0057425993
000130 9e 00 69 3c b5 92 f1 3d 3b 9c d6 3d dd e8 16 3e
       0.014221339 0.1179556 0.10479017 0.14737268
000140 2a 43 4e 3d ad b9 40 3c 3c a3 73 3d 97 54 05 3e
       0.05035702 0.011763019 0.059481844 0.1302055
000150 e6 fe 3e 3d 66 ad a7 3d 76 96 64 3e fb 12 cd 3d
       0.04662981 0.0818737 0.22323021 0.10013386
000160 5d 5f 09 3e 7a 6e ce 3d d7 e3 24 3e 75 2e 0d 3d
       0.13415284 0.100796655 0.16102539 0.034468133
000170 57 e1 0a 3e 2e 0e 4c 3e 5b 16 2e 3e aa 39 97 bd
       0.13562523 0.19927284 0.17000715 -0.073840454
000180 e9 20 fc 3d 7b ca 12 3d 49 ad 21 3e 40 1e 00 3e
       0.123109646 0.03583763 0.1578876 0.1251154
000190 34 88 4c 3d d3 1c 43 3d 05 e7 8f 3d 67 a3 7f 3d
       0.04993458 0.04763491 0.07026485 0.062411692
0001a0 a1 79 14 3e 11 dc 85 3d 50 d8 f0 3d 60 f8 61 3d
       0.14499523 0.06536115 0.11760008 0.05516851
0001b0 85 ab b6 3d 2c 6b 0e 3e 4c c9 19 3e 76 b5 06 3e
       0.089194335 0.1390807 0.15018195 0.1315516
0001c0 ec 0f 28 3e a7 49 57 bd 3d 89 f7 3d fc e2 ce 3d
       0.16412324 -0.052560475 0.12086723 0.101018876
0001d0 13 48 17 3e 18 52 3e 3c 6d c3 b6 3c c3 9e 10 3e
       0.14773588 0.011616252 0.022309983 0.14123063
0001e0 80 86 c4 3d ed 3e 0e 3e 61 45 ef 3d 91 52 b2 3d
       0.09595966 0.13891192 0.11683155 0.087071545
0001f0 b8 d4 d7 3c f5 08 1d 3d b6 97 9d 3d 2b ce 21 3e
       0.02634655 0.03833862 0.07694952 0.15801303
000200 d1 6e 98 3d 82 4c c5 3d 9e 7a 13 3e 09 c5 26 3e
       0.074430116 0.09633733 0.14402243 0.162861
000210 b8 d4 96 3d 04 b3 22 3d e6 c5 e3 3d 23 96 cc 3d
       0.07364792 0.039721504 0.111217305 0.09989574
000220 26 46 ba 3c c0 51 ee 3d d2 dc cd 3d 4f 91 bb 3d
       0.022738528 0.11636686 0.10051884 0.09158575
000230 ee ea c0 3d b7 07 13 bc 04 da 06 3e b7 b0 05 3e
       0.09419809 -0.008974007 0.13169104 0.13055693
000240 01 16 b3 3c 85 22 0f 3e 22 3c aa 3d cc 13 9b 3e
       0.021861078 0.13978012 0.08312251 0.3028854
000250 b6 f1 07 3e a9 d9 c4 3d a4 90 33 3e 44 d0 63 3d
       0.13275799 0.09611828 0.17535645 0.05561854
000260 f3 26 2b 3e 12 6a bd 3d 0e 96 c1 3d 91 68 f6 3c
       0.16714077 0.09248747 0.09452449 0.030079158
000270 1c b5 c8 3d 66 af cd 3d f4 a0 ca 3d d8 29 f4 3d
       0.09800169 0.1004322 0.098939806 0.119220436
000280 4d 2d ad 3d 98 40 b5 3d 0e 4a 59 3d 78 b4 0f 3e
       0.08455906 0.08850211 0.05304914 0.14033687
000290 70 1a b7 3d 0e dd c1 3d 4a 0d 42 3e 35 be 08 3e
       0.089405894 0.09465991 0.18950382 0.13353808
0002a0 71 06 a8 3b 40 a8 00 3e ab 10 31 3e bb 72 1a 3e
       0.005127721 0.12564182 0.17291515 0.15082829
0002b0 d1 9f 2c 3e d6 d3 a8 3d 20 2b 14 3e 5f f0 52 3e
       0.1685784 0.082435295 0.14469576 0.20599507
0002c0 9a 2c 42 3d 3d d1 e2 3d ec b2 e2 3d 95 89 5a 3e
       0.047405817 0.11075065 0.11069283 0.21341546
0002d0 ce d6 a6 3d 00 a3 64 3d 3c ef ca 3d 63 bd d8 3d
       0.081464395 0.05581951 0.099089116 0.10582998
0002e0 26 b1 2c 3e 40 2d 4f ba 25 a5 3e 3e 64 5a 22 3d
       0.16864452 -0.0007903166 0.18617685 0.039636984
0002f0 af 69 18 3d 2f 28 61 3e 43 70 fc 3d e1 34 3d 3e
       0.037210163 0.21987985 0.123261 0.18477203
000300 8b 9e f0 3a 72 8e 8f 3d e8 8e 29 3e b1 47 87 3d
       0.0018357796 0.07009591 0.1655842 0.06605471
000310 09 c0 b0 3d 32 42 de 3d 8e 6d 7c 3d bf 8a b0 bc
       0.08630378 0.108524695 0.061627917 -0.021550534
000320 7a 24 31 3e dc 2d 22 3e 5f b6 21 3e 9b aa 06 3e
       0.17299071 0.15837806 0.15792225 0.13151018
000330 10 19 76 3d 93 b6 1a 3e 97 75 36 bd da 13 b9 3d
       0.060082495 0.15108709 -0.044545736 0.090369895
000340 98 20 92 3d 2e f8 4e 3d 4f 32 a3 3d 34 63 e3 3d
       0.07135123 0.05052965 0.0796858 0.11102906
000350 59 5a 6f 3d 22 3f 7a 3d d9 18 c7 3d 63 35 cd 3d
       0.05843577 0.061095364 0.09721536 0.10019948
000360 f1 e2 f7 3d df 48 10 3e 24 f0 ed 3d 36 35 df 3d
       0.121038325 0.14090298 0.11618069 0.10898821
000370 45 ef 34 3d 16 e2 34 bb 04 12 2b 3e 15 3d f0 3c
       0.044173498 -0.0027600578 0.16706091 0.029326001
000380 f4 5d 72 3d bf af 4c 3d 8d 7b 5c 3d d2 80 14 3e
       0.059171632 0.049972292 0.053828765 0.14502266
000390 c1 f3 b1 3d 4b 41 c2 3d 08 fc 3d 3e d6 5d bf 3d
       0.086890705 0.0948511 0.18553174 0.0934407
0003a0 15 d1 ef 3d 82 ff 79 3d 1a d9 5c 3d d4 c7 c0 3d
       0.11709801 0.061034687 0.05391798 0.09413114
0003b0 ed 59 3c 3e 87 4a 4c 3e 76 aa 0f 3e 59 40 c3 3d
       0.18393679 0.19950305 0.1402987 0.09533758
0003c0 90 56 ad 3d d9 1d 31 3e 4c 5c 59 3d cd a3 f4 3d
       0.08463776 0.17296542 0.053066537 0.11945305
0003d0 0d 48 da 3d b8 c6 8c 3d ae bb 26 bc cf 51 30 3e
       0.10658274 0.0687384 -0.010176582 0.17218708
0003e0 c2 1a 13 3e d8 66 2e 3e 13 98 18 3e 21 32 24 3e
       0.14365676 0.1703142 0.14901762 0.16034748
0003f0 a7 ff 15 3e ab e1 08 3e 04 83 ae 3c 67 ec a1 3d
       0.14648305 0.13367335 0.021302707 0.07906418

l2.bias f4 [256]
000000 cb f7 5e 3e 42 46 3b bd 23 cf 64 3e 71 a9 2e bc
       0.21774213 -0.0457213 0.22344641 -0.010660515
000010 70 8b 94 3e b7 46 82 3e fc d0 84 3e 42 4c c1 be
       0.29012632 0.25444576 0.25940692 -0.37753493
000020 51 06 46 3e b2 6f 79 3e be 3c 3d 3e a6 a2 83 3e
       0.19338347 0.24359015 0.18480203 0.25710028
000030 5c 25 e2 3e c4 9a 86 3e 32 8d 86 3b b7 af 4a 3e
       0.44169128 0.26289952 0.0041061873 0.19793592
000040 5d 35 1d be d1 12 41 3d a2 60 4b 3e e9 ff 62 3e
       -0.15352388 0.047137085 0.19861081 0.22167934
000050 74 18 fb bd 4f d1 3a 3e 49 e0 64 3e 68 3d 0c 3c
       -0.122605234 0.18243907 0.22351183 0.008559562
000060 03 53 58 3e f6 55 63 3e aa 34 32 3e d7 27 02 3d
       0.21125416 0.2220076 0.17402902 0.031776275
000070 02 08 1d 3d 3f 9b ad 3b f7 7e 45 3e a0 2b 81 3e
       0.038337715 0.005298048 0.19286714 0.25228596
000080 17 85 21 3e a7 1b 80 3e 74 b1 8a 3e 3b 08 87 3e
       0.15773426 0.25021097 0.2708851 0.26373467
000090 79 c3 80 3e 0d c2 6c 3e a9 33 7d 3e 2e 86 4d 3e
       0.25149134 0.231209 0.24726738 0.20070717
0000a0 b0 cc 5f 3e 2f 0e 8a 3e cb ea 26 be 50 96 9e 3e
       0.21855426 0.26963946 -0.16300504 0.30974054
0000b0 9e 3e a0 be b3 e8 02 bf 44 e9 84 3e 19 00 94 be
       -0.31297773 -0.5113632 0.25959218 -0.28906325
0000c0 d0 19 bb 3c ab b5 f0 3c da 43 8c 3e 7a 2c 86 3e
       0.022839457 0.029383501 0.27395517 0.26205808
0000d0 de 05 9d 3e 42 1f 86 3e c7 eb ed bc 72 80 0b bf
       0.3066854 0.26195723 -0.029043091 -0.54492867
0000e0 17 92 c5 3b 0d 8f 82 3e 57 fd 1a 3e e4 59 2c bc
       0.006029378 0.25499764 0.15135704 -0.0105194785
0000f0 57 f6 7e 3e c8 a4 33 3d c9 ac 81 3e 8d 8c 5b 3e
       0.24898659 0.04385832 0.25327137 0.21440335
000100 79 14 88 3e e7 1d 5e 3e 62 eb 8c 3e 34 2e 76 3e
       0.2657812 0.21691094 0.27523333 0.24041063
000110 41 68 96 3e 71 bc 6f 3c 74 b8 84 3e e4 f2 72 3e
       0.29376414 0.01463233 0.25921977 0.23725468
000120 ae 10 21 3e 73 a1 7f 3e 2c 4b 64 3e 0c 02 74 bd
       0.15729019 0.24963932 0.22294301 -0.059572265
000130 5a b9 a1 3e fd 84 9b be d8 4c 64 3e 80 46 8a 3e
       0.31586725 -0.303749 0.22294939 0.27006912
000140 c3 5e 0d bf ab f0 b4 3c e8 10 87 3c 85 47 80 bc
       -0.5522272 0.022087416 0.016487554 -0.015659103
000150 f3 73 47 3d 48 c3 41 3d 71 05 cc bd b8 35 96 3e
       0.048694562 0.047305375 -0.09961975 0.2933786
000160 c9 99 22 3e 6d 56 bf bd ca 53 31 3e 96 02 d5 be
       0.15878977 -0.09342656 0.17317119 -0.41603535
000170 ae 64 eb 3c b3 39 91 3e 10 9d 8b bc 53 78 5c 3e
       0.028734531 0.28364334 -0.017042667 0.21530275
000180 27 73 7c 3e 21 fd 30 3e e3 fb 89 3e b0 19 9e bc
       0.24653302 0.17284061 0.26949987 -0.019299358
000190 12 b9 90 3e 4c 61 8b 3e d7 21 86 3e 75 ae 24 bd
       0.28266197 0.2722267 0.26197693 -0.040205438
0001a0 13 9f 0e 3d f6 ff 26 3d f2 f0 ea 3c bf 1c 88 3e
       0.034819674 0.040771447 0.028679345 0.26584432
0001b0 c8 2a 82 3e da 71 4c 3e 1b 44 29 3e a0 ad ec be
       0.25423265 0.19965306 0.16529886 -0.46226215
0001c0 c2 0d 7b 3e 45 cc 47 3e 27 f6 89 3e 13 df c0 bc
       0.24516967 0.19511516 0.26945612 -0.02354387
0001d0 d5 15 5c 3e 2f 8b 4f bd 08 43 5c 3e d4 d9 95 3e
       0.21492703 -0.050669845 0.21509945 0.29267752
0001e0 88 0e fd be 8a e3 67 3e 52 a5 7a 3e ff 72 57 3e
       -0.4942515 0.22645393 0.24477127 0.21039961
0001f0 e8 4c 55 3b 55 bc 84 3e e9 d4 5d 3e 14 82 30 be
       0.003254706 0.25924936 0.2166325 -0.17237121
000200 7e 4c 68 3e 0b ac 9e 3e 56 e9 41 3e 5e a2 7e 3e
       0.2268543 0.30990633 0.18936667 0.24866626
000210 e9 8f 7c 3e bb 24 95 3e b2 f1 41 3e 4d 40 1f bd
       0.24664272 0.29129586 0.18939856 -0.03887968
000220 e2 95 79 3e a0 c2 c0 be 0f 25 30 3e 59 00 3c 3e
       0.24373582 -0.37648487 0.17201637 0.18359508
000230 30 7d 1f bf 03 f0 0a bf 69 35 82 3e 2c af 3d bd
       -0.62300396 -0.5427248 0.25431374 -0.046309635
000240 d6 0d 67 3e 41 3f 3f 3e 9b a9 58 3e b9 24 8d 3e
       0.22563872 0.18676473 0.2115845 0.2756708
000250 5b 85 42 3e aa 84 90 bd 6b 46 2f 3d 73 92 90 3e
       0.18996184 -0.07056554 0.042791765 0.28236732
000260 9c ae a1 bc 62 2d 1f bf 09 cb 71 3e e8 0c 17 bf
       -0.01973658 -0.62178624 0.23612608 -0.5900407
000270 13 24 69 3d ed 07 36 3e 6c ce c0 3b 3f d9 89 3e
       0.05691917 0.17776461 0.0058839824 0.26923558
000280 cd 0b 87 3c 06 49 3c 3e 2e b0 25 bd 44 96 fa 3e
       0.01648512 0.18387231 -0.04045122 0.4894277
000290 2b d5 62 3e 5f 84 4d 3e aa 3b d9 3c c7 2b 07 bd
       0.2215163 0.20070027 0.026517708 -0.033000734
0002a0 4e 49 82 3e 44 1a 97 3e b3 95 2f 3e fc f3 89 3e
       0.25446552 0.29512227 0.1714695 0.26943958
0002b0 e3 2f 79 bd f5 64 83 3e 66 ab 5a 3e 85 a0 42 3e
       -0.060836684 0.25662962 0.21354446 0.19006546
0002c0 72 54 d5 bc a6 c7 b6 3e 6a 58 67 3e 72 d6 05 bf
       -0.026041243 0.35699195 0.22592321 -0.5228034
0002d0 18 24 6a 3e 50 f6 d3 be a6 25 81 3e 7d c6 19 3b
       0.22865331 -0.4139886 0.25224036 0.0023464256
0002e0 e4 aa 8c 3e b9 90 14 3c 72 76 1c be bc a4 48 3e
       0.2747413 0.009067708 -0.15279558 0.19594091
0002f0 f5 0f c4 be 4f 29 92 3c f0 91 4f 3e ee c7 3b 3e
       -0.38293424 0.017841963 0.20270514 0.18337986
000300 55 92 97 3e 1d 92 a2 bc 66 3f b6 bd 12 60 38 3e
       0.2960383 -0.019845063 -0.08898811 0.18005398
000310 9e 82 67 bd ce 79 82 3e 0e 10 82 bd 49 27 c6 bc
       -0.05652105 0.25483555 -0.063507184 -0.024188654
000320 2d f7 9c 3e 3c 3e 68 bd 87 fa ff be 55 c8 a0 bc
       0.3065733 -0.056699976 -0.49995825 -0.019626776
000330 77 26 40 3e 59 86 ba be 6f 2c 8e 3e e3 e5 7b 3e
       0.18764673 -0.36430624 0.27768275 0.24599414
000340 fc 35 43 3e 57 08 40 3e df 3d 45 3e cc cb 2e 3e
       0.19063562 0.18753181 0.19261883 0.1706993
000350 06 f7 86 3e d2 7e 0f bf 88 3f 77 3e e2 f1 82 3e
       0.2636034 -0.5605289 0.24145329 0.25575167
000360 89 c9 c9 be 4c c8 0b bf 06 3f 99 3e c6 92 39 3e
       -0.39411572 -0.54602504 0.29930896 0.18122396
000370 46 de 29 3e 17 0a 2a 3e 10 5e 72 3e 2e 2e 83 3e
       0.16588697 0.16605411 0.23668694 0.2562117
000380 b9 79 4a 3d 21 6c 67 3d a9 2a 46 3d 47 80 4f 3d
       0.04943249 0.056499604 0.048380528 0.050659444
000390 f6 d7 78 bd c7 8e 47 3e 24 69 17 bf de 40 d1 bb
       -0.06075283 0.19488059 -0.59144807 -0.0063859066
0003a0 13 c8 84 bd ff 12 6c 3e 30 d9 da be 29 56 79 3e
       -0.06483474 0.23054121 -0.42743826 0.24349274
0003b0 64 6e 46 3e e3 b2 61 3e 39 f6 f5 3c 71 b7 65 3e
       0.19378048 0.22040896 0.030024635 0.22433259
0003c0 e2 e9 84 3e 78 fb 2c 3e c1 40 95 3e 20 d6 0f bf
       0.25959688 0.16892803 0.29150966 -0.56186104
0003d0 66 5e 61 bc 87 23 3a 3e 95 2e 4a 3e 5b 24 df bc
       -0.0137554165 0.18177615 0.19744332 -0.027239015
0003e0 5c da 76 be b2 7a 69 be 38 2f ff be 06 ac ed be
       -0.24106735 -0.22800711 -0.49840713 -0.46420306
0003f0 ab f7 e7 bd 23 65 39 3e 93 e2 91 3e ad 12 14 bd
       -0.11326536 0.18104987 0.28493175 -0.036150623

l3.weight f4 [1, 256]
000000 d2 37 4b 3e 1e 31 fd bc ac 09 2c 3e b7 a9 38 bd
       0.19845513 -0.03090721 0.16800565 -0.045083728
000010 51 0b 18 3e 63 c8 48 3e 3b 36 22 3e 05 24 39 bf
       0.14848067 0.19607691 0.15841 -0.72320586
000020 de 45 33 3e 3e d9 1c 3e 61 c7 26 3e d6 d2 47 3e
       0.17507121 0.15317246 0.16286995 0.19514021
000030 ab 52 5c 3e 2f 9d 39 3e 98 98 05 bf 83 dc 49 3e
       0.2151591 0.18126367 -0.52185965 0.19713025
000040 b8 23 56 bf 12 9c 81 bb 92 86 46 3e 0c 49 44 3e
       -0.8364825 -0.0039553726 0.19387272 0.1916849
000050 59 6a 84 bf 47 5d 2b 3e 86 4b 21 3e 10 1c f3 bc
       -1.0344955 0.16734801 0.15751466 -0.029676467
000060 65 79 3f 3e 0a 92 41 3e be 92 20 3e ad 3d fe bc
       0.18698652 0.18903366 0.15680978 -0.031035269
000070 4b b8 50 bd f8 32 52 bd c6 f0 2b 3e 7f 21 16 3e
       -0.050957005 -0.05131814 0.16791067 0.14661215
000080 81 73 4a 3e 3f cf 46 3e da a5 30 3e 18 4f 3d 3e
       0.19770624 0.19414996 0.17250767 0.18487203
000090 ae 17 2b 3e 68 14 45 3e 19 ca 35 3e e4 73 25 3e
       0.16708252 0.19246066 0.17752875 0.1615749
0000a0 08 cc 1c 3e b3 af 14 3e f9 a8 6f bf ed 59 15 3e
       0.15312207 0.14520149 -0.93617207 0.14585085
0000b0 bd 80 ff be e8 eb 37 bf 8f b1 22 3e 5e 40 81 bf
       -0.49902907 -0.7184434 0.15888046 -1.0097768
0000c0 cc fd 4a bd 71 14 e2 ba 5f 17 3e 3e 57 68 41 3e
       -0.049558446 -0.0017248524 0.18563603 0.18887459
0000d0 08 7a 16 3e 71 93 13 3e 4c 6d a2 bf 13 47 2c bf
       0.14694989 0.14411713 -1.2689605 -0.6729595
0000e0 2b 32 53 bd 60 5f 4a 3e 57 fc 46 3e 1a 50 c4 bc
       -0.051561516 0.19762945 0.19432198 -0.023963977
0000f0 ab 0f 47 3e c5 2f 50 bc ac 2f 36 3e aa f0 46 3e
       0.1943957 -0.012706702 0.17791623 0.19427744
000100 d6 72 2e 3e 8b ad 3f 3e 1e 0b 37 3e 79 91 41 3e
       0.17035994 0.18718545 0.17875335 0.1890315
000110 bf 30 14 3e 51 2e 30 bd 25 35 1d 3e a2 4e 44 3e
       0.1447172 -0.04301292 0.15352304 0.19170621
000120 69 db 3b 3e 9f dd 4c 3e 0e f7 24 3e 57 f5 ff bc
       0.18345417 0.20006417 0.16109869 -0.031244917
000130 12 5d 13 3e ce 7a 93 bf 8d d9 4c 3e 33 58 34 3e
       0.14390972 -1.1521852 0.20004864 0.1761177
000140 b4 c7 49 bf 97 35 f9 bc 69 31 45 bd d8 11 38 bc
       -0.7882035 -0.030421061 -0.048142824 -0.011234723
000150 98 5e 9a bc 8f cf bd bc 95 94 82 bf ec 8e 1f 3e
       -0.018843934 -0.02317026 -1.0201594 0.15581864
000160 20 bd 3b 3e c8 34 1c bf 96 d3 3b 3e 7d 96 4c bf
       0.18333864 -0.6101804 0.18342432 -0.79917127
000170 29 76 88 bc 33 dd 17 3e 4d a3 0c bd 92 dc 48 3e
       -0.016657906 0.14830475 -0.034335423 0.19615391
000180 3f 05 31 3e e5 f9 31 3e 24 b6 28 3e 88 fd 2b bc
       0.17287157 0.17380483 0.16475731 -0.010497458
000190 dc cd 22 3e f7 43 14 3e 6f f9 21 3e f9 b5 23 bd
       0.15898842 0.14479052 0.15817808 -0.039968465
0001a0 07 82 b5 bc 52 71 0c bd 84 8d 49 bd 2f b9 46 3e
       -0.022156728 -0.03428776 -0.049207225 0.1940658
0001b0 db 9b 38 3e 13 30 30 3e e3 aa 2c 3e 51 2d 3d bf
       0.18028204 0.17205839 0.16862063 -0.7389727
0001c0 04 d7 3c 3e c9 c7 2a 3e 60 04 10 3e 79 e5 2c bd
       0.18441397 0.16677774 0.14064169 -0.04221103
0001d0 1e 7c 34 3e 92 f5 65 bd f4 46 1b 3e 7a 52 1d 3e
       0.17625472 -0.056142397 0.15163785 0.15363494
0001e0 96 cf 3e bf 6e 6f 2a 3e 99 ad 29 3e 67 c5 4a 3e
       -0.745355 0.1664407 0.16570129 0.19801866
0001f0 3f 1a 11 bd 95 79 32 3e 7b bb 17 3e d2 82 0b bf
       -0.03542542 0.17429192 0.14817612 -0.5449649
000200 db 46 18 3e bc f5 11 3e eb 32 4d 3e c5 88 36 3e
       0.14870779 0.14253896 0.20038955 0.17825611
000210 98 11 2b 3e c3 ec 1f 3e 86 03 36 3e 73 e8 cf bc
       0.1670593 0.15617661 0.17774782 -0.025379395
000220 71 35 4a 3e 00 93 42 bf 5e 14 33 3e 9d d8 31 3e
       0.19746949 -0.76005554 0.17488238 0.17367788
000230 b8 53 2a bf 1a 78 3a bf de d4 16 3e 65 7d 31 bd
       -0.66533995 -0.7283951 0.1472964 -0.043332476
000240 87 28 1f 3e ea e5 45 3e d7 8a 4d 3e e7 f3 1a 3e
       0.15542804 0.19325987 0.20072494 0.15132104
000250 47 80 30 3e ac 9e 26 bf 58 2d e3 bc e2 c4 1b 3e
       0.17236434 -0.65085864 -0.027731583 0.15211824
000260 22 28 0c bb 24 59 24 bf d0 c8 2a 3e 16 6b 29 bf
       -0.0021386226 -0.6419852 0.16678166 -0.66179025
000270 30 ca dc bb be 65 2e 3e 36 26 17 bd 33 16 19 3e
       -0.00673797 0.17030999 -0.036901675 0.14949875
000280 6f 93 4e bf 0d 95 3f 3e 9b 8e fd bc 96 62 8b 3e
       -0.80693716 0.18709202 -0.030951789 0.27223653
000290 41 8a 39 3e 8b 86 11 3e 0c f7 15 39 04 cd 42 bf
       0.18119146 0.1421148 0.0001430178 -0.7609408
0002a0 45 2e 23 3e 42 13 1d 3e c4 a7 22 3e cd 67 15 3e
       0.15935619 0.15339378 0.1588431 0.14590378
0002b0 8a eb 3b bd b6 a3 48 3e df 1c 41 3e 94 4c 15 3e
       -0.045878924 0.19593701 0.1885867 0.14579993
0002c0 89 56 cb bc 56 52 17 3e 82 9a 46 3e 04 f1 36 bf
       -0.024821537 0.14777502 0.19394878 -0.7146151
0002d0 95 8c 48 3e 03 d2 52 bf 4e 42 15 3e 96 fc 51 bd
       0.19584878 -0.823517 0.14576074 -0.051266275
0002e0 0a 54 18 3e e1 37 a9 bc a3 c8 37 bf 96 14 16 3e
       0.14875808 -0.020656528 -0.7179052 0.1465629
0002f0 0c 1a 79 bf 68 60 c9 bc c4 92 2a 3e c8 a0 1e 3e
       -0.9730537 -0.024582103 0.16657549 0.1549102
000300 c5 93 16 3e 42 73 94 bc 43 3c 22 bf bb ad 2e 3e
       0.14704807 -0.018121365 -0.633732 0.1705846
000310 15 32 68 bd 38 27 46 3e 5a 39 63 bc 7c fb b5 be
       -0.056688387 0.19350898 -0.013868654 -0.3554343
000320 02 eb 14 3e 72 05 f7 bb ab 9e 7f bf e7 bb 30 bd
       0.14542773 -0.007538491 -0.99851483 -0.043147948
000330 b6 cb 18 3e 93 2b 39 bf a6 11 16 3e 6d 46 24 3e
       0.1492146 -0.72332114 0.1465517 0.1604249
000340 0d 7b 39 3e fe af 48 3e 00 c4 24 3e e7 c1 30 3e
       0.18113346 0.19598386 0.16090393 0.17261468
000350 44 f9 19 3e 70 60 4c bf 3f fd 1d 3e 7a 37 2a 3e
       0.15036494 -0.7983465 0.15428637 0.16622725
000360 46 71 40 bf ca 38 3e bf 84 91 19 3e 0f ed 37 3e
       -0.7517284 -0.74305403 0.14996916 0.17961524
000370 6f 47 36 3e 4a 77 31 3e d5 d4 3c 3e 6a 8c 4c 3e
       0.17800687 0.17330661 0.18440564 0.19975439
000380 3a 1d 4e bc 0d 36 23 bd a3 65 0e bd 9f e1 4b bd
       -0.01258021 -0.03984647 -0.034764897 -0.049775716
000390 f1 b0 8e bf a9 da 46 3e 4b ce 32 bf a4 e2 94 bf
       -1.1147748 0.1941935 -0.6984603 -1.1631665
0003a0 ce 5b 26 bc e1 48 47 3e bc d6 45 bf 5f 2c 30 3e
       -0.010153724 0.19461395 -0.77280784 0.17204426
0003b0 81 9b 35 3e bb e8 30 3e a1 aa 2f bd 59 d6 37 3e
       0.17735101 0.1727628 -0.042887334 0.17952861
0003c0 46 d9 44 3e e1 68 36 3e e4 17 12 3e 2d af 36 bf
       0.19223508 0.17813446 0.14266926 -0.7136105
0003d0 7f f3 40 bc 9e b4 2e 3e 80 26 35 3e fc e1 17 bd
       -0.011776804 0.17061087 0.17690468 -0.03708075
0003e0 fe d0 5a bf b4 3e c3 be 79 e3 3d bf dd bc 31 bf
       -0.85475147 -0.38133776 -0.7417522 -0.6942881
0003f0 d8 08 75 bf 78 06 3d 3e 8c c8 1d 3e c4 cf 1a bd
       -0.9571662 0.18459499 0.15408534 -0.037795797
