model/hopper-medium-expert-v2.pt (torch, 278359 bytes, 5 tensors)

l1.weight f4 [256, 11]
0.15054907 -0.22829153 0.18069102 -0.162466 -0.43013638 0.38136372 0.039278686 0.0681717
-0.20708656 0.29551023 0.08184179 -0.057316918 -0.311311 0.32605442 -0.15860507 0.34151882
0.14661695 0.26859257 -0.09955867 0.39606264 0.24220526 0.07057237 -0.21747193 0.2535358
-0.60376674 -0.022379195 -0.278788 0.653951 -0.118693255 0.32046005 -0.21320981 -0.13235229
-0.39366198 0.36145288 -0.20843461 0.2211455 -0.15924679 0.20181961 -0.24984474 -0.043735318
-0.3131367 0.6328104 0.42268568 0.16522159 -0.1332397 0.22157732 -0.44460857 0.35290903
0.5086289 -0.3579534 -0.2504294 -0.19688904 0.10911931 0.17618221 0.047941513 0.14936332
-0.011068218 -0.28532186 -0.24644758 -0.539684 0.10352105 -0.3553057 -0.28118014 0.16859081
-0.20105237 0.20792763 -0.39758787 -0.42232117 0.08185758 -0.025125917 0.30641806 -0.114124924
0.40399235 0.08238456 -0.21764396 0.16944464 -0.21284513 -0.33288807 -0.42897448 0.05501096
0.28423616 0.46932018 -0.7688855 0.32802433 0.3978851 -0.5441178 -0.2136111 -0.17145392
0.24389327 -0.18190667 -0.22628449 0.033989727 -0.17691582 -0.38080966 0.28576487 0.09988617
0.43679374 -0.18938869 0.6515869 -0.17651296 0.0754067 0.049126826 -0.27999234 0.15575437
0.2760163 -0.49182135 -0.28972077 0.06598686 0.18975855 0.012548686 0.23102134 0.5645928
-0.3799857 -0.31518584 0.53173405 0.1399848 -0.29365814 0.06555134 0.017563934 -0.25444707
0.4823164 -0.13794677 -0.09339713 0.027931726 -0.42875952 -0.1846799 -0.15875275 -0.193362
-0.033003584 0.18565527 -0.29980153 -0.14295387 0.005640418 0.4094345 -0.07786019 -0.35237387
-0.11756907 -0.055982657 -0.1076345 -0.21427995 0.7393714 0.35666144 0.17479599 0.10176485
0.13978876 -0.07569807 -0.23900265 -0.42708284 -0.008393508 0.24694578 -0.25446987 -0.061298523
0.09391382 0.34889093 0.3400041 0.21186626 -0.121547624 -0.04782103 -0.5861997 0.09043417
-0.33893585 0.1298011 0.039837915 -0.1517143 0.31689078 0.27356592 0.25959557 -0.31553042
-0.22353582 -0.4259751 -0.23440015 0.30394548 0.055672675 -0.007822336 0.25167182 0.11240454
0.03945661 0.34325185 0.28887695 0.22769679 0.041573472 -0.2962021 -0.25644186 -0.109759256
0.6719857 0.22860572 0.38958946 0.04339354 0.035852406 0.5110803 -0.09220169 0.095021755
-0.48138934 0.40960115 -0.32361427 0.062970474 -0.051022008 0.11107871 -0.45264968 0.07595315
-0.3757818 0.4001389 0.11676626 -0.29903775 0.31930673 -0.074961476 -0.01777587 0.21303737
-0.2553238 -0.3111849 0.054913335 0.14613837 0.78255975 0.10319615 -0.24655898 0.35375056
0.008865098 0.07704553 -0.41450348 -0.23796847 0.30445272 0.15857759 0.17966932 -0.14999877
-0.2157349 -0.13235244 0.2969963 0.36330223 0.23587573 0.1816724 0.18513663 0.18312657
-0.56938785 -0.014457473 0.3205675 0.21191707 0.06762278 -0.3635917 -0.20974225 0.61508864
0.29596362 0.2631106 -0.20083532 -0.093195155 0.2575706 0.24863967 0.2101413 -0.20630662
-0.2774207 -0.1349754 -0.15547228 -0.13930601 0.08358197 -0.17528579 0.21442284 -0.4163652
00000000: 8929 1a3e 41c5 69be 1107 393e 7d5d 26be
00000010: d63a dcbe 1b42 c33e b0e2 203d 9b9d 8b3d
00000020: 800e 54be 1e4d 973e ab9c a73d 25c5 6abd
00000030: 2864 9fbe 9bf0 a63e 5e69 22be 8edb ae3e
00000040: c122 163e f784 893e 6ae5 cbbd b9c8 ca3e
00000050: a804 783e 3f88 903d f6b0 5ebe 72cf 813e
00000060: 7590 1abf 9354 b7bc 4dbd 8ebe 5569 273f
00000070: 7315 f3bd 5713 a43e ac53 5abe 5c87 07be
00000080: 108e c9be 5a10 b93e e26f 55be f773 623e
00000090: 9711 23be cda9 4e3e 4dd7 7fbe ce23 33bd
000000a0: 7453 a0be ddff 213f 426a d83e d92f 293e
000000b0: fd6f 08be 2ae5 623e bca3 e3be 7eb0 b43e
000000c0: 8135 023f ab45 b7be 4838 80be 489d 49be
000000d0: f279 df3d 1c69 343e 525e 443d b3f2 183e
000000e0: 7957 35bc b515 92be c15c 7cbe bb28 0abf
000000f0: d802 d43d a1ea b5be d8f6 8fbe 12a3 2c3e
00000100: ace0 4dbe fbea 543e a390 cbbe 7b3a d8be
00000110: f2a4 a73d ded4 cdbc d4e2 9c3e 54ba e9bd
00000120: 16d8 ce3e 3cb9 a83d 0fde 5ebe e582 2d3e
00000130: 13f4 59be 4e70 aabe 8ba2 dbbe 2c53 613d
00000140: 6787 913e bc4a f03e aed5 44bf cef2 a73e
00000150: 99b7 cb3e 4e4b 0bbf debc 5abe 9e91 2fbe
00000160: 28bf 793e be45 3abe 1fb7 67be d038 0b3d
00000170: 6c29 35be 7cf9 c2be c64f 923e 1f91 cc3d
00000180: 6ea3 df3e 1cef 41be 66ce 263f d0bf 34be
00000190: d46e 9a3d 3639 493d 285b 8fbe 137e 1f3e
000001a0: 0252 8d3e 02d0 fbbe 4856 94be 1e24 873d
000001b0: 1150 423e 0199 4d3c dc90 6c3e 2789 103f
000001c0: 7c8d c2be 0a60 a1be b91f 083f 2d58 0f3e
000001d0: 5c5a 96be c83f 863d 3de2 8f3c e346 82be
000001e0: 2df2 f63e eb41 0dbe ff46 bfbd 13d1 e43c
000001f0: 5e86 dbbe ba1c 3dbe 1590 22be b000 46be
00000200: c42e 07bd 6a1c 3e3e 967f 99be 8062 12be
00000210: 41d3 b83b 66a1 d13e 2a75 9fbd 596a b4be
00000220: 0dc8 f0bd 124e 65bd 7a6f dcbd 346c 5bbe
00000230: 7247 3d3f 549c b63e b8fd 323e 176a d03d
00000240: c924 0f3e 9707 9bbd 1cbd 74be 9aaa dabe
00000250: ed84 09bc 5bdf 7c3e e049 82be 2914 7bbd
00000260: e455 c03d d5a1 b23e 0415 ae3e 78f3 583e
00000270: f6ed f8bd fcdf 43bd 2f11 16bf 8d35 b93d
00000280: 0089 adbe 94ea 043e 152d 233d fe5a 1bbe
00000290: 823f a23e d510 8c3e b6e9 843e 348d a1be
000002a0: 93e6 64be 6919 dabe 9806 70be be9e 9b3e
000002b0: 0809 643d 4129 00bc 21db 803e 5a34 e63d
000002c0: 419d 213d b5be af3e aee7 933e 5929 693e
000002d0: f248 2a3d cda7 97be 594c 83be 76c9 e0bd
000002e0: 4107 2c3f 9e17 6a3e 4578 c73e 6dbd 313d
000002f0: f9d9 123d 29d6 023f 3dd4 bcbd c49a c23d
00000300: aa78 f6be 3eb7 d13e c5b0 a5be aaf6 803d
00000310: 74fc 50bd 3c7d e33d b3c1 e7be 538d 9b3d
00000320: 7966 c0be 02df cc3e 2623 ef3d 7a1b 99be
00000330: 2c7c a33e 6785 99bd b49e 91bc 7826 5a3e
00000340: cdb9 82be a153 9fbe ceec 603d 4ca5 153e
00000350: d655 483f 8158 d33d f579 7cbe cb1e b53e
00000360: ea3e 113c 0cca 9d3d cd39 d4be 02ae 73be
00000370: 3ae1 9b3e 2a62 223e 3cfb 373e 4799 19be
00000380: 9ce9 5cbe 6687 07be e60f 983e c002 ba3e
00000390: 6889 713e 5408 3a3e 7594 3d3e 8885 3b3e
000003a0: 67c3 11bf 09df 6cbc 6c21 a43e ca00 593e
000003b0: d07d 8a3d b128 babe acc6 56be 7376 1d3f
000003c0: 8b88 973e 6fb6 863e c6a7 4dbe 1add bebd
000003d0: 4be0 833e 669b 7e3e 482f 573e 0b42 53be
000003e0: 160a 8ebe fe36 0abe 2034 1fbe 3ca6 0ebe
000003f0: 062d ab3d 1e7e 33be a991 5b3e d22d d5be

l1.bias f4 [256]
0.05810481 0.43659505 0.41326067 0.18778881 0.25150245 0.13895091 0.29028723 -0.11026664
0.2904052 0.5437 0.5524896 -0.0025943546 -0.03287152 0.33456898 0.26140988 0.31839156
0.25848445 0.448379 0.3308608 -0.13981864 -0.15428609 0.11238582 0.59278595 0.3114675
0.48227945 0.20409518 0.29418033 0.58190376 0.16384104 0.0024137988 0.026143685 -0.10066633
0.23488274 -0.011953064 0.40812543 0.10017634 -0.09179868 0.03864618 0.22939654 0.6691818
0.23720835 0.3556906 0.08419879 -0.07065323 0.27051824 -0.17463337 -0.027130073 -0.046001717
0.68919986 0.58010805 0.55374646 0.033364203 0.07309477 0.45828316 0.05717325 0.34043977
-0.12168323 0.28524452 0.16775896 -0.068374366 0.38422856 0.46975037 0.012811183 0.23151392
0.21913312 0.4326375 -0.06947589 -0.099292986 0.09581054 -0.1933971 -0.20040223 0.16067679
0.10564623 0.1846141 0.486785 -0.061161045 -0.072538264 0.34957772 0.10545523 0.56356657
0.44492683 0.09786422 0.055038728 0.0026824968 0.023157593 0.4790711 0.6967131 0.39764574
0.6535194 -0.19981524 0.4862478 0.074249364 -0.00986368 0.5491868 0.5001648 -0.3631198
0.2775526 0.08329346 0.729292 0.25241295 0.13941203 0.4131294 0.5988006 -0.10333355
-0.06579902 0.1532456 0.57626104 0.16937788 0.18822509 0.36800513 0.17014644 0.24424736
0.55089545 -0.13003042 0.64223784 0.6632171 0.19959785 -0.043023244 -0.08099753 0.21891515
0.2592797 0.28481197 0.46908355 0.10705105 -0.014408048 0.32797384 0.33043995 0.5673637
0.44079325 0.4384142 0.54457545 0.35390258 0.100355744 -0.13379936 0.10567648 0.16409706
-0.040444106 0.6467506 0.09849553 -0.04897278 0.35499197 0.38002574 0.44795 0.4440209
0.05598543 0.26388347 0.50740814 0.42718917 0.16722046 0.30044156 0.5037814 0.22791074
0.19162883 0.5205082 0.5348188 -0.18258709 0.09352861 0.02601294 -0.07657651 0.16496092
0.03972221 0.24519072 0.1831659 0.57563025 0.2572344 0.09081084 0.550526 0.59524834
0.11135742 0.47857344 0.33857262 0.29150662 0.34992424 0.2725052 0.035827395 0.60748523
0.16450101 -0.02738505 0.11251876 0.5836246 0.5065194 0.11791591 0.4459583 0.29753008
0.003443748 -0.09094314 0.5451334 0.17084034 0.59825635 0.3605006 -0.3163416 0.11421762
0.16984652 0.57615864 0.3808272 0.1918571 0.5016914 -0.13297488 -0.17071049 0.025129367
0.5367802 -0.07751868 0.3574841 0.2992785 -0.022575397 0.1884446 -0.06788548 -0.032463934
0.32652143 0.16450053 0.1582432 0.403939 -0.016867321 -0.0006735813 0.19821627 -0.028039066
-0.046650227 0.41910818 0.3441884 0.4442513 0.24184248 0.08245163 0.6905077 0.28189558
0.20304836 0.084131114 0.47065377 0.5385327 0.08784274 0.047006626 0.7507879 -0.078271925
0.37379768 0.15440086 0.41446203 0.52388996 0.17488329 0.14492455 0.2816094 -0.088113785
0.183306 0.121268585 -0.04884898 0.48182338 0.028127383 0.35487816 -0.0931661 0.56690127
0.048060585 0.43058497 0.33478215 0.55004334 0.2997193 0.17267503 0.046147596 0.22530028
00000000: 4fff 6d3d 6389 df3e e796 d33e b64b 403e
00000010: eec4 803e 2649 0e3e 87a0 943e 7ad3 e1bd
00000020: feaf 943e ec2f 0b3f f56f 0d3f 0c06 2abb
00000030: 49a4 06bd a04c ab3e 84d7 853e 3804 a33e
00000040: 1358 843e ef91 e53e 9666 a93e 9e2c 0fbe
00000050: 2cfd 1dbe 892a e63d d2c0 173f ab78 9f3e
00000060: 55ed f63e 54fe 503e ce9e 963e a5f7 143f
00000070: f2c5 273e d330 1e3b 482b d63c 262a cebd
00000080: 1a85 703e c9d6 43bc d1f5 d03e 4129 cd3d
00000090: f200 bcbd 754b 1e3d ede6 6a3e 804f 2b3f
000000a0: bfe6 723e 141d b63e 6a70 ac3d a4b2 90bd
000000b0: 5e81 8a3e 17d3 32be e33f debc 4c6c 3cbd
000000c0: 676f 303f f681 143f 54c2 0d3f e7a8 083d
000000d0: b6b2 953d 17a4 ea3e 7f2e 6a3d 1f4e ae3e
000000e0: 0f35 f9bd 920b 923e 01c9 2b3e dc07 8cbd
000000f0: 9bb9 c43e 1f83 f03e ffe5 513c fc11 6d3e
00000100: 6f64 603e aa82 dd3e 6049 8ebd 1f5a cbbd
00000110: 5138 c43d e409 46be 3e36 4dbe 7588 243e
00000120: 0d5d d83d 7b0b 3d3e e23b f93e 0184 7abd
00000130: f18e 94bd dafb b23e e9f8 d73d e645 103f
00000140: 73cd e33e 096d c83d 4a70 613d d4cc 2f3b
00000150: feb4 bd3c cf48 f53e ca5b 323f 3998 cb3e
00000160: 0c4d 273f 5e9c 4cbe 79f5 f83e 0d10 983d
00000170: 469b 21bc 8297 0c3f cd0a 003f d7ea b9be
00000180: 601b 8e3e c395 aa3d e1b2 3a3f 453c 813e
00000190: 07c2 0e3e b285 d33e ff4a 193f 8aa0 d3bd
000001a0: a3c1 86bd 6aec 1c3e d885 133f 6571 2d3e
000001b0: 14be 403e 2b6b bc3e de3a 2e3e fb1b 7a3e
000001c0: 7c07 0d3f b226 05be b369 243f 99c8 293f
000001d0: 6163 4c3e 2439 30bd 08e2 a5bd 4b2b 603e
000001e0: 4fc0 843e e0d2 913e b82b f03e 953d db3d
000001f0: bc0f 6cbc 30ec a73e 6d2f a93e bf3e 113f
00000200: a7af e13e d377 e03e 4c69 0b3f b832 b53e
00000210: 5087 cd3d b302 09be e96c d83d 0f09 283e
00000220: b8a8 25bd 7391 253f 06b8 c93d af97 48bd
00000230: 82c1 b53e bc92 c23e b459 e53e b556 e33e
00000240: fa50 653d bc1b 873e 80e5 013f 8ab8 da3e
00000250: d73b 2b3e 7ad3 993e d1f7 003f 6f61 693e
00000260: 593a 443e 0740 053f e3e9 083f 1cf8 3abe
00000270: ee8b bf3d 1719 d53c 25d4 9cbd 84eb 283e
00000280: c2b3 223d 4713 7b3e d78f 3b3e 815c 133f
00000290: 3ab4 833e 09fb b93d 46ef 0c3f 3262 183f
000002a0: 5c0f e43d 9407 f53e 6459 ad3e 5b40 953e
000002b0: 4529 b33e cd85 8b3e bfbf 123d 2784 1b3f
000002c0: f472 283e 9d56 e0bc 3c70 e63d 6c68 153f
000002d0: 41ab 013f e67d f13d a554 e43e dd55 983e
000002e0: 81b0 613b 6640 babd dd8d 0b3f c5f0 2e3e
000002f0: 5427 193f 8993 b83e 87f7 a1be edea e93d
00000300: 3fec 2d3e 227f 133f c8fb c23e 3076 443e
00000310: d96e 003f 912a 08be bbce 2ebe 1adc cd3c
00000320: 6d6a 093f 1dc2 9ebd 2808 b73e 083b 993e
00000330: 0af0 b8bc 9ff7 403e 8b07 8bbd e7f8 04bd
00000340: d12d a73e d472 283e 810a 223e 18d1 ce3e
00000350: 562d 8abc 4793 30ba 35f9 4a3e 2fb2 e5bc
00000360: 4f14 3fbd 5995 d63e 7639 b03e e874 e33e
00000370: 8ea5 773e 66dc a83d 1dc5 303f 9e54 903e
00000380: e9eb 4f3e ef4c ac3d 88f9 f03e 47dd 093f
00000390: e5e6 b33d 058a 403d a333 403f 084d a0bd
000003a0: 6962 bf3e 421b 1e3e 5e34 d43e a71d 063f
000003b0: 9b14 333e 1a67 143e 1b2f 903e 0075 b4bd
000003c0: 91b4 3b3e aa5b f83d de15 48bd 8eb1 f63e
000003d0: 666b e63c 97b2 b53e decd bebd 7120 113f
000003e0: 2ddb 443d a275 dc3e 9168 ab3e a4cf 0c3f
000003f0: cf74 993e b9d1 303e 4305 3d3d 1eb5 663e

l2.weight f4 [256, 256]
0.018595934 0.08779168 0.18737675 0.124612935 0.07336039 0.1424332 0.20849274 0.34602645
0.14212628 0.17461498 0.07272699 -0.1430245 0.08997256 0.12159468 0.15816635 0.051390547
0.06843894 0.18403725 0.008986507 0.035522826 -0.05045004 0.14709294 0.108725205 0.103843085
0.17883717 0.11335374 0.13628396 0.13550238 0.07535519 0.16044915 0.12384101 -0.038043298
-0.017470196 0.13954537 0.10510206 0.11164239 0.00058292144 0.03260992 -0.07684042 0.2003999
0.1344923 0.09375935 0.18618809 0.12192174 0.11245753 0.06702192 -0.015207195 0.108290985
0.27844232 0.0704367 0.0771443 0.10391203 -0.073167436 0.051389873 0.07377956 0.058374327
-0.033600815 0.16069087 0.15999581 0.12108576 0.13755266 0.16375451 0.17919916 0.09184836
0.144357 0.113491684 0.16522859 0.008623311 0.018682618 0.006211833 -0.06613397 0.09395519
0.14033082 0.11619047 0.041794505 -0.08736656 0.046853956 0.089878984 0.0792375 0.09574314
0.07953487 -0.07214062 0.15099508 0.12212799 0.08985755 0.048819717 0.21079582 0.117183164
0.12300538 0.040531013 0.13925448 0.021362683 0.1243459 0.18090227 0.15051275 -0.2744926
0.020627646 0.040334415 0.25070244 0.039115474 0.026320929 0.13103268 0.08181874 -0.00801636
0.10007556 -0.03013765 0.12088735 0.011486591 0.065909944 -0.019402843 0.21884805 0.08688906
0.07662716 -0.0824199 0.074355 0.13787884 0.08135274 -0.028303914 -0.12404901 0.08871721
0.052636202 0.10187027 0.06650125 0.08940562 -0.08276462 0.015490076 0.062420595 0.23655993
0.0671881 0.08621115 0.14477792 0.15035842 0.12604086 -0.026021648 0.17642437 0.1897994
-0.017807746 0.18926184 0.16015959 0.08160652 0.083170645 0.118255556 0.19503888 0.12810828
0.09819363 0.16333517 0.09499475 0.22145154 0.12634268 0.05344062 0.23219755 0.17361723
0.1329292 0.08636092 0.107222304 0.12390044 0.10479148 0.092536055 0.11522905 0.08777895
0.08082922 0.07533641 0.077114224 0.14849134 0.06458799 0.121224105 0.18229401 0.12525918
0.09789544 0.09421816 0.18493049 0.15811001 0.050879266 0.077699475 0.10085105 0.23733401
0.07318202 0.058055867 0.09628959 0.26222998 0.060125843 0.25726384 0.09272633 0.10237027
0.14120258 0.038423754 0.18239167 0.04277157 0.04898803 0.2223808 0.16734172 0.10941822
0.050781462 0.07114371 0.052450355 0.110623285 0.12799406 0.14220597 -0.012391508 0.04477759
0.13825306 0.17194197 -0.016619 0.11407711 0.037195925 0.021646831 -0.19439065 0.1189399
0.09295117 0.092304595 0.056958072 0.06658643 0.15991779 0.030389072 0.104114704 -0.14038734
0.055670433 0.16142885 0.12787926 0.031202555 0.19057691 0.039430708 0.21718393 -0.078206524
-0.012869552 0.18027769 0.07536953 0.18749197 0.014931137 0.019187644 0.2593397 0.054397844
0.16514531 0.046384636 0.07468714 0.22768371 0.20230822 0.15300721 0.14226496 0.12957387
0.20900418 0.17695527 0.044112522 0.081119634 0.06357752 0.08249468 0.0029901022 0.19881293
0.18415986 0.14867835 0.15877618 0.222654 0.109559596 0.11489519 0.0054147225 0.05142286
00000000: 8056 983c 20cc b33d b1df 3f3e 1135 ff3d
00000010: f93d 963d 02da 113e 1f7f 553e 612a b13e
00000020: 8d89 113e 45ce 323e e3f1 943d 0475 12be
00000030: 8943 b83d a206 f93d 5cf6 213e e57e 523d
00000040: b729 8c3d 4374 3c3e 243c 133c 6280 113d
00000050: b3a4 4ebd 889f 163e 52ab de3d afab d43d
00000060: 1721 373e 0126 e83d 068e 0b3e 23c1 0a3e
00000070: d253 9a3d c84c 243e 5ba0 fd3d 4ad3 1bbd
00000080: a81d 8fbc fbe4 0e3e c03f d73d c4a4 e43d
00000090: 32cf 183a fb91 053d 835e 9dbd a235 4d3e
000000a0: 59b8 093e e704 c03d 17a8 3e3e 1bb2 f93d
000000b0: 2250 e63d ca42 893d 9927 79bc aac7 dd3d
000000c0: fe8f 8e3e 1e41 903d d5fd 9d3d d5cf d43d
000000d0: cfd8 95bd 307e 523d bd19 973d eb19 6f3d
000000e0: 02a1 09bd 268c 243e f1d5 233e d0fb f73d
000000f0: 9bda 0c3e 43af 273e fc7f 373e fe1a bc3d
00000100: 52d2 133e 546e e83d af31 293e ca48 0d3c
00000110: 4a0c 993c a28c cb3b 3f71 87bd 946b c03d
00000120: e2b2 0f3e 45f5 ed3d b730 2b3d 3ded b2bd
00000130: efe9 3f3d 7912 b83d 4547 a23d fb14 c43d
00000140: 2ee3 a23d 76be 93bd 749e 1a3e 3d1e fa3d
00000150: 3c07 b83d 2ff7 473d dcda 573e bafd ef3d
00000160: 3fea fb3d d903 263d ba98 0e3e cb00 af3c
00000170: 10a9 fe3d 723e 393e 0420 1a3e 4b8a 8cbe
00000180: 4ffb a83c b335 253d 125c 803e 8c37 203d
00000190: fd9e d73c 6e2d 063e 9590 a73d 0d57 03bc
000001a0: 6af4 cc3d 3ce3 f6bc c993 f73d 4132 3c3c
000001b0: cbfb 863d b6f2 9ebc b419 603e e4f2 b13d
000001c0: b3ee 9c3d c4cb a8bd 6f47 983d 1c30 0d3e
000001d0: 449c a63d 9cdd e7bc 680d febd 5eb1 b53d
000001e0: 0f99 573d 5ca1 d03d cf31 883d 4b1a b73d
000001f0: 7f80 a9bd 16ca 7d3c bdac 7f3d c43c 723e
00000200: ea99 893d 798f b03d aa40 143e 8ff7 193e
00000210: db10 013e 5a2b d5bc 97a8 343e c65a 423e
00000220: 8de1 91bc dbcd 413e e000 243e 5221 a73d
00000230: 5f55 aa3d f82f f23d 46b8 473e d12e 033e
00000240: be19 c93d 5641 273e 9c8c c23d 31c4 623e
00000250: fa5f 013e 8de4 5a3d 32c5 6d3e b7c8 313e
00000260: 981e 083e fedd b03d 5e97 db3d 84bf fd3d
00000270: ea9c d63d 8b83 bd3d 35fd eb3d 73c5 b33d
00000280: ca89 a53d fa49 9a3d 10ee 9d3d 1d0e 183e
00000290: b546 843d 5844 f83d 48ab 3a3e f143 003e
000002a0: 687d c83d 73f5 c03d 6b5e 3d3e 97e7 213e
000002b0: c766 503d e720 9f3d ff8a ce3d b007 733e
000002c0: 74e0 953d fdcb 6d3d 7a33 c53d 0243 863e
000002d0: 8446 763d 16b8 833e 4de7 bd3d 81a7 d13d
000002e0: 6997 103e 3a62 1d3d e2c4 3a3e 3e31 2f3d
000002f0: aca7 483d cbb7 633e a15b 2b3e a916 e03d
00000300: 3900 503d cbb3 913d 2fd6 563d 768e e23d
00000310: e010 033e 719e 113e c005 4bbc b568 373d
00000320: 3692 0d3e 8e11 303e 9224 88bc 43a1 e93d
00000330: c15a 183d b254 b13c 580e 47be c396 f33d
00000340: 2f5d be3d 310a bd3d de4c 693d 775e 883d
00000350: 7dc1 233e 81f2 f83c 173a d53d b3c1 0fbe
00000360: ae06 643d 9b4d 253e c8f2 023e 809c ff3c
00000370: 9826 433e 1882 213d 7765 5e3e be2a a0bd
00000380: d0da 52bc b79a 383e 575b 9a3d e5fd 3f3e
00000390: baa1 743c 682f 9d3c 2cc8 843e 46d0 5e3d
000003a0: da1b 293e d1fd 3d3d 92f5 983d eb25 693e
000003b0: e329 4f3e ecad 1c3e e8ad 113e 03af 043e
000003c0: 3105 563e c333 353e 55af 343d 0d22 a63d
000003d0: ee34 823d f9f2 a83d 97f5 433b 9e95 4b3e
000003e0: 6794 3c3e 233f 183e 3996 223e 69ff 633e
000003f0: c860 e03d 2b4e eb3d fc6d b13b c7a0 523d

l2.bias f4 [256]
0.20532298 0.01614646 0.2086498 -0.010386016 0.27345246 0.24146217 0.2438016 -0.03264311
0.17938188 0.22736886 0.17056842 0.24485877 0.27307233 0.24940076 -0.19411941 0.18498553
-0.123535834 0.038693354 0.18520314 0.20876738 -0.18903258 0.16747704 0.2078321 -0.08456949
0.19802189 0.20854539 0.15833321 0.03195294 0.038244355 0.004516605 0.17770152 0.23518805
0.1445499 0.23708247 0.25614834 0.2508013 0.23713517 0.2182476 0.23359285 0.18570112
0.20233347 0.25234094 -0.15938905 0.29295 -0.06294485 -0.18737207 0.24362269 -0.012331912
0.022648612 0.028596219 0.26017064 0.24834661 0.28925905 0.24517177 0.0021435583 -0.017916767
0.0055145896 0.27285975 0.13878757 -0.05825495 0.23588715 -0.06569185 0.2388604 0.20158084
0.2515246 0.20394726 0.26127037 0.22684789 0.27681282 0.014051288 0.24266075 0.22416134
0.14334877 0.23573913 0.20698121 -0.30000618 0.29830796 -0.011298757 0.21001552 0.25606492
-0.034513995 0.022172738 0.0066951467 -0.07462818 0.048796695 0.047381982 -0.10557433 0.2775239
0.14454389 -0.016286377 0.15935728 -0.044046864 0.026709678 0.264574 -0.2235974 0.20207223
0.23251647 0.15814696 0.2546132 -0.15219505 0.2669954 0.24697869 0.24675685 -0.040206723
0.035274096 0.049204394 0.028324421 0.25173566 0.24031745 0.18530878 0.15040766 -0.13115242
0.23143706 0.18024679 0.2522947 -0.023693774 0.20126185 -0.050820906 0.19907239 0.27633628
-0.19308414 0.21163179 0.2302881 0.19755273 0.08090073 0.24528661 0.20035343 0.019938294
0.21015587 0.2840405 0.17626126 0.23509769 0.23139203 0.27609736 0.17535116 -0.037959963
0.23134546 -0.09798455 0.15762492 0.16921932 -0.04114849 -0.010290131 0.23759212 -0.046082977
0.20935324 0.17323793 0.20008387 0.2592425 0.17458743 -0.16005202 -0.0027095878 0.26631853
-0.11745544 -0.11607819 0.22143072 -0.16201939 0.032895546 0.16405937 0.005854225 0.25247145
-0.10364769 0.17107473 -0.23985146 0.2231779 0.20757003 0.18355094 0.46113518 -0.08838922
0.239631 0.2789079 0.1562331 0.2531556 -0.06605721 0.24378403 0.20032535 0.1732559
-0.02597638 0.3645238 0.21223502 -0.24449533 0.21498409 -0.13989997 0.2352817 0.0023905977
0.25857866 0.008669373 -0.12912475 0.179253 -0.054613546 0.0167809 0.18794474 0.16777806
0.27880263 -0.3169058 -0.107950345 0.16605353 -0.05844914 0.24182405 -0.07284804 -0.12332873
0.2813594 -0.19517213 -0.18791492 -0.16773379 0.17079534 -0.19039431 0.2598011 0.23034468
0.17675073 0.1749846 0.17743474 0.15670498 0.24748197 -0.45959237 0.22628592 0.24120004
-0.07737658 -0.2335893 0.28315553 0.16717102 0.15170287 0.1513508 0.222534 0.24315283
-0.03707982 0.056130014 -0.07615034 -0.12273745 -0.041679576 0.18246473 -0.10536689 -0.16717601
-0.073629886 0.21833879 0.057578515 0.22901101 0.17966957 0.20574103 0.030325895 0.2105976
0.2468103 0.15492873 0.27397418 -0.20334667 -0.013471427 0.1667759 0.18324047 -0.02737707
-0.22120741 -0.22714159 -0.14851111 -0.33021125 0.016174603 0.16800432 0.269258 -0.03651833
00000000: 3040 523e 9545 843c 4ba8 553e 1c2a 2abc
00000010: f601 8c3e dc41 773e 20a7 793e c8b4 05bd
00000020: e2af 373e 62d3 683e 7da9 2e3e 42bc 7a3e
00000030: 23d0 8b3e ea62 7f3e 3dc7 46be d96c 3d3e
00000040: 5b00 fdbd ec7c 1e3d e4a5 3d3e 1ec7 553e
00000050: c291 41be 1a7f 2b3e f0d1 543e c532 adbd
00000060: 40c6 4a3e ec8c 553e 1a22 223e 16e1 023d
00000070: 1da6 1c3d 0700 943b 63f7 353e 23d5 703e
00000080: e404 143e bfc5 723e e025 833e 0769 803e
00000090: 90d3 723e 4d7c 5f3e f732 6f3e 6f28 3e3e
000000a0: 8130 4f3e d532 813e e236 23be 8bfd 953e
000000b0: 3be9 80bd 77de 3fbe 3a78 793e ca0b 4abc
000000c0: 9589 b93c 9e42 ea3c 1635 853e 934e 7e3e
000000d0: c319 943e 4f0e 7b3e f17a 0c3b 2fc6 92bc
000000e0: bbb3 b43b 46b4 8b3e 541e 0e3e be9c 6ebd
000000f0: 678c 713e 7389 86bd d297 743e 356b 4e3e
00000100: d5c7 803e 8dd7 503e 3bc5 853e d04a 683e
00000110: 69ba 8d3e 6037 663c 0f7c 783e 8d8a 653e
00000120: 05ca 123e 9965 713e e2f2 533e 699a 99be
00000130: d2bb 983e 6c1e 39bc 4f0e 573e f11a 833e
00000140: 8c5e 0dbd 9aa3 b53c f662 db3b a9d6 98bd
00000150: 0bdf 473d 9c13 423d 5b37 d8bd 9d17 8e3e
00000160: 5003 143e 026b 85bc 8e2e 233e 7c6a 34bd
00000170: 41ce da3c 3e76 873e b8f6 64be 06ec 4e3e
00000180: cc18 6e3e 47f1 213e a95c 823e 05d9 1bbe
00000190: 9fb3 883e fbe7 7c3e d4ad 7c3e ceaf 24bd
000001a0: 927b 103d 8c8a 493d 9e08 e83c 7fe3 803e
000001b0: c715 763e 96c1 3d3e 7704 1a3e d24c 06be
000001c0: d6fd 6c3e 9d92 383e c52c 813e 7219 c2bc
000001d0: 9617 4e3e 9529 50bd a2d9 4b3e f37b 8d3e
000001e0: d9b7 45be 01b6 583e a5d0 6b3e 434b 4a3e
000001f0: 48af a53d 6a2c 7b3e 7329 4d3e a255 a33c
00000200: 1a33 573e c26d 913e d57d 343e 73bd 703e
00000210: 08f2 6c3e a25c 8d3e 418f 333e e87b 1bbd
00000220: d3e5 6c3e 20ac c8bd 6d68 213e d447 2d3e
00000230: 528b 28bd f097 28bc 594b 733e 81c1 3cbd
00000240: b260 563e 4965 313e c9e2 4c3e 6fbb 843e
00000250: 0cc7 323e ade4 23be 5793 31bb e75a 883e
00000260: 7a8c f0bd 67ba edbd bcbe 623e 69e8 25be
00000270: 7bbd 063d 2eff 273e ccd4 bf3b f043 813e
00000280: 3d45 d4bd 372e 2f3e 9f9b 75be bf88 643e
00000290: 3d8d 543e c7f4 3b3e e919 ec3e 6805 b5bd
000002a0: d461 753e 04cd 8e3e 92fb 1f3e 9c9d 813e
000002b0: 0149 87bd 85a2 793e 1722 4d3e ff69 313e
000002c0: 6bcc d4bc dda2 ba3e 2354 593e fc5c 7abe
000002d0: ca24 5c3e f041 0fbe b0ed 703e 93ab 1c3b
000002e0: 6c64 843e fc09 0e3c 4739 04be 198e 373e
000002f0: 74b2 5fbd 1978 893c 9674 403e 03ce 2b3e
00000300: 38bf 8e3e 7a41 a2be 1215 ddbd f009 2a3e
00000310: 5e68 6fbd b9a0 773e 5a31 95bd c693 fcbd
00000320: 570e 903e 34db 47be c56c 40be 68c2 2bbe
00000330: f9e4 2e3e baf6 42be a604 853e 7adf 6b3e
00000340: 25fe 343e 2a2f 333e 74b1 353e 4577 203e
00000350: ea6b 7d3e b14f ebbe 7fb7 673e 25fd 763e
00000360: 9d77 9ebd 0932 6fbe c3f9 903e e12e 2b3e
00000370: ff57 1b3e b4fb 1a3e f4df 633e 0efd 783e
00000380: 02e1 17bd 96e8 653d b6f4 9bbd c65d fbbd
00000390: 34b8 2abd 09d8 3a3e 99ca d7bd 3030 2bbe
000003a0: 44cb 96bd 3494 5f3e 73d7 6b3d dd81 6a3e
000003b0: 4dfb 373e c7ad 523e 036e f83c e6a6 573e
000003c0: d7bb 7c3e a3a5 1e3e 5846 8c3e 1c3a 50be
000003d0: 43b7 5cbc 4dc7 2a3e 64a3 3b3e e145 e0bc
000003e0: 3284 62be ce97 68be 4c13 18be 7311 a9be
000003f0: 9a80 843c 5309 2c3e 2fdc 893e 3f94 15bd

l3.weight f4 [1, 256]
0.20516011 -1.2722443 0.1740745 -0.045251112 0.15166657 0.19733381 0.1625759 -0.8301514
0.18136156 0.1564334 0.16953325 0.20275949 0.16964716 0.1877147 -1.519111 0.20265976
-0.8833088 -0.01056513 0.19882192 0.196995 -1.0951289 0.17022015 0.16050106 -0.839739
0.19355527 0.19310647 0.16297135 -0.03104313 -0.050812613 -0.051116433 0.17236276 0.15014161
0.20400839 0.19718249 0.17615701 0.19206606 0.17325492 0.19782904 0.18209434 0.1686459
0.15603606 0.14811704 -0.6805983 0.15003596 -0.6942816 -0.741551 0.16273412 -1.1224695
-0.04929506 -0.00089319673 0.19010077 0.19565888 0.15092643 0.14889036 -0.04956302 -0.003078698
-0.051318195 0.6863666 0.19757323 -1.1378889 0.1997041 -0.8226571 0.18270814 0.19896626
0.17514609 0.19414333 0.18692328 0.19198897 0.1483449 -0.042573556 0.15839222 0.19789833
0.18652464 0.20690362 0.16438037 -0.76733434 0.15152131 -0.03829246 0.20636763 0.18225433
-0.7273026 -0.03044548 -0.041656293 -0.7920959 -0.018946541 -0.02315915 -0.6844351 0.1598051
0.18741098 -0.042405482 0.18904515 -0.7971972 -0.014730761 0.1538794 -0.8828866 0.20290188
0.1785812 0.17813194 0.16969249 -0.8480572 0.16455825 0.1516532 0.16149303 -1.1976817
-0.02286179 -0.035404503 -0.04889246 0.19628476 0.185759 0.17825499 0.17107572 -0.657191
0.19015244 0.17204279 0.1440115 -0.041881416 0.1808995 -0.05555559 0.15595366 0.15702394
-0.66319644 0.17226233 0.16988692 0.20305967 -0.72331285 0.18009803 0.15396826 -1.167627
0.15463342 0.1493341 0.2062624 0.1831667 0.17055474 0.16140366 0.18341127 -0.02592248
0.20457642 -1.6842245 0.18165693 0.17687833 -1.0040555 -0.96131855 0.15173388 -0.043352168
0.16017334 0.1972456 0.20856631 0.1556732 0.17633888 -0.8838279 -0.49810493 0.15796407
-1.5392835 -0.7319524 0.17166786 -0.625566 -1.0685235 0.17912391 -0.0374249 0.15303248
-0.7712443 0.19595337 -1.630484 0.15912259 0.18525015 0.14604534 0.59893495 -0.70646906
0.16746199 0.15754871 0.16319127 0.15161292 -0.039411623 0.20234244 0.19514419 0.1477022
-0.024985157 0.1673079 0.19825621 -0.6310719 0.20113415 -0.6963477 0.14912286 -0.051036924
0.15356548 -0.020268738 -0.58513886 0.1512637 -0.7286151 -0.024625748 0.17248239 0.15973322
0.15044081 -0.91916853 -0.68326074 0.17921738 -0.6341467 0.19819218 -0.004596776 -0.80000365
0.15298785 -0.6593028 -0.8061878 -1.8032084 0.15357263 -1.7554038 0.15572108 0.16195336
0.18677591 0.20578891 0.16600496 0.17832392 0.15560083 -0.79209876 0.16032541 0.17281727
-0.7181394 -0.657533 0.15516351 0.18243559 0.18269396 0.17887501 0.18615635 0.20418179
-0.710339 -0.039690666 -0.8074645 -1.8895562 -0.9460509 0.19837293 -1.0723834 -1.0267828
-0.008548158 0.20224479 -1.1661757 0.1755144 0.18232296 0.17759818 -0.04285709 0.18652408
0.20053224 0.18434373 0.14515576 -0.7080466 -0.012142249 0.1776465 0.18312728 -0.03710513
-0.98013335 -0.9189691 -0.61532617 -1.0010129 -0.856177 0.19156481 0.15966003 -0.037387274
00000000: 7e15 523e e7d8 a2bf 9640 323e 3b59 39bd
00000010: 7b4e 1b3e e011 4a3e 4c7a 263e cd84 54bf
00000020: d8b6 393e 1430 203e 209a 2d3e 2fa0 4f3e
00000030: fcb7 2d3e 4838 403e 3b72 c2bf 0a86 4f3e
00000040: 8720 62bf 5e19 2dbc f997 4b3e 0fb9 493e
00000050: 2f2d 8cbf 314e 2e3e 645a 243e 23f9 56bf
00000060: 5a33 463e b4bd 453e f6e1 263e 2a4e febc
00000070: e320 50bd 775f 51bd dd7f 303e b9be 193e
00000080: 93e7 503e 35ea 493e 8162 343e f7ac 443e
00000090: bd69 313e b293 4a3e f076 3a3e 83b1 2c3e
000000a0: ebc7 1f3e feab 173e b13b 2ebf 07a3 193e
000000b0: 70bc 31bf 49d6 3dbf c6a3 263e 15ad 8fbf
000000c0: 9ee9 49bd 6b25 6aba c7a9 423e cd5a 483e
000000d0: 758c 1a3e b776 183e 9802 4bbd fbc3 49bb
000000e0: 0733 52bd b9b5 2f3f a350 4a3e 58a6 91bf
000000f0: 3b7f 4c3e a899 52bf d817 3b3e d0bd 4b3e
00000100: 7f59 333e 82cd 463e d168 3f3e c298 443e
00000110: bae7 173e 9c61 2ebd 9231 223e dca5 4a3e
00000120: 5100 3f3e 8bde 533e 5453 283e 0670 44bf
00000130: 6728 1b3e 8ed8 1cbd 0952 533e e1a0 3a3e
00000140: 8130 3abf cd68 f9bc ca9f 2abd ccc6 4abf
00000150: c735 9bbc 42b8 bdbc 2437 2fbf f3a3 233e
00000160: aae8 3f3e 5fb1 2dbd 0d95 413e 1e15 4cbf
00000170: 4a59 71bc 9092 1d3e db04 62bf 83c5 4f3e
00000180: fddd 363e 3868 363e dec3 2d3e 471a 59bf
00000190: f581 283e fa4a 1b3e 6e5e 253e a24d 99bf
000001a0: a648 bbbc 5004 11bd 7643 48bd dffe 483e
000001b0: 9b37 3e3e 7a88 363e 792e 2f3e ab3d 28bf
000001c0: 52b7 423e fc2b 303e c077 133e d98b 2bbd
000001d0: b83d 393e 428e 63bd 51b2 1f3e e2ca 203e
000001e0: 3ec7 29bf 8965 303e d6f6 2d3e e0ee 4f3e
000001f0: 082b 39bf 9e6b 383e dba9 1d3e cd74 95bf
00000200: 3958 1e3e 0aeb 183e 7336 533e 0d90 3b3e
00000210: e7a5 2e3e 0047 253e 2ad0 3b3e 615b d4bc
00000220: 7b7c 513e ab94 d7bf 4604 3a3e 981f 353e
00000230: e484 80bf f918 76bf 2060 1b3e 0b92 31bd
00000240: 7b04 243e c0fa 493e 6892 553e cc68 1f3e
00000250: 2e92 343e 8c42 62bf 9c07 ffbe 55c1 213e
00000260: 3e07 c5bf 3c61 3bbf b3c9 2f3e 1825 20bf
00000270: 61c5 88bf 426c 373e da4a 19bd 8cb4 1c3e
00000280: 4470 45bf 00a8 483e b3b3 d0bf 08f1 223e
00000290: 37b2 3d3e e98c 153e cd53 193f 28db 34bf
000002a0: 287b 2b3e 7354 213e 9d1b 273e 6b40 1b3e
000002b0: 156e 21bd db32 4f3e e1d3 473e 3f3f 173e
000002c0: acad ccbc c352 2b3e ad03 4b3e ee8d 21bf
000002d0: 1cf6 4d3e d843 32bf aab3 183e 180c 51bd
000002e0: 4540 1d3e a00a a6bc a9cb 15bf dfe4 1a3e
000002f0: 8586 3abf f0bb c9bc 399f 303e 1b91 233e
00000300: 280d 1a3e a14e 6bbf 2dea 2ebf c384 373e
00000310: 7057 22bf e4f2 4a3e 8da0 96bb 0acd 4cbf
00000320: d9a8 1c3e 11c8 28bf 5362 4ebf 88cf e6bf
00000330: 2542 1d3e 12b1 e0bf 5975 1f3e 1ad7 253e
00000340: 2f42 3f3e 54ba 523e 34fd 293e 8c9a 363e
00000350: d355 1f3e fcc6 4abf 582c 243e 03f7 303e
00000360: fcd7 37bf 1554 28bf 2fe3 1e3e 65d0 3a3e
00000370: 2014 3b3e 032b 373e c59f 3e3e 0815 513e
00000380: c7d8 35bf ae92 22bd feb5 4ebf fadc f1bf
00000390: 6430 72bf 4622 4b3e dc43 89bf 9e6d 83bf
000003a0: 930d 0cbc 4219 4f3e 3f45 95bf 0cba 333e
000003b0: dfb2 3a3e 4cdc 353e ea8a 2fbd 2b00 3f3e
000003c0: 5358 4d3e 9ac4 3c3e b6a3 143e 8b42 35bf
000003d0: 49f0 46bc f7e8 353e b885 3b3e 8cfb 17bd
000003e0: 05ea 7abf 8f41 6bbf 0486 1dbf 3121 80bf
000003f0: 6a2e 5bbf 9129 443e eb7d 233e 6623 19bd
