model/hopper-medium-expert-append-v2.pt (torch, 278359 bytes, 5 tensors)

l1.weight f4 [256, 11]
00000000: e6fd 803e 3cfd d2bd 4e46 833e 6aa0 27be
00000010: dd3e ebbe 52bb 6b3e 796b 823d e514 de3d
00000020: c3c8 d7bd fd29 9b3e c932 853e af09 a5bd
00000030: 80f8 a2be c24c 983e 9be7 2dbe bf88 af3e
00000040: 942f 173e c07d 893e c37b d6bd d91d d03e
00000050: 6efc 623e 6a79 853d 5bd7 7ebe cf41 a63e
00000060: 7362 0dbf b07b 02bd 46c1 b3be e315 d83e
00000070: 7999 0dbe 2d24 ad3e aee5 47be bb63 7abd
00000080: 19dc d7be 918e bb3e 7373 7dbe 1123 683e
00000090: 0d59 38be a458 6d3e 542e 70be 0fc2 72bd
000000a0: 348f 8abe 42e7 123f 3128 c63e 9d2c 233e
000000b0: 118a 49be 7fdc 833e d0e3 d4be 3424 9c3e
000000c0: 0111 fc3e 5ee2 c3be 9e3b 60be 2deb 7ebe
000000d0: f4a0 483d 9864 703e 5252 e03b bad7 123e
000000e0: 49b0 3c3c c8e3 c5be 2436 81be 7b1e 0abf
000000f0: 675b 9d3d 0553 cbbe 27b9 88be 6d6a 443e
00000100: f9b1 37be 3d5b 6f3e 21af d3be 03e1 d9be
00000110: 3dcb a83d d8e5 37bd a5af a03e 4f9a e5bd
00000120: fc60 c93e 1b73 853d db4e 5abe 43a8 043e
00000130: c476 73be e3dd 9dbe 62a8 d3be 11b6 4d3d
00000140: 9dfb 7f3e d9c5 f63e 68b5 3abf 7636 9d3e
00000150: 12e0 d93e fbb7 0cbf f592 4dbe 8c86 3ebe
00000160: c21b 6f3e 2725 1dbe f2dc 8fbe 436f ae3c
00000170: 11d6 26be c0cd 9fbe c48c 803e 019f b93d
00000180: 01b6 d03e a8fa 40be ab0b 2d3f 4fe7 3bbe
00000190: 47b1 7f3d f43d 173d 8cd1 79be b7df 2d3e
000001a0: fa40 913e 5095 03bf 3749 91be a90d 503d
000001b0: 4add 423e f2ce 5f3c 3fa8 323e 3ae2 f13e
000001c0: 797f dabe 96df 9dbe ee91 133f 484c 2e3e
000001d0: 99e4 34be ee9a f93c d320 0fbd c459 49be
000001e0: fbc0 dd3e 8f42 8bbe 4610 debc f2d3 0e3e
000001f0: b5f9 d0be fc22 03be 278a 43be 0d59 87be
00000200: cebd 653a efd2 4a3e bc2f 81be bd59 f8bd
00000210: 5ead c3bc 9680 b13e 6477 16be 0d92 a8be
00000220: 09e5 a3bd 1049 82bd cfa9 0abe d47d 3abe
00000230: c53e 483f 753b a63e 6901 2e3e c937 733d
00000240: 5083 2e3e e2b3 6ebd 0bcc 7bbe c79e dbbe
00000250: 956b 30bc a334 883e dc0b 6dbe 1f28 80bd
00000260: a089 c23d 9255 b53e e514 6a3e bcf4 613e
00000270: 02a7 7fbe 53ab 9fbd aa62 16bf 233d 8739
00000280: 5d24 cbbe e113 613d 6371 ef3b c5a2 cbbd
00000290: 99bc 8d3e bd23 883e 56be 883e ac46 3abe
000002a0: d8be 33be 5ee1 d2be 0633 b2be 2df1 af3e
000002b0: f246 153c b934 5dbd 5850 833e 062b 3f3e
000002c0: 06ae c73a 45bd b13e 58ef b43e dff4 6e3e
000002d0: 8792 9f3d 7c3f 97be a0f7 8fbe 5052 30be
000002e0: 4856 2f3f fa26 363e 5b28 c33e 07a7 273d
000002f0: 98a6 543d 334f 013f a904 aabd 76ed d53d
00000300: b502 e2be 1f25 d43e 2429 a8be 0b0b 813d
00000310: 5f30 5dbd 3469 023e 19e1 afbe c7f8 453e
00000320: 4a80 65be 26e1 e63e 4145 c93d 0373 9dbe
00000330: c87d a13e 633f b0bd 59ab ff3c 82e9 6a3e
00000340: ae50 b1bd 2f78 bfbe 8548 d73d 25ed c6bb
00000350: c624 4f3f 6cec e53d 5b1a 53be 45bb af3e
00000360: d85a be3b ed98 8a3d 67ce adbe f0d0 60be
00000370: d133 5c3d 9ca3 a33e 3ee2 5b3e 852c 2fbe
00000380: 6ded 38be ca10 8bbe f7d6 e43e 65e7 853e
00000390: dd30 ab3e 5c83 303e f8d5 06bd 36ed 133e
000003a0: d272 0bbf 4ac3 7d3c 2b4f a13e 5c1f 4c3e
000003b0: 81f1 673d 5ad2 a6be d695 3fbe 3a20 263f
000003c0: 56a2 833e bf16 7c3e 9f73 5abe fb1f 9dbd
000003d0: b621 8d3e 8d7b 8a3e 2a52 553e 5aa5 55be
000003e0: a3ee 97be 6782 e5bd dbc6 1cbe 0e08 f2bd
000003f0: 9290 ae3d 6d71 36be 7d88 733e 7a16 e6be
0.2519371 -0.10302207 0.25639576 -0.16369787 -0.45946398 0.23020676 0.06368155 0.10843829
-0.10536339 0.30305472 0.26015308 -0.080584876 -0.31830215 0.29746062 -0.16982882 0.34284016
0.14764243 0.26853752 -0.104728244 0.40647772 0.22166607 0.065172985 -0.24886839 0.32472083
-0.55228347 -0.03185624 -0.35108393 0.42204198 -0.13828076 0.33816662 -0.1952121 -0.061130267
-0.4216011 0.36632207 -0.24751072 0.22669627 -0.1800272 0.23178345 -0.23455173 -0.0592671
-0.2706238 0.5738412 0.3870254 0.15934987 -0.19681574 0.25754163 -0.41580057 0.3049637
0.49231723 -0.38258642 -0.21897742 -0.248944 0.04898162 0.23475873 0.006845751 0.14340106
0.011516639 -0.38650346 -0.2523662 -0.5395276 0.07683449 -0.39711776 -0.2670376 0.19181223
-0.17938985 0.23374648 -0.4134455 -0.42554483 0.082418896 -0.04489693 0.31384006 -0.11211073
0.39331806 0.06516095 -0.21319143 0.12954812 -0.23775774 -0.3083335 -0.41339403 0.05022246
0.24998327 0.4819782 -0.72933054 0.30705613 0.42553765 -0.5496823 -0.20075591 -0.18606013
0.23350433 -0.15346204 -0.28098255 0.021293288 -0.16292597 -0.31211662 0.25107396 0.09063531
0.40763858 -0.18845618 0.6759593 -0.18349956 0.062424924 0.036924317 -0.24396342 0.16979872
0.28369886 -0.5139971 -0.2837617 0.050794277 0.19029728 0.013660179 0.17446993 0.4724291
-0.4267538 -0.30834645 0.57644546 0.17021286 -0.17665328 0.030469384 -0.034943413 -0.19663149
0.43311295 -0.27199218 -0.02710737 0.13948038 -0.4081551 -0.12806314 -0.1909567 -0.26435128
0.000876394 0.19807027 -0.2523173 -0.12126491 -0.023886379 0.34668416 -0.14693981 -0.32923928
-0.08002669 -0.06361592 -0.1354134 -0.18212062 0.7822078 0.32467237 0.16992725 0.059379373
0.17042279 -0.05827702 -0.24589555 -0.42894575 -0.010767837 0.2660266 -0.23149055 -0.062576525
0.09498906 0.35416847 0.22859533 0.22066015 -0.24966052 -0.077963494 -0.587443 0.00025794757
-0.3967618 0.0549506 0.007307218 -0.09943155 0.2768295 0.26589766 0.26707715 -0.18191022
-0.1755327 -0.41187567 -0.34804553 0.3436369 0.009111153 -0.05400536 0.25647235 0.18668756
0.0015234358 0.34714714 0.35338855 0.23335598 0.0779162 -0.29540622 -0.2811861 -0.172189
0.6849103 0.17788306 0.38116726 0.040930774 0.05191669 0.50511473 -0.0830167 0.10445683
-0.4414269 0.4143457 -0.32843888 0.063009344 -0.05400121 0.12735444 -0.34351423 0.19333182
-0.2241222 0.4509365 0.09827662 -0.3075181 0.31541276 -0.0860584 0.031209635 0.22940639
-0.086579666 -0.3739638 0.10511879 -0.0060707503 0.80915487 0.112267345 -0.20615523 0.34322563
0.0058091693 0.067674495 -0.33946535 -0.21954703 0.053760353 0.31960762 0.21473023 -0.17106827
-0.18059321 -0.27161247 0.44695255 0.26153103 0.33435717 0.1723761 -0.0329189 0.14445958
-0.54472077 0.015488455 0.31505713 0.19933838 0.0566268 -0.3258236 -0.18709502 0.64892924
0.2570979 0.24618052 -0.21333168 -0.076721154 0.27564782 0.27047387 0.20832124 -0.20863858
-0.29674253 -0.11206513 -0.15310232 -0.118179426 0.08523668 -0.17816706 0.23782535 -0.44939023

l1.bias f4 [256]
00000000: 2cad 423d d7ee dd3e 4874 d53e c8e6 423e
00000010: 1b9a 863e 22bb 213e 1494 903e dead e1bd
00000020: dfa0 b33e 10e0 113f cf5f f73e a35f 083d
00000030: 1e0e c3bd e4a8 af3e 16d2 a03e 87ff b23e
00000040: c601 623e 5fbf e73e a5fd f33e 258d 12be
00000050: 78b5 03be a222 ec3d 43c2 193f 129f a63e
00000060: a0e3 fd3e 6f33 083e 7219 953e 4849 0f3f
00000070: a4df 263e d8e6 11bc 7d59 983c 9c88 b4bd
00000080: aff3 583e 526c 6fbc 9f1a d93e 6a1f 4f3e
00000090: c194 a33d 6e14 543d f76e 853e 35c2 293f
000000a0: ce80 713e 7fdd bf3e 28b4 953d 4f6d 87bd
000000b0: 40d6 8b3e 8374 6dbe 82ec bdbc a27a 9bbd
000000c0: 2c17 2b3f 93a0 193f 9f18 143f 9133 cc3c
000000d0: 6935 043e 4eb6 f43e 6d40 b63d 1663 a83e
000000e0: 9403 10be 9c41 843e 8f70 263e 8a0c d53a
000000f0: be8e cb3e 38b1 e93e 8dfd 453d 30c9 4e3e
00000100: 6f87 733e 3780 dd3e 8630 32bd 1af7 ffbd
00000110: d54f f73d ea9e 07be bb04 1dbe ba8e 063e
00000120: 1c38 f13d 564a 1c3e 02b1 033f ee56 b3bd
00000130: 902a 00be fb76 af3e 4107 2c3e cae8 0d3f
00000140: 4f8d eb3e f5f1 b33d 5e32 993e b6c8 c43d
00000150: 60d6 ea3d 0d6d 023f 5529 353f 2d33 bd3e
00000160: 4d6d 2f3f f683 4cbe b6df f93e 91fb 623d
00000170: 4b7a 3cbd 7d82 0e3f 9844 043f c113 99be
00000180: 8e5f 7a3e 2020 d23d 29d7 383f 8aaf 163e
00000190: 24bd 053e 50ef c93e 1dfc 213f d8d6 abbd
000001a0: 210a 69bd a4e4 593c 4477 1d3f 642e 1c3e
000001b0: c5b6 6e3e 43b2 d63e 3b82 363e dcc6 8d3e
000001c0: 16d9 103f 9ee2 bfbd 2c1d 263f 9518 273f
000001d0: b9e2 213e a967 66bd 4e73 21be 458f 523e
000001e0: 4aef 873e 0a09 8a3e 5be7 e73e f86d d63d
000001f0: 2a0c ed3b 72ec be3e 92e6 9a3e f61e 153f
00000200: 3370 e33e 3b84 db3e a3c2 0c3f 609a c63e
00000210: 234b f33d cc9c 19be acf4 b03d e66e 173e
00000220: c983 a33a be8b 293f c25f 963d a474 8b3b
00000230: 019c ae3e dd9b a83e 1bb1 e63e f15f f73e
00000240: f8b2 733d 6b82 8e3e e306 083f 5bb1 df3e
00000250: 9412 373e f727 983e 5a3a f33e f3f3 863e
00000260: 0aad 373e d8e4 073f e34e 083f 5bb9 22be
00000270: 7192 dc3d c0ba e73b da8e 66bd da73 1b3e
00000280: b99a 863d 36c7 793e a7fa 023e a527 173f
00000290: 8786 763e 3d36 823d c98d 0d3f 2a1d 1d3f
000002a0: 2c0d 583d a09e ec3e 796b a93e 14a1 843e
000002b0: d5fd c13e 2b31 853e 78b0 22bb a34b 1d3f
000002c0: 398f 4e3e 6684 42bd 860d f23d 85b6 1d3f
000002d0: 36ff fb3e 021f cd3d 07f8 e63e 0d93 ab3e
000002e0: 6874 7e3b c845 b7bd 3ade 143f 4580 153e
000002f0: 0b9d 0f3f fe2b b83e a41b 74be 5dbb 953d
00000300: c788 ea3d 6451 123f 2eb4 b43e bdf3 153e
00000310: 6829 053f 26e9 15be 51e2 38be 7585 3ebc
00000320: ba49 103f adfc 78bd 4bda bc3e 8efd 8d3e
00000330: cde2 9ebc 9575 5a3e bfc4 55bb 713b 7dbc
00000340: 9074 ac3e 99c6 853e 5a23 3a3e c924 da3e
00000350: d579 1fbd 0b74 323c b09d 723e c71a cfbc
00000360: 4ca6 22bd aaec f13e ec90 a83e 619b e93e
00000370: dada 803e bc4f eb3d 9c1b 2b3f d295 943e
00000380: a0bd 983e 7452 64bd ff53 fc3e dd59 fb3e
00000390: 157b 7a3d 472d fb3c d63c 413f 67bf b3bd
000003a0: 85a4 ce3e 9713 bc3d 0bb6 d63e 2012 073f
000003b0: 671b 293e f8aa 763e 967f a73e 7572 03bd
000003c0: ada0 363e f3bd d33d d750 8ebd 13c5 f73e
000003d0: 1f0c 013d b6db ad3e b159 d8bd f4b9 0f3f
000003e0: c61a 533d 72b7 da3e 8523 ac3e c581 053f
000003f0: 1266 9c3e bd5b 773e 5dc1 8a3d c722 823e
0.04752843 0.43346283 0.41690278 0.19033349 0.26289448 0.15794042 0.28237975 -0.11019491
0.35083672 0.5698252 0.48315284 0.03329433 -0.09524177 0.3430854 0.31410283 0.34960577
0.22070989 0.45263192 0.47654453 -0.14311655 -0.12862194 0.11530043 0.60062045 0.32543236
0.49587727 0.1330087 0.29120976 0.55971193 0.1629625 -0.008905135 0.018597359 -0.08815119
0.21186708 -0.014613228 0.42403123 0.20226827 0.07987357 0.051777296 0.26061222 0.6631196
0.23584291 0.37473676 0.07309753 -0.06612646 0.27311897 -0.23188977 -0.023184065 -0.0759175
0.6683223 0.6001064 0.5785007 0.024926933 0.12911 0.47795337 0.08899007 0.32888097
-0.14063865 0.25831306 0.16253875 0.0016254347 0.3975734 0.4564302 0.048337508 0.20193934
0.23782133 0.43261883 -0.043503307 -0.12498303 0.120757736 -0.13244215 -0.15333836 0.13140383
0.1177828 0.15262732 0.5144197 -0.08756815 -0.12516236 0.34270462 0.16799642 0.5543333
0.46006247 0.08786384 0.2992124 0.09608595 0.1146667 0.5094765 0.7076619 0.36953107
0.68526155 -0.19972214 0.4880349 0.055415694 -0.046015065 0.5566786 0.51667166 -0.29897884
0.24450514 0.102600336 0.7220331 0.147154 0.13060433 0.39440393 0.6327532 -0.083905876
-0.056894425 0.013299141 0.6151011 0.15252072 0.23311909 0.41932878 0.17823116 0.2769078
0.56581247 -0.09369396 0.6488826 0.65271884 0.15809144 -0.0562512 -0.15766641 0.20562465
0.2654975 0.2696002 0.45293698 0.104701936 0.007234116 0.37289768 0.30254036 0.5825037
0.4442154 0.4287432 0.5498449 0.38789654 0.118795656 -0.1500122 0.086404175 0.14788398
0.0012475188 0.66228855 0.07342483 0.004255848 0.34103397 0.32931414 0.45056996 0.48315385
0.05949685 0.27833876 0.5313551 0.4369 0.1787818 0.2971799 0.47505456 0.26357993
0.17937103 0.5308356 0.5324537 -0.1589102 0.10770119 0.007071823 -0.056288578 0.15180913
0.0657248 0.24392399 0.12790929 0.5904487 0.24074756 0.063580014 0.5529447 0.61372626
0.052746937 0.4621477 0.33089808 0.25904143 0.3788897 0.26014075 -0.0024824422 0.6144354
0.20171823 -0.047489546 0.11818986 0.6160663 0.49218148 0.1001568 0.45111105 0.33510628
0.0038826708 -0.089488566 0.5815159 0.14599712 0.56099004 0.35971063 -0.23838669 0.07311127
0.114518695 0.5715544 0.35293716 0.1464376 0.52016306 -0.1463972 -0.18055083 -0.011628498
0.563625 -0.060787845 0.36885294 0.2773251 -0.019395256 0.21333916 -0.003261849 -0.0154560665
0.3368268 0.2612808 0.18177548 0.4260619 -0.038934547 0.010891925 0.23692966 -0.025281323
-0.039709374 0.47250873 0.32923067 0.45626357 0.2516697 0.114898175 0.66839004 0.29020554
0.29832172 -0.055742696 0.49282834 0.49091998 0.061152536 0.030661238 0.75483453 -0.087767415
0.40359893 0.09183424 0.41935763 0.5276203 0.1651436 0.24088657 0.32714528 -0.032091577
0.1783473 0.10338964 -0.06949013 0.48392543 0.0315057 0.3395669 -0.10563982 0.56143117
0.051539205 0.42718083 0.3362085 0.5215114 0.30546623 0.24156089 0.06775162 0.25417158

l2.weight f4 [256, 256]
00000000: c80c ce3c ff6d b13d c044 2f3e acd1 f43d
00000010: 35f6 9a3d 7726 1f3e 1d94 4a3e 1572 b13e
00000020: 744e 093e 45c6 443e e695 203d 9f47 04be
00000030: 2d5b c03d 419b 003e bb2f 183e cc14 5b3d
00000040: 377d ac3d 7ce7 2b3e fae8 083c 3b82 f83c
00000050: 5190 08bc da75 0b3e e3c5 003e 34fa c53d
00000060: e581 363e 74e3 fb3d 3250 0f3e c0ad 143e
00000070: d5e6 773d d2d9 053e 00a6 ee3d f5ef 6bbc
00000080: 0d69 d7bc 5b95 053e 1181 e13d b130 c93d
00000090: 38ed de3a af76 043d 442a a1bd 0eff 493e
000000a0: e30a 0f3e 1cfb ee3d a7ff 203e 3568 e53d
000000b0: 1f7d d63d 8756 763d 8404 a6bc e9d1 d13d
000000c0: d135 983e 1438 963d a1d2 b03d effd f63d
000000d0: 4eb4 57bd 4f61 5f3d a946 833d f282 643d
000000e0: 78b6 34bd c11a 2c3e 0614 213e 9860 e53d
000000f0: 6dff 173e 15fe 223e 6c60 593e 63f3 cb3d
00000100: fb77 083e 9ce6 ea3d e9fb 153e f109 96bc
00000110: 45a9 0a3d 0909 7b3d 71db 90bd c19b b43d
00000120: 6408 083e d68d e83d 339a 343d 2064 acbd
00000130: af45 553d 236c c03d 8d9f cd3d 01fb ba3d
00000140: b14c 9c3d c99c 85bd 3213 003e bc06 f83d
00000150: 0b11 7a3d 570d 103d 1728 633e 07b7 bb3d
00000160: 2b9c 063e 26a7 4a3d cf81 163e 7d83 023d
00000170: 8a60 ec3d 8727 443e a4c0 1d3e 610b 53be
00000180: 10e4 31bc 7e01 d43c 92db 803e 62ee 263d
00000190: 1aea f03c 2820 df3d 6038 a83d 3128 c0bc
000001a0: 79fe df3d fa03 b0bd acb3 003e ba97 dc3b
000001b0: bbd6 873d e604 e7bc 4031 603e 125d b93d
000001c0: b250 c03d c3fd cfbd 86c6 a53d b4cb 0a3e
000001d0: 4d2d e13d abeb 24bd f4a5 11be 4a9d c83d
000001e0: 7480 113d 8bb2 e83d 6e22 983d 45b0 b63d
000001f0: d503 71bd 2ea5 a23c 1ffd 523d 3253 6e3e
00000200: 1929 8f3d 1390 aa3d 0d00 1e3e ec09 1c3e
00000210: 1190 033e 32cc 1cbd c1fd 343e c6ce 4a3e
00000220: b2ad 2b3c daa3 323e 0e89 0f3e 6f36 de3d
00000230: 56f9 9e3d a776 cb3d 9db4 4f3e 8869 023e
00000240: b3e8 cd3d c75f 1a3e 3eae ca3d a128 743e
00000250: 08b5 043e 3d66 853d 8ecf 6d3e 2183 383e
00000260: 6e76 253e 910a bf3d 9b0a d73d 9f47 0a3e
00000270: 889c af3d 2ffd b13d 5dc5 ee3d 2c7b cb3d
00000280: 0584 9d3d aa5c a43d 7e59 853d 7345 1d3e
00000290: 2b6b 763d 29ef cb3d fda2 3d3e b9ce 103e
000002a0: ecb6 d33d 5bef be3d bf2b 343e 8d63 243e
000002b0: 19a3 8d3d fbeb 8b3d 3db9 d33d b523 733e
000002c0: 080b 983d bef5 973d 4842 bc3d 178e 8f3e
000002d0: 59f2 833d 0674 853e a7d8 c93d b287 d43d
000002e0: ca42 0e3e ea60 9a3c d37b 483e d333 253d
000002f0: c245 0d3d fb60 5b3e afa0 173e f86f e83d
00000300: e986 653d 78c8 953d da1f 663d 49c9 d43d
00000310: 82e6 063e b95d 103e df36 143c b565 563d
00000320: 8b10 213e 1043 263e cf74 1cbc 7722 083e
00000330: 4016 983d e29b 353d f700 2abe f283 dd3d
00000340: f312 dc3d d001 9c3d 13ab 793d 8611 823d
00000350: f5b5 263e 3796 033d b198 e83d ee62 19be
00000360: 6f1f b53d 0772 2d3e 5562 0a3e 69fa e83c
00000370: b758 353e 69e6 cd3b 0250 6f3e aa20 a9bd
00000380: 33e2 ae3c 7a39 6e3e 1292 9e3d 320a 313e
00000390: 9a6c 803c 08fb db3c 0162 803e 5d8f a73c
000003a0: 46bb 253e 2fb5 203d d0f2 703d df38 6a3e
000003b0: 01be 453e 6818 193e d4c9 193e 5e83 023e
000003c0: 006a 543e 104f 2c3e 3a96 853d 1de2 ab3d
000003d0: 13fd 8d3d d491 953d cf17 93bc 0f52 4a3e
000003e0: 7190 383e 36a3 1f3e 21bd 163e 5c07 663e
000003f0: cfe7 f03d cd13 db3d 7c31 363c 609f 5e3d
0.025152579 0.08663558 0.1711607 0.11954054 0.075664915 0.15542017 0.19783063 0.3465735
0.13408834 0.19216259 0.039205454 -0.12917946 0.093923904 0.12559225 0.14861958 0.05348663
0.0842232 0.16787523 0.008356327 0.030335536 -0.008335189 0.13619176 0.12575488 0.09666863
0.17822988 0.122992426 0.13995436 0.14519405 0.060522873 0.13071373 0.11652756 -0.014400472
-0.02629521 0.13045256 0.110109456 0.0982374 0.0017007953 0.032339748 -0.0786939 0.19726202
0.13968997 0.11668989 0.15722524 0.112015165 0.10473084 0.060141113 -0.020265825 0.10245115
0.2972856 0.07334915 0.08633924 0.12060153 -0.052662186 0.05453616 0.06409962 0.05578894
-0.04411933 0.16807081 0.15730295 0.112000644 0.14843531 0.15917237 0.21228188 0.09958532
0.13327019 0.114697665 0.14646877 -0.018315287 0.033852834 0.061287913 -0.07073105 0.0881877
0.13284451 0.11355178 0.04409237 -0.08417535 0.05206841 0.093956254 0.100401975 0.091299064
0.07631815 -0.06524045 0.12507322 0.121106595 0.06105141 0.035168972 0.22183262 0.09165769
0.13145511 0.04947581 0.14697956 0.03186368 0.11541851 0.19155703 0.15405518 -0.2060981
-0.010857597 0.025879618 0.2516752 0.040754683 0.029408503 0.10894805 0.08213878 -0.023456665
0.10937209 -0.085945085 0.1256854 0.0067319544 0.066327535 -0.028200578 0.21893787 0.09050955
0.093903914 -0.10155823 0.08094506 0.13554269 0.109949686 -0.040263813 -0.14223462 0.097956255
0.035522893 0.11362179 0.07428442 0.089203395 -0.058841545 0.019854154 0.051510926 0.23273924
0.06990261 0.08328261 0.15429707 0.1523816 0.12847926 -0.038280673 0.17674924 0.1980544
0.010478424 0.17445317 0.14017126 0.10850226 0.07762401 0.099347405 0.20283742 0.1273557
0.100541495 0.15075599 0.09896515 0.23843624 0.12959683 0.06513641 0.23223707 0.18018772
0.16158459 0.09328187 0.1050007 0.13503884 0.08574778 0.08690869 0.11658738 0.099356025
0.07691196 0.08025487 0.0651121 0.15358524 0.060160797 0.099577256 0.18519206 0.14141358
0.10337624 0.09322997 0.17594813 0.160536 0.06915874 0.06832119 0.10338066 0.2374409
0.07423979 0.074199185 0.0919233 0.28038093 0.064427085 0.2606508 0.09855776 0.10377444
0.13892666 0.01884504 0.19578485 0.040332627 0.034490354 0.21423714 0.1480739 0.11349481
0.056036863 0.07313627 0.05618272 0.103899546 0.13173869 0.14098252 0.009046285 0.05234309
0.15728967 0.1623652 -0.009549334 0.13294397 0.07426119 0.044338115 -0.1660193 0.10816182
0.10745802 0.07617533 0.060954165 0.063509986 0.16280349 0.032125678 0.113572486 -0.14979145
0.08843886 0.16938029 0.13514073 0.028439717 0.17709623 0.0062835705 0.23370364 -0.08258183
0.021348095 0.23264113 0.077427045 0.17289045 0.015676785 0.0268531 0.2507477 0.020454103
0.1618472 0.03923529 0.058825314 0.22873257 0.19310762 0.14950716 0.15018398 0.12745425
0.20743561 0.16827035 0.06522794 0.08392737 0.06933036 0.07303205 -0.017955689 0.19757865
0.1802385 0.15589604 0.14720584 0.22463745 0.11762964 0.10697136 0.011120196 0.05435121

l2.bias f4 [256]
00000000: 680e 593e 8e3a f53c 08d8 5c3e 301d 2dbc
00000010: 2cab 8f3e 1c19 7e3e 6a76 803e 1f4a 773d
00000020: 6faa 3e3e e115 703e a2c4 353e 5fca 803e
00000030: 0cee 893e 0728 833e 0ef7 6dbe 8242 443e
00000040: b7d3 c1bd 971d 413d b49b 443e 0eb1 5c3e
00000050: acbd 1abe 73a1 323e 69f1 5b3e e413 8bbd
00000060: 68a2 513e 146d 5c3e eb5e 293e 86e9 023d
00000070: e1a6 1c3d f945 983b 7f18 3d3e 9b29 783e
00000080: 74f4 1a3e a69d 793e 6dbb 863e b5e8 833e
00000090: 5aec 793e 647f 663e f83d 763e 0251 453e
000000a0: 4959 563e 73ac 843e db51 bdbd 5da9 993e
000000b0: 0b11 90be b1fe 2cbe 795c 803e fd06 42bb
000000c0: 1b72 b93c 449c ea3c bcb1 883e 4c9a 823e
000000d0: 91e0 973e c635 813e dce7 103b 2329 93bc
000000e0: 7df3 b33b 07ec 0b3e 85f3 143e 7808 4cbd
000000f0: f87c 783e c256 04be ada7 7b3e 055f 553e
00000100: 5a53 843e 37aa 573e 6348 893e e146 6f3e
00000110: 3a6b 913e d326 663c 88c1 7f3e 7f61 6c3e
00000120: 26d2 193e 31e6 783e 0328 5b3e d707 74be
00000130: f587 9c3e d36f aabc 5de9 5d3e 7c95 863e
00000140: 8682 1dbc 0195 b53c 1a01 863c 355b e5bd
00000150: 48f2 473d b1b4 413d 2a2c 04be 73b6 913e
00000160: 6df4 1a3e 4412 85bc ee2c 2a3e 707d d3bc
00000170: 64b8 db3c 1848 8b3e 44e4 aabe 1eca 553e
00000180: f82c 753e fd1b 293e ffe9 853e 5f4d 96bd
00000190: 3151 8c3e 8299 813e 5df1 813e b975 83bd
000001a0: a833 103d 4678 09be 08ba e83c 725a 843e
000001b0: d60e 7d3e acbb 443e 1f1e 213e f9f8 04be
000001c0: a1fe 733e 31bd 3f3e 84da 843e 4551 c3bc
000001d0: ff08 553e eb9e 50bd f217 533e 88fc 903e
000001e0: ba94 2ebe 25d2 5f3e 4ff6 723e 7519 513e
000001f0: 32ca 813e f314 813e 3d70 543e c299 a2bd
00000200: c805 5f3e d319 953e c773 3b3e 88ae 773e
00000210: 3719 743e f9f6 903e 9d8e 3a3e 5767 1cbd
00000220: 98bb 733e 5533 79be 5581 283e 4049 343e
00000230: 4446 aabd a9a3 17bd a5bb 7a3e 3c90 3cbd
00000240: 65af 5d3e 2359 383e 9ecb 533e 635e 883e
00000250: 0fd4 393e 0d30 32be 0492 03bc 38f9 8b3e
00000260: a685 c4bd 2f9a 15be cad8 693e bc08 39be
00000270: 90ec 033d 1f08 2f3e 79cf e2b9 10f1 843e
00000280: f47a 53bd 5131 363e 078d 94be b54f 723e
00000290: 217c 5b3e 4652 433e 7784 00be 04de aabd
000002a0: ee8c 7c3e ad72 923e c72a 273e fe42 853e
000002b0: f2cd 77bd c236 803e d821 543e 1abd 383e
000002c0: ad86 d6bc f5d4 c13e a849 603e 0133 75be
000002d0: 5ff5 623e 1e3a 1cbe 5b4f 783e d58f 1e3b
000002e0: e50e 883e c558 0d3c 8eed 05be f9dc 3e3e
000002f0: eba9 51bd 7bc8 893c 277f 473e 1513 333e
00000300: 5a65 923e 51a0 4bbe 2d18 c5bd 972f 313e
00000310: 179e 04be 7b8a 7e3e d5f2 94bd 279f d2bd
00000320: c88d 943e 0e2b 73be ef28 f0bd 2e76 57bd
00000330: 983c 363e 6d0c c6bd 73ab 883e 300b 733e
00000340: 60f9 3b3e 9513 3a3e 3be5 3c3e af6f 273e
00000350: e556 823e 0c8a e5be 6fdb 6e3e 0e19 7e3e
00000360: 3896 8fbd fc77 7ebe c89d 943e 8214 323e
00000370: 2b51 223e ea0b 223e 83ca 6a3e 31d0 7f3e
00000380: a444 c2bc 5d37 653d a19c 34bd 6964 893d
00000390: 42bf a2bd ecb3 413e ee2f f8bd b266 21be
000003a0: af15 87bd 9e75 663e 5fc4 a13b 2e99 713e
000003b0: 83fd 3e3e 8ebb 593e e1d4 f83c 38a6 5e3e
000003c0: 3bc7 813e 4e97 253e aff5 8f3e 0bcd f6bd
000003d0: 6058 5dbc 11e7 313e 05c4 423e cd2c e0bc
000003e0: b63e 6dbe 4926 09be b819 09be a9d3 aabe
000003f0: 3599 e93c 82ee 323e dd7e 8d3e adce 15bd
0.21196902 0.029935148 0.21566784 -0.010566041 0.2806028 0.24814266 0.25090343 0.06037342
0.18619703 0.23445846 0.1775079 0.25154397 0.26939428 0.25616476 -0.23238775 0.19165996
-0.094642095 0.04714736 0.19200021 0.21551916 -0.15111417 0.174444 0.2147881 -0.06790903
0.2047211 0.21525985 0.16540115 0.031960987 0.038245086 0.0046470133 0.18466376 0.24234621
0.15132314 0.24376544 0.2631487 0.2576348 0.24406567 0.22509533 0.24047077 0.19269183
0.20932497 0.25912818 -0.09244128 0.30012026 -0.28138003 -0.16894032 0.2507055 -0.0029606216
0.022637418 0.028638966 0.266981 0.25508344 0.29663518 0.25236338 0.0022110855 -0.017963951
0.0054916725 0.13664256 0.1454602 -0.049812764 0.24266422 -0.1292372 0.24575682 0.20837028
0.25844842 0.21061026 0.2681304 0.23366882 0.2840212 0.014047342 0.2497617 0.23084067
0.15021572 0.24306561 0.21401982 -0.23831116 0.30572477 -0.020805275 0.21671052 0.26285923
-0.009613639 0.022165777 0.016357947 -0.11199037 0.04881504 0.04729146 -0.12907472 0.2845951
0.15132304 -0.016244061 0.16618702 -0.02581665 0.026821323 0.2720344 -0.33377278 0.20877883
0.23942935 0.16514583 0.26155087 -0.07338976 0.27405694 0.2531243 0.25379458 -0.06418938
0.035205513 -0.13424787 0.02840902 0.25850254 0.2471269 0.19212216 0.15734147 -0.129856
0.23827602 0.18724515 0.25947964 -0.023842463 0.20804213 -0.050932806 0.20614603 0.28317666
-0.17048922 0.21857508 0.23726772 0.20419867 0.25349575 0.25211295 0.2074594 -0.07939483
0.21779549 0.29121265 0.18305884 0.24187672 0.23837744 0.28313425 0.18218465 -0.03818449
0.2380203 -0.24335988 0.16455586 0.17606068 -0.08314183 -0.037021313 0.24485643 -0.04603599
0.21648939 0.18002753 0.20683143 0.2663451 0.181473 -0.17401142 -0.008030418 0.27338576
-0.09595804 -0.14609598 0.22836605 -0.18069738 0.032208025 0.17092942 -0.00043260658 0.25965166
-0.05163093 0.1779225 -0.29013845 0.23663218 0.2143407 0.19074354 -0.12550531 -0.08343127
0.24663135 0.28603116 0.16324912 0.26027673 -0.06049914 0.25041777 0.20716035 0.18040887
-0.026187265 0.37857786 0.21903098 -0.23945238 0.22163914 -0.15256545 0.24249022 0.0024194617
0.26573864 0.008627121 -0.13078901 0.18638982 -0.051187437 0.01681923 0.19482099 0.17487748
0.2859295 -0.19885375 -0.09623752 0.1730331 -0.12950931 0.24857514 -0.07272879 -0.10284262
0.2901442 -0.23746893 -0.117265575 -0.05260294 0.17796552 -0.09670339 0.26693305 0.23734736
0.18356848 0.18171532 0.1844682 0.16351198 0.2545692 -0.44831884 0.23325895 0.24814245
-0.07011074 -0.24850458 0.29026628 0.17390636 0.15851276 0.15824857 0.22928815 0.24981762
-0.023714371 0.055961 -0.044094685 0.06708605 -0.07946636 0.18916291 -0.12118517 -0.15761831
-0.06595933 0.22505805 0.0049367393 0.2359359 0.18651395 0.21262953 0.030374946 0.21743095
0.25347313 0.16171 0.2811713 -0.120508276 -0.01350984 0.17373301 0.19020088 -0.027365113
-0.23168454 -0.13393511 -0.13388717 -0.3336461 0.028515438 0.17473796 0.27635852 -0.036574055

l3.weight f4 [1, 256]
00000000: 9a4a 523e 4136 8fbf 5c21 323e 2d57 38bd
00000010: a918 1c3e 53ea 4a3e 5199 263e b0f7 91bf
00000020: d0fd 383e c6be 1f3e f9d8 2c3e ab62 4f3e
00000030: 73a5 2a3e ed06 403e 2527 b2bf 52a7 4f3e
00000040: 4140 63bf 9ee7 95bb b530 4b3e e553 493e
00000050: 370f 84bf ba97 2e3e 458e 233e 353f 47bf
00000060: b521 463e fe8b 453e bcf4 263e ae4d febc
00000070: 292d 50bd 4158 51bd f32d 303e c058 193e
00000080: 8f3b 503e 2a73 493e 97e0 333e 4d99 443e
00000090: 97ef 303e 9c56 4a3e ed6d 3a3e 1fd7 2c3e
000000a0: 07ef 1e3e f87f 173e 51b5 49bf 17e4 193e
000000b0: 8777 44bf aaae 55bf 5b0d 263e e680 adbf
000000c0: f095 4abd dda9 78ba 1beb 423e c3e8 473e
000000d0: f3c9 1a3e 86f1 183e 8659 4abd c69a 42bb
000000e0: 2142 52bd 1caf bd3f 4479 4a3e 99be 9dbf
000000f0: 14f0 4b3e 47c2 91bf bbf9 3a3e 338a 4b3e
00000100: 234c 333e b20d 473e c0c2 3f3e 6c60 443e
00000110: 68d3 183e 1843 2ebd c05a 213e f78d 4a3e
00000120: aeca 3e3e 123f 533e b544 283e d596 4cbf
00000130: 3372 1a3e 9cec ebbc 05af 523e 4b8e 3a3e
00000140: b8ee 79bf ad45 f8bc a0ab 44bd c6bc 4abf
00000150: 9a4e 9bbc 6248 bdbc c387 31bf 856c 233e
00000160: cd9c 3f3e d21e 2dbd 0a26 413e 8cd4 3bbf
00000170: 64f4 6ebc be3d 1e3e d8e8 99bf 99ae 4f3e
00000180: a34a 363e 92ec 353e 4a25 2e3e 3941 c6be
00000190: 8d8e 283e 2d62 1b3e 44cc 253e 2904 98bf
000001a0: 74c3 bbbc 0f70 51bf eef1 47bd 562b 483e
000001b0: a36b 3e3e 2cfe 353e 7b10 2f3e 79a9 29bf
000001c0: d6a5 423e 1f00 303e 932b 133e 6529 2bbd
000001d0: 6b9f 393e 8ddb 63bd 6066 1f3e 99f8 203e
000001e0: 02ba 24bf ecd1 2f3e 5ce1 2d3e af19 503e
000001f0: 0f66 c0bf bb86 383e e7a5 1d3e b9a4 30bf
00000200: 1228 1e3e 9d5d 193e 478e 533e 2496 3b3e
00000210: 12b9 2e3e 29f7 243e 0d91 3b3e 9628 d3bc
00000220: 0683 503e f411 e8bf aa51 393e 949c 353e
00000230: 3392 68bf ffae 53bf b096 1b3e 805a 32bd
00000240: 8a62 233e 9ca5 493e d670 553e b934 1f3e
00000250: 8c04 353e 1ab3 6cbf 908c 01bf 62e2 213e
00000260: f201 c8bf 2ee4 35bf 89f3 2f3e d722 1abf
00000270: 6677 93bf d1c1 363e b512 f6bc 7da4 1c3e
00000280: 02da 5bbf a232 483e a1ae e4bf 6c27 253e
00000290: 365e 3d3e 132f 153e 06ff 44bf 282e 2fbf
000002a0: c2d1 2a3e e359 213e 3017 273e a85f 1b3e
000002b0: 17a2 3cbd 15c7 4e3e 3708 473e 243e 173e
000002c0: 59ac ccbc 7ded 2d3e 1d0c 4b3e 7477 22bf
000002d0: 25fc 4c3e d31e 35bf 2a68 183e c33b 51bd
000002e0: 2ecc 1c3e 08d9 a5bc 5317 23bf 6daa 1a3e
000002f0: 0e0f 2fbf f86c c8bc 2f01 303e ab8a 233e
00000300: 4cc0 193e f7da 33bf cb07 28bf 29cb 363e
00000310: 1b97 06bf b129 4b3e 3351 acbb f986 24bf
00000320: 870c 1d3e ed7e 3ebf 16e0 3dbf 5a93 e9be
00000330: 54fb 1c3e 2c56 ccbf a25a 1f3e e060 253e
00000340: 8208 3f3e 14bd 513e 9be2 293e fe21 363e
00000350: 38a6 1e3e 9a5e 2dbf b42e 243e 5b72 303e
00000360: 27ce 39bf 1ae3 2cbf 1bc0 1e3e acef 3a3e
00000370: 5ea9 3a3e 03b6 363e 5c36 3e3e 3d9c 503e
00000380: cd72 35bf 7754 22bd b567 5bbf 5d13 92bf
00000390: 728b 7bbf a19d 4a3e 09b0 5dbf a59a 3ebf
000003a0: 4899 2abc 871c 4f3e 0128 88bf 9597 333e
000003b0: 969b 3a3e b4c5 353e 7724 30bd e707 3f3e
000003c0: 9333 4c3e 5ad8 3b3e 382d 143e bd21 94bf
000003d0: 500c 47bc 870b 363e b0de 3b3e 9062 18bd
000003e0: 7c32 76bf 180e 45bf a3fe 1cbf 6aa8 7fbf
000003f0: 838c 94bf 8af8 433e b350 233e e42f 19bd
0.2053627 -1.1188432 0.17395538 -0.045005012 0.15243782 0.1981595 0.16269423 -1.1403713
0.18065572 0.15600118 0.16879643 0.20252483 0.16664676 0.18752642 -1.3918196 0.20278671
-0.8876992 -0.00457473 0.19842799 0.1966091 -1.0317143 0.17050067 0.1597224 -0.7783082
0.19348796 0.19291684 0.16304296 -0.0310429 -0.050824318 -0.051109556 0.17205028 0.14975262
0.2033522 0.19672838 0.17566143 0.19199105 0.17278896 0.19759601 0.18205996 0.16878937
0.15520869 0.1479491 -0.7879229 0.15028416 -0.76744884 -0.8346964 0.16216032 -1.3554962
-0.049459398 -0.0009485761 0.19034998 0.19522385 0.151161 0.14935884 -0.049401782 -0.0029694303
-0.051332597 1.4819064 0.19772822 -1.2323791 0.19915801 -1.1387414 0.18259327 0.19876938
0.17509513 0.19438818 0.18726635 0.19177407 0.14924395 -0.042544454 0.15757275 0.19780718
0.18632004 0.20629528 0.1643246 -0.7991765 0.15082626 -0.028799348 0.20574577 0.18218343
-0.9762988 -0.030306662 -0.048015237 -0.79194295 -0.018958379 -0.023105804 -0.6934778 0.15959366
0.18712159 -0.04226572 0.18862167 -0.73371196 -0.014584634 0.1545324 -1.2024183 0.20281447
0.17801909 0.17766026 0.17006412 -0.38721636 0.16460629 0.1517417 0.16191202 -1.187627
-0.022920348 -0.8181161 -0.048814707 0.19547781 0.18595748 0.1777274 0.1709613 -0.6627422
0.19008574 0.17187546 0.14372091 -0.041787524 0.1812722 -0.0556293 0.15566397 0.15719832
-0.64346325 0.17169923 0.16980499 0.20322298 -1.5031146 0.18020146 0.15395318 -0.69001347
0.15444973 0.14977117 0.20659743 0.18318993 0.17062786 0.16109909 0.18317051 -0.025776189
0.20362481 -1.8130479 0.18097559 0.17735511 -0.9084808 -0.826889 0.15194201 -0.04354334
0.15955558 0.19692081 0.20843825 0.15547456 0.17677516 -0.9246079 -0.50605106 0.15809014
-1.5625594 -0.710513 0.17182745 -0.6020941 -1.1520813 0.17847373 -0.030038217 0.15297122
-0.8587953 0.19550565 -1.7865793 0.1612832 0.1849297 0.14568739 -0.76951635 -0.68429804
0.16681579 0.15756945 0.16317439 0.15173209 -0.04605302 0.20193131 0.19436727 0.14769799
-0.024984526 0.16985126 0.1982884 -0.6346352 0.2001806 -0.7075016 0.14883485 -0.051082384
0.15312263 -0.02024509 -0.63707465 0.15104075 -0.68382347 -0.024466023 0.17187952 0.15970866
0.15014762 -0.7025599 -0.6563689 0.17850937 -0.5257432 0.19840123 -0.005258703 -0.6426845
0.1533681 -0.74412423 -0.74170053 -0.45620233 0.15330249 -1.5963798 0.15561917 0.16150236
0.18655589 0.20482284 0.1659035 0.17786404 0.15493095 -0.67722476 0.16033441 0.17231123
-0.7258019 -0.6753403 0.1550297 0.1825549 0.18228671 0.1784287 0.18575424 0.203721
-0.708783 -0.039631333 -0.8570512 -1.1412159 -0.9825965 0.19786693 -0.86596733 -0.7445472
-0.010412522 0.20225726 -1.0637208 0.17538293 0.18223414 0.17751199 -0.043003526 0.18655358
0.19941549 0.1834425 0.14470375 -1.1572796 -0.012148932 0.17777835 0.18346667 -0.03720337
-0.96170783 -0.7697463 -0.61326045 -0.99866354 -1.1605381 0.19137779 0.15948753 -0.037399188
