model/hopper-medium-expert-v2.pt (torch, 278359 bytes, 5 tensors)

l1.weight f4 [256, 11]
0	0xbef6ba30	-0.48188925
1	0xbe744e52	-0.23858002
2	0x3db09f22	0.08624102
3	0x3ead4619	0.33842543
4	0x3ef1bd38	0.47214675
5	0xbee9e064	-0.4567901
6	0xbd8a9cd9	-0.067681976
7	0xbe3d6c20	-0.18498278
8	0x3ea8efff	0.32995602
9	0xbe3b1901	-0.18271257
10	0xbe87218f	-0.2639279
11	0x3e83604b	0.25659403
12	0xbe44680f	-0.1918032
13	0xbe3c3ef7	-0.18383394
14	0xbe01c4eb	-0.12672774
15	0xbe7cb487	-0.2467824
16	0x3db14541	0.08655787
17	0x3ee2ed29	0.44321564
18	0x3e23c138	0.15991676
19	0xbb242d6e	-0.0025051492
20	0x3d2075be	0.039174788
21	0xbe3487e4	-0.17629963
22	0x3d27f3e4	0.041004077
23	0xbca48168	-0.020081237
24	0xbefdab19	-0.495446
25	0xbcd02f85	-0.025413284
26	0xbecd7705	-0.40129867
27	0xbe3f0adc	-0.18656486
28	0xbd9da0ce	-0.07696687
29	0x3d96b284	0.07358268
30	0x3e5f518b	0.2180845
31	0x3ec14bda	0.37753183
32	0x3e47e8fd	0.19522472
33	0xbef6294e	-0.48078388
34	0x3e6d04f4	0.2314642
35	0xbd8d8506	-0.06910138
36	0xbe676c1a	-0.22599831
37	0x3eb0942e	0.34488052
38	0xbd0ba088	-0.03408864
39	0xbdd8819b	-0.10571595
40	0x3e0663a3	0.13123946
41	0x3e9951ea	0.29945308
42	0x3e8892b9	0.2667444
43	0x3f0005f9	0.50009114
44	0xbe8b49c6	-0.27204722
45	0xbef54b1f	-0.47908875
46	0xbeb5ad61	-0.3548384
47	0xbe3b3b9b	-0.18284456
48	0xbe352504	-0.17689902
49	0x3e67bf62	0.226316
50	0xbdc4987f	-0.09599399
51	0xbe828b1e	-0.25496763
52	0x3ea6ad64	0.32554162
53	0x3ca199cb	0.019726655
54	0x3e7dd1f0	0.24787116
55	0xbeac43f5	-0.33645597
56	0xbe14127a	-0.14460173
57	0xbe0b6972	-0.13614443
58	0x3eaed9f6	0.34150666
59	0x3d682221	0.056673173
60	0x3f1600f4	0.58595204
61	0xbe9fa6af	-0.31181857
62	0x3e54a22d	0.2076499
63	0xbe9a9e50	-0.30198908
64	0xbea88564	-0.3291427
65	0xbe5d9e0f	-0.21642326
66	0xbeb1201b	-0.34594807
67	0x3eab7ee1	0.33495238
68	0x3e3ff8fe	0.18747327
69	0x3e4016c8	0.1875869
70	0xbe33e5e4	-0.17568165
71	0xbeee5637	-0.46550152
72	0x3f1a4cd0	0.60273457
73	0xbd80c0a8	-0.06286746
74	0x3f21a039	0.63135105
75	0x3de059a7	0.109546
76	0x3e042dac	0.12908047
77	0xbea089a3	-0.31355008
78	0xbbbdad9f	-0.0057885195
79	0xbe1d1d11	-0.15343119
80	0xbeae4768	-0.34038854
81	0x3f1a57f0	0.6029043
82	0xbe4b98d8	-0.19882524
83	0x3e6713de	0.22566172
84	0xbdfefa7e	-0.12450121
85	0xbec75f27	-0.38939783
86	0x3eaef570	0.3417163
87	0xbeae6c48	-0.34066987
88	0x3e9d10fd	0.30677024
89	0x3e5d6277	0.21619593
90	0xbeb55e41	-0.35423473
91	0x3c7c0145	0.015381162
92	0xbe7d9804	-0.2476502
93	0x3ee0a496	0.4387557
94	0x3e9345a0	0.28764057
95	0xbd300f66	-0.042983435
96	0x3eae0b61	0.33993056
97	0xbd139afa	-0.03603647
98	0x3d5dd57c	0.054158673
99	0x3e38cde8	0.18047297
100	0x3f003358	0.50078344
101	0xbec6b212	-0.38807732
102	0xbdc86de4	-0.09786585
103	0x3e4d83b9	0.2006978
104	0x3de3c6b1	0.11121882
105	0xbf0e5667	-0.5560059
106	0xbdf32b69	-0.11873514
107	0xbd6ecf77	-0.058303323
108	0x3e224550	0.15846753
109	0xbda96706	-0.08271603
110	0x3e172146	0.14758787
111	0x3e4fb0b2	0.20282248
112	0x3e4a32a3	0.19745879
113	0x3de41053	0.11135926
114	0xbd214060	-0.039368033
115	0xbea330a6	-0.31873053
116	0x3e3e7f74	0.18603307
117	0xbd981571	-0.074259646
118	0xbe7561f2	-0.23963144
119	0x3ef2fa6d	0.47456685
120	0x3e19fffd	0.15039058
121	0xbe2fd6f3	-0.1717184
122	0x3e85ae7f	0.26109692
123	0xbec225ff	-0.37919614
124	0xbe5ce94e	-0.21573374
125	0x3ebfad29	0.37436798
126	0x3eba2f0a	0.36364013
127	0x3d0cf30b	0.03441147
128	0xbe244228	-0.16040862
129	0x3dc5f768	0.096663296
130	0xbdd96775	-0.10615436
131	0xbd51088b	-0.051033538
132	0xbed3e4f2	-0.4138561
133	0xbe61e934	-0.22061616
134	0xbf050d5b	-0.51973504
135	0xbd55afee	-0.052169733
136	0x3edfc71e	0.43706602
137	0x3ea6d373	0.32583198
138	0xbd01fb8b	-0.03173403
139	0x3eb124f4	0.34598505
140	0x3d818586	0.06324296
141	0xbe1f7131	-0.15570523
142	0x3e2f0a25	0.17093714
143	0x3eef5080	0.46741104
144	0x3e9b9c9c	0.3039292
145	0xbdfc5c17	-0.12322252
146	0x3efba039	0.49145678
147	0xbeb73836	-0.35785073
148	0x3dc8e129	0.09808571
149	0x3e12802e	0.14306709
150	0xbe78a5db	-0.24282019
151	0xbe8384f8	-0.25687385
152	0x3e3bc7a3	0.18337874
153	0xbee7edc3	-0.45298585
154	0x3ecbcf6a	0.39806682
155	0x3ec86f05	0.391472
156	0xbdb4c87c	-0.08827302
157	0xbea70e23	-0.32627973
158	0xbee647ff	-0.44976804
159	0x3f115e71	0.5678473
160	0xbe582a37	-0.21109854
161	0xbee4c2e8	-0.44679952
162	0x3ee5fc99	0.4491928
163	0x3e6f2549	0.23354067
164	0x3c34c538	0.011033349
165	0x3eba319a	0.36365968
166	0xbe95d43b	-0.29263481
167	0x3e4a8d51	0.1978047
168	0xbe231e03	-0.15929417
169	0xbe78a427	-0.24281369
170	0xbe81b6f2	-0.2533489
171	0x3e097a4b	0.13425557
172	0x3e3d157d	0.18465228
173	0x3e868cbb	0.26279244
174	0x3e7ce1fa	0.24695578
175	0x3d9f56f8	0.0778026
176	0xbe280b89	-0.1641065
177	0x3e097be6	0.1342617
178	0x3e0c1087	0.1367818
179	0x3f03614f	0.51320356
180	0x3ec170a1	0.37781242
181	0x3d08f040	0.033432245
182	0x3e6e6248	0.23279679
183	0x3e5e3137	0.21698461
184	0xbdd99052	-0.1062323
185	0xbda3ad73	-0.07992067
186	0xbe933f90	-0.28759432
187	0x3e761d57	0.2403463
188	0x3f3d10c5	0.73853713
189	0x3d256fc2	0.040389784
190	0x3de4fd06	0.11181073
191	0x3eeb08de	0.45905203
192	0xbe36bb6d	-0.17844935
193	0x3d8a865b	0.067639075
194	0x3d66dbd5	0.056361992
195	0x3d0704f0	0.032963693
196	0x3e5cec51	0.21574523
197	0xbe0fed85	-0.1405545
198	0x3ebcf5d3	0.369063
199	0x3e871146	0.26380366
200	0xbe6262e5	-0.22108038
201	0xbea45f5c	-0.32104003
202	0xbe904c7a	-0.28183347
203	0x3e09cff7	0.13458239
204	0xbe2897db	-0.16464178
205	0xbe327714	-0.17428237
206	0x3ee8e9f2	0.45490986
207	0x3eac121e	0.33607572
208	0x3ed82161	0.42212966
209	0xbe8c90cf	-0.2745423
210	0xbe919f5e	-0.284419
211	0x3ee79f6c	0.45238817
212	0x3e0d365e	0.1379027
213	0x3e8a7d7c	0.27048862
214	0xbf01e7e1	-0.50744444
215	0xbc4a148d	-0.012334001
216	0xbe004ef1	-0.12530114
217	0xbe86e812	-0.2634893
218	0x3e8b9e93	0.2726942
219	0xbea98e03	-0.3311616
220	0x3ee842f0	0.4536357
221	0x3e4bef35	0.19915469
222	0x3dc9067e	0.098156914
223	0xbecb9801	-0.39764407
224	0xbe482a5b	-0.19547407
225	0x3dc00913	0.09376731
226	0xbe8502e2	-0.25978762
227	0xbea55599	-0.32291868
228	0xbab90668	-0.0014116289
229	0x3e0f5576	0.13997445
230	0xbe090170	-0.13379455
231	0xbe820864	-0.25397027
232	0x3dfae7ec	0.12251267
233	0x3e0c8c9b	0.13725512
234	0x3d3aa2b4	0.045565322
235	0xbc4fd620	-0.012685329
236	0x3ebd7917	0.37006447
237	0xbe8c20e7	-0.27368852
238	0x3ce3c0f2	0.027801964
239	0xbe3d2244	-0.18470103
240	0xbe2075c5	-0.15669926
241	0x3f1a3f96	0.60253274
242	0xbd53c502	-0.051701553
243	0x3d570993	0.052499365
244	0x3edb1723	0.4279109
245	0x3f18c2a2	0.59671986
246	0x3d4fa0c8	0.050690442
247	0xbe101a04	-0.14072424
248	0x3c5f5acc	0.0136324875
249	0xbdf0095c	-0.11720535
250	0xbd43ef57	-0.047835674
251	0x3db14987	0.08656602
252	0xbe55e90c	-0.20889682
253	0xbe96cb44	-0.29451954
254	0x3ec155e7	0.3776085
255	0xbf24d203	-0.6438295

l1.bias f4 [256]
0	0xbbdf73c7	-0.0068192217
1	0x3d9b00f4	0.07568541
2	0x3ed1a83c	0.40948665
3	0x3c416fe6	0.011806464
4	0x3ea41101	0.32044223
5	0x3e6f9a4f	0.23398708
6	0xbdf01b3b	-0.11723944
7	0x3dd45ba4	0.103690416
8	0x3e7b84d8	0.24562395
9	0x3ebf516a	0.37366802
10	0x3ea84513	0.328652
11	0x3f2560b4	0.6460068
12	0x3dd13d47	0.10216766
13	0xbda422c8	-0.080144465
14	0x3eb88d56	0.3604533
15	0x3ef6a094	0.48169386
16	0x3cec7f52	0.028869305
17	0xbe3e71da	-0.18598118
18	0x3e2a3332	0.16621092
19	0x3e7042d3	0.23462991
20	0x3e75f72f	0.24020074
21	0x3f003d6c	0.5009372
22	0x3ec2e2f8	0.38063788
23	0x3f0939b7	0.5360369
24	0x3f21614c	0.6303909
25	0x3f021052	0.5080615
26	0xbdd0a25b	-0.10187217
27	0xbdf4c340	-0.119513035
28	0x3ed13517	0.40860817
29	0xbe189713	-0.1490138
30	0x3a2f4ca9	0.00066871435
31	0x3ec2a917	0.3801963
32	0x3e8603c2	0.26174742
33	0x3de0cc74	0.10976496
34	0xbe405d32	-0.18785551
35	0x3da18a0c	0.078876585
36	0xbd934351	-0.07190574
37	0x3f07d24d	0.5305527
38	0x3da0d2c6	0.07852702
39	0x3e8fcb56	0.2808482
40	0x3ddb7b4f	0.107168786
41	0x3e3f5b1a	0.18687096
42	0xbe16f169	-0.14740528
43	0x3eb8a201	0.360611
44	0x3ed40ec6	0.4141752
45	0x3deec2a5	0.11658219
46	0x3d111793	0.035422873
47	0x3f18a175	0.59621364
48	0x3ef6bb40	0.48189735
49	0x3f108749	0.5645643
50	0x3de67b50	0.11253989
51	0x3f381a99	0.71915585
52	0x3e863d95	0.26218858
53	0x3e8e4626	0.27787894
54	0x3eaf285a	0.34210473
55	0x3e4bd3ab	0.19904964
56	0x3e7c9ec2	0.24669936
57	0x3ebece24	0.37266648
58	0xbdae1451	-0.08499969
59	0x3ed09d8f	0.40745208
60	0x3f107cb6	0.56440294
61	0xbe06371d	-0.13106962
62	0x3ecbe8e7	0.39826128
63	0x3f1cde96	0.6127714
64	0x3f089e1d	0.5336626
65	0x3f2089c6	0.62710226
66	0xbd6c7c05	-0.05773546
67	0x3f1d93c8	0.6155362
68	0x3e734ca2	0.23759702
69	0x3e748063	0.238771
70	0xbdcb2dcd	-0.09920845
71	0x3d183f7e	0.037169926
72	0x3ebfd34b	0.3746589
73	0x3edf3bcc	0.4360031
74	0xbdc38208	-0.09546286
75	0x3f2cea7b	0.6754529
76	0x3d3987b3	0.04529543
77	0x3f1e3604	0.6180117
78	0x3f20b515	0.6277631
79	0x3dfff583	0.124979995
80	0xbd59ed7b	-0.053204995
81	0xbe2418be	-0.16025063
82	0x3f2d1972	0.6761695
83	0x3d0f66f7	0.035010304
84	0x3e73d512	0.23811749
85	0x3e0b0fca	0.13580242
86	0x3f113aa4	0.56730103
87	0x3f0289d1	0.5099154
88	0x3f1433c0	0.57891464
89	0x3e9ab3a1	0.3021517
90	0x3e14d3cc	0.14533919
91	0x3ed7f264	0.42177117
92	0xbd9732a1	-0.073827036
93	0x3e98ab04	0.29817975
94	0xbdd22f40	-0.102629185
95	0xbcf09f35	-0.02937279
96	0x3f12300b	0.5710456
97	0xbd2e763c	-0.042593226
98	0xbca5814f	-0.02020326
99	0x3d39e618	0.04538545
100	0x3b007e6b	0.00196066
101	0xbccda1f0	-0.025101632
102	0xbda3ad47	-0.079920344
103	0x3e627f07	0.2211877
104	0x3ef7ccb4	0.48398364
105	0x3e36a7a5	0.17837389
106	0x3ef811f5	0.484512
107	0x3f01e125	0.5073417
108	0x3d170992	0.03687436
109	0x3ee51718	0.44744182
110	0x3cd84d40	0.026404023
111	0x3e74eca5	0.23918398
112	0x3da67e5d	0.08129571
113	0x3eb167be	0.34649462
114	0x3ed47fee	0.41503853
115	0x3d9ae083	0.075623535
116	0x3da7c8b5	0.08192579
117	0xbb11dcb7	-0.00222568
118	0x3f107511	0.5642863
119	0x3e2065a7	0.15663777
120	0x3dbcbc27	0.09215575
121	0x3e06c537	0.13161169
122	0x3e8b7876	0.27240342
123	0xbaafdee2	-0.0013417865
124	0xbc14576d	-0.009054047
125	0x3cb168b5	0.021656374
126	0x3ce0078d	0.02734735
127	0x3ec77bea	0.38961726
128	0x3f0fd4c3	0.56184024
129	0x3e44ddfa	0.19225302
130	0x3e6236b1	0.22091176
131	0x3de7b9ec	0.11314759
132	0x3ef72afe	0.48274988
133	0x3e86e65c	0.26347625
134	0x3ea70e40	0.3262806
135	0x3dbe8df8	0.09304422
136	0x3e98c2cf	0.29836127
137	0x3e969465	0.2941009
138	0xbbc77930	-0.0060874447
139	0x3eff92bf	0.49916646
140	0x3cda5ce1	0.026655616
141	0xbc823a94	-0.015897073
142	0x3e8d5cfa	0.27609998
143	0x3da4c1e9	0.08044798
144	0x3ebb98e4	0.36640084
145	0x3e96427c	0.293476
146	0x3eaf7ac6	0.34273356
147	0x3e8f9ce7	0.28049394
148	0xbd8e073c	-0.069349736
149	0x3d721f72	0.05911202
150	0x3ecccdb6	0.40000695
151	0x3ec58999	0.3858154
152	0x3e4526e1	0.19253112
153	0x3efae660	0.49003887
154	0xbc084df9	-0.008319371
155	0x3e93b95a	0.2885235
156	0x3e7b8030	0.24560618
157	0x3e018bd1	0.12650992
158	0x3db96aed	0.090535976
159	0x3f1891d0	0.5959749
160	0x3e377ff1	0.179199
161	0x3f2a1f27	0.66453785
162	0x3e522b9e	0.20524451
163	0x3f0211f9	0.50808674
164	0x3e843d83	0.2582818
165	0x3f0d645a	0.5523125
166	0xbe14dba6	-0.14536914
167	0x3d9dd086	0.07705788
168	0x3df10d4c	0.11770114
169	0x3f13e405	0.57769805
170	0x3d6cd14e	0.057816796
171	0xbd23540c	-0.039875075
172	0xbde51560	-0.111857176
173	0x3f140836	0.5782503
174	0x3cfeaadd	0.031087333
175	0x3e587f8f	0.2114241
176	0x3dbad154	0.091219574
177	0x3e54e7c2	0.20791534
178	0x3f16e004	0.5893557
179	0xbe417874	-0.18893605
180	0x3f2a36a1	0.6648961
181	0x3ef05321	0.46938422
182	0xbd1f30f5	-0.03886505
183	0xbcb1f172	-0.021721575
184	0x3f052392	0.520074
185	0xbe4e27d9	-0.20132388
186	0x3edfb293	0.4369093
187	0x3ebd0818	0.36920238
188	0x3ed43de0	0.41453457
189	0x3ebf10ee	0.37317604
190	0x3e91a6ba	0.28447515
191	0x3f1ddf71	0.6166907
192	0x3dec921f	0.11551308
193	0x3e9a82bb	0.30177864
194	0xbd96f564	-0.07371023
195	0x3ec531e7	0.38514635
196	0x3f38ab1a	0.7213608
197	0xbdea475f	-0.11439394
198	0x3ef14a28	0.4712689
199	0x3ea7167a	0.32634336
200	0x3f259a33	0.64688414
201	0x3ea419eb	0.32051024
202	0x3d8ae872	0.06782617
203	0xbda4a7b9	-0.08039803
204	0x3eac7c5b	0.33688626
205	0x3dcefa59	0.10106344
206	0x3ee95d58	0.45579028
207	0x3eea6db2	0.45786816
208	0x3ecc4282	0.3989449
209	0x3d88f0d0	0.06686556
210	0x3d45d8b6	0.048302375
211	0xbae11d54	-0.0017174878
212	0x3de5477e	0.11195277
213	0x3ea15c59	0.31515768
214	0x3e941cc7	0.28928205
215	0xbda174de	-0.07883619
216	0xbbf7af35	-0.007558728
217	0xbcc82e5a	-0.024436165
218	0x3dcc227f	0.09967517
219	0xbd920641	-0.07130099
220	0x3e323911	0.17404582
221	0x3f03df20	0.51512337
222	0xbe55c9b0	-0.20877719
223	0x3e11caaf	0.14237474
224	0x3e505ce8	0.20347941
225	0x3f02bcf3	0.51069564
226	0x3e605f7f	0.21911429
227	0x3eca8389	0.39553478
228	0x3eb079a9	0.3446782
229	0xbd50904c	-0.050918862
230	0x3eeb1814	0.45916808
231	0x3f127827	0.5721459
232	0x3ed99013	0.42492732
233	0x3ef52198	0.47877192
234	0x3f012e3f	0.5046119
235	0x3df5058b	0.11963948
236	0x3e92d086	0.28674716
237	0x3e55f47d	0.20894046
238	0x3f1d8469	0.61530167
239	0x3b831c7a	0.0040011974
240	0x3e089cb8	0.13341033
241	0x3f2380cd	0.6386841
242	0x3e8f5d5c	0.28000915
243	0x3d8695c1	0.06571532
244	0x3f4cc342	0.7998544
245	0x3e902a35	0.281572
246	0x3ec147bc	0.3775004
247	0x3e886ec4	0.26647007
248	0x3ea99fb8	0.33129668
249	0x3ed36406	0.4128725
250	0x3d06ea71	0.032938424
251	0x3e1b58d5	0.15170605
252	0xbe1ec8c4	-0.15506274
253	0x3f30abe7	0.690123
254	0x3e5b24a2	0.21400693
255	0x3da1b22c	0.07895312

l2.weight f4 [256, 256]
0	0xbc73f690	-0.014890328
1	0x3d922f61	0.07137943
2	0x3e1dcbe0	0.15409803
3	0x3ac9f032	0.0015406667
4	0x3e0218ef	0.12704824
5	0x3e4314c4	0.1905089
6	0xbd6e3ddb	-0.05816446
7	0x3e001306	0.12507257
8	0x3df45c20	0.11931634
9	0x3e2787e3	0.1636043
10	0x3d2c918e	0.042131
11	0x3e407cf4	0.18797666
12	0x3ac96fff	0.001536846
13	0x3c24ffc4	0.010070745
14	0x3e70377e	0.23458669
15	0x3d82987b	0.063767396
16	0x3cd85d5c	0.026411705
17	0x3cd80ad4	0.02637235
18	0x3e4297d8	0.19003236
19	0x3e0e9aee	0.13926288
20	0x3e29c17a	0.16577712
21	0x3d95a04f	0.07305967
22	0x3d7c3312	0.061572142
23	0x3e789db9	0.24278916
24	0x3e726850	0.23672605
25	0x3e04df41	0.1297579
26	0xbdf468c7	-0.11934047
27	0x3d35048f	0.0441938
28	0x3e47a7d9	0.19497623
29	0x3db59fa4	0.0886834
30	0x3e18dc4e	0.1492779
31	0x3dc3eef0	0.09567058
32	0x3dadce65	0.08486632
33	0x3daab125	0.08334569
34	0xbe221efb	-0.1583213
35	0x3e52842a	0.20558229
36	0x3e665d67	0.22496568
37	0x3e1672d5	0.14692242
38	0x3df2a9d3	0.11848798
39	0x3de8d52d	0.11368785
40	0x3d5a7aed	0.053339887
41	0x3dd062b7	0.10175078
42	0x3d2ffe60	0.0429672
43	0x3e3bb09d	0.18329091
44	0x3dd4235b	0.10358306
45	0x3df20466	0.11817245
46	0x3dce596a	0.10075648
47	0x3e44f1dc	0.19232887
48	0x3de14b1c	0.11000654
49	0x3de7c52c	0.113169044
50	0x3ed19101	0.40930942
51	0x3e27292b	0.16324298
52	0x3ec21e1c	0.37913597
53	0x3e2a8768	0.16653216
54	0x3e14b45c	0.14521927
55	0x3d6c0941	0.057626013
56	0xbb233745	-0.002490477
57	0x3d687014	0.05674751
58	0x3dba6d19	0.0910284
59	0x3e3b3505	0.18281944
60	0x3d689836	0.056785785
61	0x3e256db8	0.16155136
62	0x3ddced07	0.10787397
63	0x3e3b32b4	0.1828106
64	0x3e36489b	0.17801134
65	0x3e093cd7	0.13402115
66	0x3e065a23	0.13120322
67	0x3dc8a5a2	0.09797217
68	0x3d5ef7c3	0.054435503
69	0x3d81a2ad	0.06329856
70	0x3d2f45f6	0.04279133
71	0x3e00fb58	0.1259588
72	0x3df55a35	0.11980096
73	0x3dc35f7d	0.09539697
74	0x3df96cab	0.1217893
75	0x3e380b4b	0.17973058
76	0xbc8417c6	-0.016124617
77	0x3df3d5ec	0.11906037
78	0x3e00737e	0.12544057
79	0x3e3eb412	0.18623379
80	0x3e1af7c4	0.15133578
81	0x3e96f9cc	0.29487455
82	0x3e85649d	0.26053324
83	0xbd0bf3d9	-0.034168098
84	0x3da4db8c	0.08049688
85	0x3e024dc0	0.12724972
86	0x3e2f4100	0.1711464
87	0x3df62d82	0.12020399
88	0x3e147a03	0.14499669
89	0x3e27b5f2	0.16378
90	0x3db1f587	0.08689409
91	0x3e2d9713	0.16952161
92	0x3c93d0ab	0.018043837
93	0x3e0dc62c	0.13845128
94	0x3d756614	0.059911802
95	0x3d9744e4	0.07386187
96	0x3e3a0634	0.18166429
97	0x3dcf7989	0.10130603
98	0x3cef312a	0.029198248
99	0xbd435926	-0.04769244
100	0x3cfcab32	0.030843351
101	0x3c75ed79	0.015010231
102	0x3e0c511a	0.13702813
103	0x3d9f78f1	0.077867396
104	0x3de5ba54	0.1121718
105	0x3e0d460e	0.13796255
106	0x3d0f32cf	0.034960564
107	0x3e0e2a3f	0.13883303
108	0x3d4e5bf8	0.050380677
109	0x3df49e28	0.119442284
110	0x3e1c1bcd	0.1524498
111	0x3dcb08cf	0.099137895
112	0xbd1dbba9	-0.038509045
113	0x3de1cb32	0.110250846
114	0x3e52cc54	0.20585757
115	0x3daa98ce	0.083299264
116	0x3cfbb4f2	0.03072593
117	0x3e107279	0.14106168
118	0x3dfd6c89	0.12374217
119	0x3dccc8b5	0.09999219
120	0x3e0d7b9f	0.13816689
121	0xbd345b25	-0.044032235
122	0x3da5f7c4	0.08103898
123	0x3cb679da	0.0222749
124	0xbbe8f6d7	-0.0071095037
125	0x3ddb1ad4	0.106984764
126	0x3dbf06f8	0.09327501
127	0x3e236448	0.15956223
128	0x3e48becf	0.19604038
129	0x3d99c16f	0.07507598
130	0x3d7d2a73	0.06180806
131	0x3d819daa	0.063289
132	0x3e048af8	0.12943637
133	0x3ddd3f73	0.108031176
134	0x3dc36163	0.095400594
135	0x3d306405	0.043064136
136	0x3e2b0e92	0.16704777
137	0x3dea5ad1	0.11443103
138	0x3da53074	0.08065882
139	0x3e0a5d57	0.13512169
140	0x3da14980	0.07875347
141	0x3e0b3678	0.13594997
142	0x3e2e1cdd	0.17003198
143	0x3bbf9666	0.0058467863
144	0x3d1ab73f	0.037772413
145	0x3e772dfe	0.24138638
146	0x3d7438dc	0.059624538
147	0x3db263e0	0.08710456
148	0x3de08073	0.10962
149	0x3ca44884	0.02005411
150	0x3d70f50a	0.058827437
151	0x3e375f53	0.17907457
152	0x3d5f65ac	0.05454032
153	0x3e4b08dc	0.19827598
154	0x3da7ce06	0.08193593
155	0x3c8f2872	0.01747534
156	0x3dda9900	0.10673714
157	0xbad732e4	-0.0016418365
158	0xbd4a9d1d	-0.04946624
159	0x3dfee1ec	0.12445435
160	0x3dea5e38	0.11443752
161	0x3e50e0fd	0.20398326
162	0x3e3d7f87	0.18505679
163	0x3e3e62b1	0.18592335
164	0x3e2bbe45	0.16771801
165	0x3df13fa0	0.11779714
166	0x3d499e80	0.049223423
167	0x3e80cab1	0.2515464
168	0x3d97c291	0.074101575
169	0x3e286149	0.16443361
170	0x3db9567c	0.09049699
171	0x3d5ceb32	0.053935237
172	0xbd4af13d	-0.04954647
173	0x3dc27adc	0.0949609
174	0x3da618a2	0.08110167
175	0x3e2973b4	0.16548043
176	0x3d902721	0.07038713
177	0x3e0b8f38	0.13628852
178	0x3deea448	0.11652428
179	0xbc03e8a9	-0.008051076
180	0x3e1a610d	0.15076084
181	0x3d742e12	0.05961425
182	0x3dfddf39	0.12396092
183	0x3d612bdb	0.054973464
184	0x3da4863f	0.08033418
185	0x3e9ef3b1	0.31045297
186	0x3e0c6d33	0.13713531
187	0x3dccbe3a	0.0999722
188	0x3dd15729	0.102217026
189	0x3e3d913d	0.18512435
190	0x3e07bc0b	0.13255326
191	0x3e36c6c0	0.17849255
192	0x3e383064	0.1798721
193	0x3e27ea8e	0.1639807
194	0x3e37dcc3	0.17955308
195	0x3e64811f	0.22314881
196	0x3e8793b8	0.26479888
197	0x3e201ee2	0.15636781
198	0x3e125c82	0.14293101
199	0x3e04d69d	0.12972493
200	0x3e253e7a	0.16137114
201	0x3e338e44	0.17534739
202	0xbc5715ae	-0.013127727
203	0x3d406255	0.046968777
204	0x3d6decc1	0.058087114
205	0x3d626054	0.055267647
206	0x3e40d021	0.18829395
207	0x3e0f41af	0.139899
208	0x3e0003bb	0.12501423
209	0x3d3acb3e	0.045603983
210	0xbd593901	-0.05303288
211	0x3ce4c2fc	0.027925007
212	0x3e3d04d6	0.18458876
213	0x3e153f9f	0.14575051
214	0x3d2c55ac	0.04207389
215	0x3e6730bf	0.22577189
216	0x3d686308	0.05673507
217	0x3e0bd134	0.13654023
218	0x3e06beb5	0.13158686
219	0x3dbdb4eb	0.09263023
220	0x3e6e2820	0.23257494
221	0x3e2ba107	0.16760646
222	0x3d2c5f47	0.04208305
223	0x3c041227	0.0080609685
224	0x3e87879e	0.26470655
225	0x3e3d2397	0.18470608
226	0x3e159151	0.14606215
227	0x3d219e28	0.03945747
228	0x3e28973f	0.16463946
229	0xbc9bf1c0	-0.019036174
230	0x3e21e6f6	0.15810761
231	0x3e5d135f	0.2158942
232	0x3e2f74df	0.17134427
233	0x3e271697	0.16317211
234	0x3e21dcdc	0.15806907
235	0x3e1c4343	0.15260033
236	0x3c8af72b	0.016963562
237	0x3dde32e7	0.108495526
238	0x3dc6d135	0.09707872
239	0xbe3cf0be	-0.18451211
240	0x3d07b555	0.033131916
241	0x3c40f0d2	0.011776166
242	0x3da9df6a	0.08294566
243	0x3db8b47e	0.09018801
244	0x3daa35bf	0.083110325
245	0x3e0e1f29	0.13879074
246	0x3e7e9696	0.24862131
247	0x3d7dac40	0.06193185
248	0x3e301314	0.17194778
249	0x3d0e643e	0.034763567
250	0x3d8abb25	0.06773976
251	0x3ddd0931	0.10792769
252	0x3e45ebc8	0.19328225
253	0x3e55cfd8	0.20880067
254	0x3e02b126	0.1276289
255	0x3da04e89	0.078274794

l2.bias f4 [256]
0	0x3e0c9daa	0.13732019
1	0x3d9aa66d	0.075512744
2	0x3e2b9a88	0.16758168
3	0x3e0c9dd4	0.13732082
4	0x3e3dda9f	0.18540429
5	0xbd499ca3	-0.049221646
6	0xbd8fb950	-0.070177674
7	0x3e82fe58	0.25584674
8	0xbdfc7d84	-0.12328628
9	0x3e32cf4b	0.17461888
10	0x3e80f126	0.25183982
11	0x3e8770ca	0.2645324
12	0x3e7a6da9	0.24455895
13	0x3e8eac4e	0.27865833
14	0xbc451bdf	-0.012030571
15	0xbd8ee8d2	-0.06978001
16	0x3e6adc13	0.22935514
17	0xbb4566a2	-0.0030120988
18	0x3e1388da	0.14407673
19	0x3e284c26	0.16435298
20	0x3e6e34f4	0.23262388
21	0x3e659b48	0.22422516
22	0x3cf3512b	0.02970179
23	0xbdab20ea	-0.08355887
24	0xbe331f84	-0.17492491
25	0x3e44dcfa	0.19224921
26	0x3e7e2f93	0.24822836
27	0x3e47f888	0.19528401
28	0xbc2a6a2b	-0.010401289
29	0xbd461792	-0.048362322
30	0x3c9cdcba	0.01914822
31	0x3d73b471	0.059498254
32	0xbdf509b5	-0.11964742
33	0xbea10e54	-0.31456244
34	0xbe077a5a	-0.13230267
35	0xbc31121e	-0.010807542
36	0xbe26f571	-0.16304566
37	0xbd9a4e82	-0.075345054
38	0x3e7f5622	0.24935201
39	0x3d408687	0.047003295
40	0x3e086c64	0.13322598
41	0x3e1a1661	0.150476
42	0x3e736131	0.23767544
43	0x3e4f469d	0.2024178
44	0x3e66199d	0.22470708
45	0x3e81c5a4	0.253461
46	0x3e971a71	0.2951236
47	0x3cac65ad	0.021044577
48	0x3e6cf21b	0.23139231
49	0xbe44be6e	-0.19213268
50	0x3e408d23	0.1880384
51	0x3e75da72	0.24009112
52	0xbe430e23	-0.19048361
53	0x3b3c5b27	0.0028740854
54	0x3e8a9920	0.2706995
55	0xba68687d	-0.00088656676
56	0xbe363c1d	-0.17796369
57	0x3e83a23e	0.25709718
58	0xbe13411e	-0.14380309
59	0x3d044381	0.03229094
60	0x3e615aac	0.22007245
61	0xbe8ba475	-0.27273908
62	0x3e85bcb8	0.26120543
63	0xbe07c33c	-0.1325807
64	0xbd52b8ec	-0.051445886
65	0x3e8069dc	0.25080764
66	0xbc87520d	-0.016518617
67	0x3e31b7ee	0.1735532
68	0x3e483289	0.19550528
69	0xbdb4d12d	-0.088289596
70	0x3e664465	0.22487028
71	0xbebc3a4f	-0.36763236
72	0xbe0695d2	-0.1314309
73	0x3e8ee1df	0.279067
74	0xbe241428	-0.16023314
75	0xbe099191	-0.13434435
76	0x3e1ee15f	0.1551566
77	0x3e4997c8	0.19686806
78	0xbe131dc7	-0.14366828
79	0x3e3336b9	0.17501344
80	0x3e380aad	0.17972822
81	0xbd317b72	-0.043330617
82	0x3e5f7f2d	0.21825857
83	0x3e4cae3b	0.19988339
84	0x3d3753c7	0.04475763
85	0x3e363f56	0.17797598
86	0xbb7af267	-0.0038291456
87	0x3e62d73b	0.22152416
88	0xbde1fba6	-0.11034326
89	0x3d15ab46	0.036540292
90	0x3e80112d	0.25013104
91	0x3d0c557d	0.034261215
92	0x3e440351	0.1914189
93	0x3d1749cf	0.036935624
94	0x3e2d1546	0.16902646
95	0x3e147667	0.14498292
96	0x3e8947ea	0.2681268
97	0x3e349f55	0.17638905
98	0xbd6d2e86	-0.057905696
99	0x3bb4a2f2	0.0055125887
100	0x3e4f0bd7	0.2021936
101	0x3e31f3e8	0.17378199
102	0x3e70fb25	0.23533304
103	0xbeb56dc6	-0.35435313
104	0x3d83cebc	0.06435916
105	0xbdbf6423	-0.093452714
106	0x3e3d7130	0.18500209
107	0xbe6c88ec	-0.23099107
108	0xbe7b0dc6	-0.24516973
109	0x3e23dc71	0.1600206
110	0x3e691b9c	0.22764438
111	0x3d034760	0.03205049
112	0x3be96f3b	0.0071238554
113	0x3e82ed2f	0.25571582
114	0x3e7e8175	0.24854071
115	0xbe834843	-0.2564107
116	0x3e59c09f	0.21264885
117	0xbe5a90a6	-0.21344241
118	0x3cfda9f2	0.030964825
119	0x3e787b17	0.24265705
120	0x3e5916c5	0.21200092
121	0x3e345c72	0.1761339
122	0x3e41c321	0.18922092
123	0x3e71e965	0.23624189
124	0x3e49d65e	0.19710681
125	0x3e87401a	0.26416093
126	0x3e727dca	0.23680797
127	0x3e2f2c39	0.17106713
128	0x3e83dc56	0.2575404
129	0x3e136d4e	0.14397165
130	0x3e7e9b7d	0.24864002
131	0x3e6a7df3	0.22899608
132	0xbd717699	-0.058950994
133	0x3e96cb93	0.2945219
134	0x3da7647e	0.08173464
135	0x3e452bb4	0.19254953
136	0xbe74c58e	-0.23903486
137	0x3c286a7b	0.010279293
138	0x3c350987	0.011049635
139	0x3e30c518	0.17262685
140	0x3e5420ed	0.20715685
141	0xbc05e0ec	-0.008171301
142	0x3e7e35e4	0.24825245
143	0x3e35deac	0.17760724
144	0x3e3e9ae6	0.18613777
145	0x3e230e13	0.15923338
146	0x3e72b14e	0.23700449
147	0x3e36c72b	0.17849414
148	0x3e55cec9	0.20879664
149	0x3d2688c1	0.040657762
150	0xbe3817c8	-0.17977822
151	0x3e774e15	0.2415088
152	0xbe685af4	-0.22690946
153	0x3e85b19a	0.26112062
154	0x3e642f29	0.22283615
155	0x3e281784	0.1641522
156	0x3e97d0ab	0.2965139
157	0xbca67c2b	-0.02032288
158	0x3e59cdbe	0.2126989
159	0xbb956613	-0.0045592873
160	0x3e6941c8	0.22779
161	0x3e8318f9	0.2560499
162	0x3e829a99	0.25508574
163	0x3e389c6c	0.1802842
164	0xbe4569ed	-0.19278689
165	0xbcadf55f	-0.021235166
166	0x3d013230	0.031542003
167	0xbe8be5e3	-0.27323827
168	0x3e357e35	0.17723925
169	0xbe8f18f3	-0.27948722
170	0x3e8b159d	0.27164927
171	0x3d4eef79	0.050521348
172	0x3e62bab5	0.22141536
173	0x3e7ef693	0.24898748
174	0xbd078936	-0.03308984
175	0x3c9b1a02	0.0189333
176	0xbcf45cfc	-0.029829495
177	0xbc105413	-0.008809107
178	0x3e7d1c6d	0.24717875
179	0xbd95b30b	-0.0730954
180	0x3e47d8cd	0.19516297
181	0x3e4fed2f	0.20305322
182	0xbd630ea1	-0.055433873
183	0x3e2d4030	0.16919017
184	0xbe6fd700	-0.2342186
185	0x3e46bac0	0.19407177
186	0x3e6a0dd5	0.22856839
187	0x3c2d6c63	0.010584923
188	0xbcff0779	-0.031131493
189	0xbc35fc87	-0.0111075705
190	0x3e05f2ad	0.13080855
191	0x3e6da481	0.23207285
192	0x3d2d57f1	0.042320196
193	0x3e5b85ef	0.2143781
194	0x3d05816f	0.03259414
195	0x3e695834	0.22787553
196	0x3e7161a6	0.23572406
197	0xbe0d3328	-0.13789046
198	0x3e2eb2be	0.17060372
199	0x3e7711d3	0.24127893
200	0x3e617661	0.22017814
201	0xbd748bb3	-0.05970354
202	0x3e819ebb	0.25316414
203	0xbdcadcbf	-0.09905385
204	0x3b5bba9c	0.0033527976
205	0xbe167273	-0.14692096
206	0x3e1a210b	0.15051667
207	0x3caeea0d	0.021351838
208	0xbd2eaf4f	-0.042647656
209	0xbd5bc0cb	-0.05365066
210	0x3e6a33a3	0.2287126
211	0xbd5ef318	-0.05443105
212	0xbcd24d8b	-0.025671741
213	0x3d3240f7	0.043518987
214	0xbe98fc31	-0.29879907
215	0x3d7523c5	0.059848566
216	0x3e8f5084	0.27991116
217	0x3e73f180	0.23822594
218	0xbddedaf4	-0.10881606
219	0xbdb936c4	-0.09043649
220	0x3e72cc36	0.23710713
221	0xbd485a77	-0.0489144
222	0xbd2c398f	-0.04204708
223	0xbc9a4418	-0.018831298
224	0xbea0fae6	-0.3144142
225	0x3e8714b2	0.26382977
226	0x3e309148	0.1724292
227	0x3e71538f	0.23567031
228	0xbe4f8850	-0.20266843
229	0x3e2af4e7	0.16694985
230	0x3e187ae2	0.14890626
231	0x3e3735a3	0.17891555
232	0x3e7dc2d8	0.24781358
233	0xbd6bb7ac	-0.05754821
234	0xbc8e24f1	-0.0173516
235	0x3e863553	0.26212558
236	0xbd6d1b7a	-0.05788753
237	0xbe505b28	-0.20347273
238	0x3e4d969b	0.20076983
239	0xbea3daa4	-0.32002747
240	0xbd07f718	-0.03319463
241	0x3e8357c3	0.25652894
242	0x3e52ca71	0.20585038
243	0x3e3fc19c	0.187262
244	0x3e0e4888	0.13894856
245	0x3e61447f	0.21998785
246	0x3e803121	0.25037482
247	0x3d096e76	0.03355261
248	0x3e552f54	0.20818835
249	0xbe988efb	-0.29796585
250	0x3e80cab5	0.25154653
251	0x3c89b2a9	0.016808825
252	0xbc0619ec	-0.008184891
253	0x3e5cf97f	0.2157955
254	0x3e8f75e4	0.2801963
255	0x3e4d3cc2	0.20042709

l3.weight f4 [1, 256]
0	0x3e4c1817	0.19931065
1	0xbfc5d522	-1.5455668
2	0x3e3accbb	0.18242161
3	0x3e4f04e6	0.20216712
4	0x3e349970	0.17636657
5	0xbd11af2a	-0.03556744
6	0xbbdcf680	-0.0067432523
7	0x3e54022d	0.20703955
8	0xbff15653	-1.8854469
9	0x3e4ff441	0.20308019
10	0x3e458f32	0.19292906
11	0x3e2e2944	0.17007929
12	0x3e2fd381	0.17170526
13	0x3e2d9791	0.16952349
14	0xbc6c292b	-0.014414112
15	0xbf3e7c61	-0.7440854
16	0x3e24f602	0.1610947
17	0xbce85061	-0.02835864
18	0x3e51ae08	0.20476544
19	0x3e39f208	0.18158734
20	0x3e53cc27	0.20683347
21	0x3e30452e	0.1721389
22	0xbf655725	-0.89586097
23	0xbfbed29e	-1.4908025
24	0xbf3c0ef7	-0.73460335
25	0x3e44ae89	0.19207205
26	0x3e5a9d7e	0.21349141
27	0x3e2b4e32	0.16729048
28	0xbfa2b74a	-1.2712185
29	0xbf279a19	-0.6546951
30	0xbfa10016	-1.2578151
31	0xbf9d1c72	-1.2274306
32	0xbf676d61	-0.90401274
33	0xbf3e7902	-0.74403393
34	0xbf16161e	-0.586275
35	0x3ae08f95	0.0017132635
36	0xbf62528e	-0.8840722
37	0xbfd10fdc	-1.6332965
38	0x3e3cdfa8	0.18444693
39	0x3d31ea2f	0.043436226
40	0x3e59f6b9	0.21285523
41	0x3e546b5b	0.20744078
42	0x3e44d1d4	0.19220668
43	0x3e216383	0.15760617
44	0x3e3064fd	0.17226024
45	0x3e55590d	0.20834751
46	0x3e217426	0.15766963
47	0xbd4a36f1	-0.049368802
48	0x3e39f246	0.18158826
49	0xbf578de9	-0.8420091
50	0x3e3c8b37	0.18412481
51	0x3e24944a	0.16072193
52	0xbf4c99fe	-0.79922473
53	0xbf920aa2	-1.1409495
54	0x3e2fb8ee	0.17160389
55	0xbd1b5f30	-0.037932575
56	0xbf80c452	-1.0059912
57	0x3e4b184d	0.19833489
58	0xbf071092	-0.5275966
59	0xbfa2febd	-1.273399
60	0x3e571ae3	0.2100635
61	0xbfa729e2	-1.3059657
62	0x3e360e3f	0.17778872
63	0xbf31ade5	-0.69405967
64	0xbf26db08	-0.65177965
65	0x3e3d5e25	0.18492945
66	0xbf26e9a6	-0.6520027
67	0x3e3c1c21	0.18370105
68	0x3e23324d	0.15937157
69	0xbf5262d6	-0.8218206
70	0x3e4ec928	0.20193923
71	0xbf42fc9e	-0.76166713
72	0xbf5c4aac	-0.8605144
73	0x3e255459	0.16145457
74	0xbf223862	-0.63367283
75	0xbf19c2af	-0.6006269
76	0x3e3af2d4	0.18256694
77	0x3e28e6c1	0.16494276
78	0xbf291af0	-0.6605673
79	0x3e2b547e	0.1673145
80	0x3e34cb3b	0.17655651
81	0xbc4cd657	-0.0125022745
82	0x3e5abf2d	0.2136199
83	0x3e3b3ce2	0.18284944
84	0xbc499d07	-0.012305505
85	0x3e4b06ba	0.19826785
86	0xbdd8910e	-0.10574542
87	0x3e209754	0.15682727
88	0xbfaaf25f	-1.3355216
89	0xbd0374dd	-0.03209387
90	0x3e4c4453	0.19947939
91	0xbb0d9b0f	-0.0021607315
92	0x3e2a21d4	0.16614467
93	0xbc88f1fa	-0.016716946
94	0x3e2d1942	0.16904166
95	0x3e50908c	0.2036764
96	0x3e25cddc	0.1619181
97	0x3e409f88	0.18810856
98	0xbf084242	-0.532261
99	0xba5b873e	-0.00083743397
100	0x3e3aab16	0.18229327
101	0x3e3d436d	0.18482752
102	0x3e554571	0.20827271
103	0xbf6d994a	-0.92812026
104	0xbf40ee6f	-0.7536382
105	0xbf51d1db	-0.8196084
106	0x3e330c53	0.1748517
107	0xbf1f2507	-0.62165874
108	0xbf3a5fad	-0.7280224
109	0x3e3c875d	0.18411012
110	0x3e51a971	0.20474793
111	0xbc63f677	-0.013913742
112	0xbf9097a9	-1.1296283
113	0x3e38bec9	0.18041529
114	0x3e38c2a2	0.18042997
115	0xbf2ec54d	-0.6826981
116	0x3e3e5797	0.185881
117	0xbf4375cb	-0.7635161
118	0xbf7cf811	-0.9881602
119	0x3e40a15c	0.18811554
120	0x3e553bae	0.20823547
121	0x3e3086f6	0.17238984
122	0x3e275fb4	0.16345102
123	0x3e394928	0.18094313
124	0x3e4b5de0	0.19860029
125	0x3e396507	0.18104945
126	0x3e21d17a	0.15802565
127	0x3e535939	0.20639504
128	0x3e40f09b	0.18841784
129	0x3e4e375a	0.20138302
130	0x3e497668	0.19674075
131	0x3e53de04	0.20690161
132	0x3d3b57f2	0.045738168
133	0x3e2a6fda	0.1664423
134	0xbf2ddaa8	-0.6791177
135	0x3e254f73	0.16143589
136	0xbf7a4e61	-0.97775847
137	0xbc615e7c	-0.013755437
138	0xbf9b8d74	-1.2152543
139	0x3e3d5a43	0.18491463
140	0x3e53a88c	0.20669764
141	0xbfa7057e	-1.3048551
142	0x3e309d1c	0.17247432
143	0x3e50de7c	0.20397371
144	0x3e35745c	0.17720169
145	0x3e5134d5	0.2043031
146	0x3e2e1714	0.17000991
147	0x3e4e10ac	0.20123547
148	0x3e3a0f75	0.18169959
149	0xbd4641a1	-0.048402432
150	0xbf40533b	-0.75127
151	0x3e59e291	0.21277834
152	0xbf2a6fa3	-0.66576594
153	0x3e499924	0.19687325
154	0x3e22688a	0.15860191
155	0x3e520a8c	0.20511836
156	0x3e2660f3	0.1624792
157	0xbf4562f7	-0.77104133
158	0x3e3fe379	0.18739118
159	0xbd19247d	-0.037388314
160	0x3e4db572	0.20088747
161	0x3e446ce2	0.1918216
162	0x3e40d06e	0.1882951
163	0x3e4cd5b9	0.20003404
164	0xbf4bf969	-0.79677445
165	0xbcda0aac	-0.026616417
166	0xbd1cfa53	-0.038324665
167	0xbf4ec841	-0.80774313
168	0x3e3966ba	0.18105593
169	0xbf2f1d4c	-0.6840408
170	0x3e2819fa	0.1641616
171	0xbf9fb2a7	-1.2476395
172	0x3e37e5b4	0.17958719
173	0x3e3cbbfd	0.18431087
174	0xbbf03d64	-0.007331537
175	0xbc2cb5e0	-0.010541409
176	0xbd1608b6	-0.0366294
177	0xbf97af4c	-1.1850371
178	0x3e4b3752	0.19845322
179	0xbf1abe2b	-0.60446423
180	0x3e5733df	0.21015881
181	0x3e538d04	0.20659262
182	0xbd20b9a2	-0.039239533
183	0x3e4b52d9	0.19855823
184	0xbfad9ec5	-1.3564078
185	0x3e49b6cf	0.19698642
186	0x3e2a452e	0.16627952
187	0xbfc93229	-1.5718433
188	0xbd1b7792	-0.037955828
189	0xbc45bb82	-0.012068631
190	0xbf8ba958	-1.0911055
191	0x3e5af2aa	0.21381631
192	0xbd207e99	-0.039183233
193	0x3e3eaec1	0.18621351
194	0xbcb0f7dc	-0.021602564
195	0x3e4dc6ae	0.20095322
196	0x3e2bf315	0.16791947
197	0xbf1f3b44	-0.6219981
198	0x3e4105d5	0.18849881
199	0x3e323d09	0.17406096
200	0x3e3cd235	0.18439563
201	0xbd132251	-0.0359214
202	0x3e2546ea	0.16140333
203	0xbf3f5f1d	-0.74754506
204	0xbc84e86a	-0.016224105
205	0xbf0d1988	-0.5511708
206	0x3e3e412f	0.18579553
207	0xbce30199	-0.027710723
208	0xbd176c1b	-0.03696833
209	0xbb9771a6	-0.0046217022
210	0x3e2276f5	0.15865691
211	0xbcae42fb	-0.021272173
212	0xbfbc309a	-1.4702332
213	0xbc6eea91	-0.014582292
214	0xbf3664f1	-0.71247774
215	0xbf88956e	-1.0670602
216	0x3e34b16c	0.17645806
217	0x3e51a20e	0.20471975
218	0xbf3e572b	-0.7435176
219	0xbf0faf35	-0.5612672
220	0x3e3901a1	0.18067028
221	0xbf2a6d8b	-0.665734
222	0xbd5a6b2c	-0.053324863
223	0xbf3faf77	-0.74877113
224	0xbf2f9dda	-0.6860024
225	0x3e295d56	0.16539511
226	0x3e2d5be9	0.16929592
227	0x3e496b86	0.19669923
228	0xbf28ad2e	-0.6588925
229	0x3e5b0ae2	0.2139087
230	0x3e57fb44	0.21091944
231	0xbf8b1f35	-1.0868899
232	0x3e21c538	0.15797889
233	0xbca59323	-0.020211762
234	0xbd2a1358	-0.041522354
235	0x3e2da72e	0.16958305
236	0xbca07d3e	-0.01959097
237	0xbf8bacd3	-1.0912117
238	0x3e2b3ef0	0.16723228
239	0xbf1e7d79	-0.61910206
240	0xbd47f009	-0.0488129
241	0x3e34d78d	0.17660351
242	0x3e5b04b7	0.21388517
243	0x3e30f10b	0.1727945
244	0x3e4d8921	0.20071842
245	0x3e40f1d8	0.18842256
246	0x3e3c9760	0.1841712
247	0xbb871bdb	-0.0041231937
248	0x3e21caec	0.15800065
249	0xbf1902df	-0.59770006
250	0x3e3a513f	0.18195055
251	0xbc166098	-0.009178303
252	0xbd4c293f	-0.049844023
253	0x3e303242	0.17206672
254	0x3e21b8ef	0.15793203
255	0x3e338d89	0.1753446
