model/hopper-medium-v2.pt (torch, 278359 bytes, 5 tensors)

l1.weight f4 [256, 11]
000000 69 77 8d 3e 48 77 36 be 85 20 55 3d 1f 0b e0 bd
       0.27630165 -0.1781894 0.052032966 -0.10939621
000010 dd 78 29 bf 72 fe 2a 3e 77 e8 aa 3d 1b 59 41 3e
       -0.6620005 0.16698626 0.083451204 0.18881647
000020 fa b7 9d be ac 0d 59 3e 7c 13 3e 3d 93 09 70 bd
       -0.30804425 0.21196622 0.0464053 -0.05860288
000030 56 17 6b be f5 42 16 3d 88 5a 19 be dd 84 ce 3e
       -0.2295812 0.03668495 -0.14975941 0.40335742
000040 49 a6 6a 3e ee 65 af 3e d5 6a 6d be 89 78 8a 3e
       0.22914995 0.34257454 -0.23185284 0.27045086
000050 3f fb 0b 3e 5f c5 3c be 6c e7 86 3d 80 f1 e6 3e
       0.13670062 -0.18434666 0.06587109 0.45106125
000060 aa af 47 bf 32 80 d2 3e 81 76 e8 bc 7f 87 03 3f
       -0.7800242 0.4111343 -0.02837682 0.51378626
000070 24 37 2a be cc 99 14 3f 09 2c 58 bf 68 75 a2 be
       -0.16622597 0.58047175 -0.8444219 -0.317302
000080 b6 dd bd be 86 3a dc 3e a0 23 d9 be f3 ee 07 3f
       -0.37083215 0.430134 -0.42409992 0.5309898
000090 9a 19 18 3e ef 4d 7d 3e 60 f4 9b be f9 e0 a8 bd
       0.14853516 0.2473676 -0.3045988 -0.08246035
0000a0 08 58 96 be fe 57 02 3f 5f 37 b0 3e 33 e6 b3 3d
       -0.29364038 0.50915515 0.34417245 0.087841414
0000b0 af 49 39 bd bb a0 a9 3e d3 c1 2c bf ae 69 f2 3e
       -0.045236286 0.3313044 -0.6748325 0.47346252
0000c0 6a 9f 0f 3f 9a 2d c8 be 87 12 ca be c6 f1 51 be
       0.5610262 -0.3909729 -0.3946726 -0.20502385
0000d0 75 e3 92 3d 47 00 51 3e 11 2f c1 3b 72 d6 7a 3e
       0.0717229 0.20410262 0.0058955033 0.24495867
0000e0 76 84 f8 bc be de 52 be 4b 73 6a be c8 fc fe be
       -0.0303366 -0.20592782 -0.22895543 -0.49802232
0000f0 24 be b6 bb d4 0e c3 be 4a ac 49 3c 18 7d c4 3d
       -0.0055768657 -0.3809725 0.012309143 0.09594172
000100 73 06 ce be 37 e4 9d 3e c9 da 06 bf 9c bc 06 bf
       -0.40239295 0.30838177 -0.5267759 -0.52631545
000110 cb 98 6f 3e 11 7e 0e 3d eb 97 9f 3e 92 2d 9b be
       0.2339813 0.034788195 0.31170592 -0.30308205
000120 5f da c1 3e 06 ca 28 3d 87 c9 aa bd 6e fa 34 3e
       0.37861916 0.04120829 -0.083392195 0.17673656
000130 64 d6 7a be aa 06 b6 be 38 c4 ac be 82 bd af 3e
       -0.24495846 -0.3555196 -0.33743453 0.3432427
000140 b4 29 87 3e 74 aa ab 3e 3d 98 62 bf f1 c9 8d 3e
       0.26399004 0.33528483 -0.8851355 0.27693132
000150 e5 0a 75 3e b8 26 a0 be fe 27 4d bd 2b 42 a5 be
       0.23929937 -0.3127954 -0.050086968 -0.32277045
000160 6c 4c af 3e a9 a9 c4 bd 1d 62 10 bf db b0 81 bd
       0.34237993 -0.096026726 -0.5639971 -0.06332561
000170 8b 2a 03 bf ad 5f a4 be cb 87 6d 3e 66 6a 9c 3d
       -0.5123679 -0.32104245 0.23196332 0.076374814
000180 a7 2f 7a 3e 42 06 29 be c8 4e d1 3e 7f f5 93 3d
       0.2443224 -0.16506293 0.40880418 0.07224559
000190 43 48 e8 bd 32 2f 2a 3e 34 32 50 be 27 61 c8 3d
       -0.11341908 0.16619566 -0.20331651 0.09784155
0001a0 ce 2d 2f 3e 55 04 94 be 02 c5 e6 bd d4 7f 90 3b
       0.17107317 -0.28909555 -0.11268045 0.0044097695
0001b0 64 b7 fd bb 29 e4 cd bd c8 65 d2 3e 6d 55 b0 3e
       -0.007742809 -0.10053284 0.41093278 0.34440175
0001c0 bc e9 a1 be f8 40 4d be ab c5 11 3f f0 57 00 be
       -0.31623638 -0.20044315 0.5694224 -0.12533545
0001d0 de d5 ae be 2d f8 32 3d 27 c3 6e be c8 f6 a8 bc
       -0.34147543 0.04369371 -0.23316632 -0.020625487
0001e0 d3 85 d1 3e e3 26 c1 bd 5b 7e 44 3e 9e 13 48 3e
       0.40922412 -0.09431245 0.19188826 0.19538733
0001f0 f2 e2 b5 be 95 07 2e 3e aa 8b 38 3e 8a ad d2 be
       -0.35524708 0.1699508 0.18022028 -0.41148025
000200 41 ec 96 bd 7c 6e f8 bc 04 da 79 be de fb c0 be
       -0.073692806 -0.03032612 -0.24399573 -0.3769216
000210 0a b8 9d 3b 51 25 a9 3e f5 0b 74 3e b0 11 51 3e
       0.004813199 0.33036283 0.23832686 0.20416903
000220 98 6e c7 3d 2a 95 f7 bb 0f ab 65 be d7 ec 5f be
       0.09737891 -0.0075556235 -0.22428535 -0.21867691
000230 ed 37 2a 3f b1 8e fd 3d c5 4b b3 3e 70 b6 d9 3d
       0.66491586 0.12380732 0.35018745 0.106305
000240 d8 1f 4a 3e a6 be 74 bd 71 50 88 3c 39 d1 b1 be
       0.1973871 -0.05975213 0.01663992 -0.34729937
000250 59 45 a9 bd 7b 1c 84 3e ac 26 b0 3b c3 d2 08 be
       -0.0826518 0.2580298 0.005375704 -0.13361649
000260 5d 1a 40 3d 6a 93 c0 3e b6 7b fd 3e a5 bc b0 bd
       0.046900142 0.37612468 0.49508446 -0.08629731
000270 cd dd b6 be ac 09 88 bd 0c de e0 be b1 57 6f 3e
       -0.35716096 -0.0664247 -0.43919408 0.23373295
000280 1c 1e 5f bb b0 27 27 3e 9d bb 61 be 8d 86 38 be
       -0.0034045046 0.16323733 -0.22044225 -0.18020077
000290 92 be 64 3e 1e c5 97 3e b0 2b 63 3e 3a 11 80 be
       0.22338322 0.29642576 0.22184634 -0.25013143
0002a0 26 e4 1f be 9e 18 d7 be 3c 65 53 be c5 fa 33 3e
       -0.15614375 -0.4201097 -0.20644087 0.1757613
0002b0 78 9f 2e 3e cf 50 16 be df 00 26 3e c0 2f fd 3d
       0.1705302 -0.14679264 0.1621127 0.12362623
0002c0 fb 4d 4a be 8d 0b 54 3e 3b d1 dd 3e d7 fc e2 bc
       -0.1975631 0.20707531 0.43323693 -0.027708454
0002d0 65 2b a1 3e 03 a4 43 be 55 45 26 bf ed f6 de 3c
       0.3147842 -0.19105534 -0.6494954 0.027217353
0002e0 94 61 ec 3e 73 ac 46 3e 30 f9 b7 3e 3f 47 7a be
       0.46168196 0.19401722 0.35932302 -0.2444124
0002f0 9a 7c c5 3e c7 26 cd 3e d8 ae e3 bc af 3c c9 3e
       0.38571626 0.40068647 -0.027793333 0.3930411
000300 db 29 bd be 7c 47 f4 3e b9 e8 67 be da e5 cd 3d
       -0.36945996 0.47710788 -0.2264737 0.10053606
000310 f6 2f e4 3d c4 23 18 be e8 8d 2a be 08 de 88 3d
       0.1114196 -0.14857394 -0.16655695 0.06682974
000320 60 38 9b be 86 47 8d 3e 7e b5 85 be b8 59 93 be
       -0.30316448 0.2759363 -0.2611503 -0.28779387
000330 62 17 90 3e 36 ec c1 bd b3 2e 1f be 11 a2 44 3e
       0.2814284 -0.09468882 -0.15545158 0.19202448
000340 df 95 eb be 16 8e 33 be 12 6d aa 3d 2c de e8 3c
       -0.4601278 -0.1753467 0.08321585 0.028426252
000350 eb 51 cf 3e bd f7 8c bd b8 cf 02 be ea 0e b1 3e
       0.40492186 -0.0688319 -0.12774551 0.3458169
000360 52 d4 84 be 6b 69 b6 3e a1 02 c3 be 42 23 e0 be
       -0.25943238 0.35627303 -0.38087943 -0.437769
000370 81 97 c1 3e ca 4b 17 bd 00 5e dc 3d 5a 3f 8e 3e
       0.378109 -0.036937512 0.107601166 0.27782708
000380 b1 9b 95 bd e9 6b cd be 45 13 8c 3e 12 2e 9f 3e
       -0.073050864 -0.4012139 0.2735845 0.31089836
000390 1d ac 1b 3e eb be a3 3c c2 a8 ad 3e da 1a ff 3d
       0.15202375 0.019988498 0.33917814 0.124562934
0003a0 04 63 b4 be f6 30 c0 be 18 7e 8c 3c 10 3e 35 3e
       -0.35231793 -0.37537354 0.01714997 0.17699456
0003b0 42 25 23 3e 77 e1 39 bf f1 bd 93 3d 57 fa c1 3e
       0.15932181 -0.7260966 0.07213963 0.37886307
0003c0 5f 5e 49 3e 10 ab 59 3e 37 51 44 be 56 5b ad be
       0.19664906 0.21256661 -0.19171606 -0.33858746
0003d0 a9 21 8a 3e af c5 e6 3e 02 f9 cb 3e 6f 4c 3d be
       0.26978806 0.45072696 0.39838415 -0.18486188
0003e0 8e 59 bc be 30 fc 3b 3d 95 63 96 bd 58 2f 25 be
       -0.36787075 0.0458948 -0.073432125 -0.16131341
0003f0 18 3b d9 3d d2 64 ea bd c0 3b a1 3d b5 4d d1 be
       0.10606974 -0.11445011 0.078727245 -0.40879598

l1.bias f4 [256]
000000 2c 65 b2 3c 13 97 17 3f bd 22 76 3e ca aa 94 3e
       0.021776758 0.59214896 0.24036689 0.29036552
000010 d0 df c9 3e 3c 78 e1 3d 6b 22 ba 3d 06 5b d6 3d
       0.39428568 0.11009261 0.09088596 0.1046658
000020 55 4d fc 3e 0c 26 2e 3f 18 84 9a 3e 95 ee 21 be
       0.4927775 0.68026805 0.30178905 -0.15813668
000030 16 70 bc bd 47 b9 d9 3e d9 73 8b 3d 95 ca f5 3e
       -0.09201066 0.42524168 0.068092056 0.4800612
000040 3c fb 24 3e 05 67 a6 3e 3b 4c 9a 3e 95 28 cc bc
       0.16111463 0.32500473 0.30136284 -0.024921695
000050 76 07 ab bd 26 5b 8a 3e a4 4f d4 3e 38 d0 bf 3e
       -0.083510324 0.27022666 0.4146701 0.37463546
000060 2c 3a 04 3f 6e 9f 98 3e b9 f5 d6 3e 41 9c 04 3f
       0.51651263 0.29809135 0.41984347 0.51800925
000070 81 9f d5 3e 64 e9 9d 3d 5e e7 3d 3e 55 b7 62 bc
       0.41723254 0.07710531 0.18545291 -0.013837655
000080 f5 ff b5 3e 1f 90 63 3d 58 41 d4 3e fd a6 c6 3d
       0.35546842 0.055557366 0.41456103 0.09699819
000090 c9 55 61 be c5 83 22 3e 3d 7b d4 3d 8a 79 14 3f
       -0.2200538 0.15870579 0.10375068 0.57997954
0000a0 59 15 d1 3d 9f 33 cf 3e 79 56 6b 3e f1 bc 7c be
       0.1020915 0.4046907 0.22982205 -0.2468145
0000b0 7b 70 12 3f 4d 37 19 3e b3 91 b0 bd fb 47 76 be
       0.5720288 0.14962502 -0.0862154 -0.24050896
0000c0 fd e4 4e 3f f4 1c 16 3f b7 58 fd 3e 6d 49 ee bc
       0.8081816 0.5863793 0.49481747 -0.029087747
0000d0 36 34 3c 3e 16 5e ad 3e 5e 30 d3 3e a4 fb d0 3e
       0.18379292 0.33860844 0.4124784 0.40816987
0000e0 fd 8d c9 3d 72 12 3f 3e 11 6a 1b 3e 29 4c 86 3d
       0.09841535 0.1865938 0.1517718 0.06557495
0000f0 ba 78 05 3f 0e 58 68 3e 33 13 26 bd af a0 16 3e
       0.5213734 0.2268984 -0.040545654 0.14709733
000100 83 ce f8 3e 39 3b ee 3e 88 da 8d bb df c1 a5 bd
       0.48595056 0.46529558 -0.0043290295 -0.080936186
000110 59 b2 5b 3d 77 3d 84 3c f0 8f ca bd 3d 31 32 3e
       0.053636882 0.01614259 -0.09890735 0.17401595
000120 77 55 43 bd e1 af 8a 3e 5a c4 f7 3e c3 a0 e9 bd
       -0.047688928 0.2708731 0.48391992 -0.11407616
000130 52 2f f5 bd ed 6f 76 3e 39 c2 84 3e e0 14 fe 3e
       -0.11971916 0.24066134 0.2592943 0.496253
000140 91 54 8b 3e c1 fd 28 3e d2 c7 43 3e 3b cb b5 3d
       0.27212957 0.1650305 0.19119194 0.08876654
000150 fd 43 ef bc 51 b3 ca 3e b2 be 47 3f 71 98 a7 3e
       -0.029207224 0.39589933 0.7802535 0.3273349
000160 95 94 2e 3f 1d 94 ee bd 0b b5 ac 3e b1 2d 26 be
       0.6819547 -0.11649344 0.33731875 -0.16228367
000170 98 4c 34 3c b3 8b 22 3f 59 d6 0e 3f 20 d4 c7 bd
       0.0110045895 0.63494414 0.5579582 -0.097572565
000180 32 a9 38 3e be 91 83 bd 79 b8 0a 3f fc 76 15 3e
       0.18033293 -0.064242825 0.5418773 0.1459617
000190 b5 73 48 3d dd be 90 3e 59 f5 e8 3e 5e 19 6d 3c
       0.04893847 0.28270617 0.45499685 0.01447138
0001a0 bb 8c 1d 3e 1b f0 81 bd a2 19 12 3f 4b e5 05 3e
       0.15385716 -0.063446246 0.5707036 0.1307575
0001b0 88 e6 38 3e 26 09 d9 3e 03 b1 25 3e ab fc a1 3e
       0.1805669 0.42389792 0.16180806 0.31638083
0001c0 18 f0 b4 3e c8 34 59 be e7 99 0f 3f 24 9e 24 3f
       0.35339427 -0.2121154 0.5609421 0.64303803
0001d0 3a d3 d3 3d 9f 5e de bc 34 ec 3d be 2c 9e 5d 3e
       0.10343023 -0.027144728 -0.18547136 0.21642369
0001e0 67 ce 87 3e a3 19 6b 3e 35 0d dc 3e f2 70 3d be
       0.2652466 0.22958998 0.42978826 -0.18500116
0001f0 24 75 99 3d e9 1f d8 3d ff 12 8a 3e ec c8 1d 3f
       0.07493046 0.105529614 0.26967618 0.6163471
000200 29 7d a5 3e ab 5f d5 3e 50 f1 f3 3e a2 43 ae 3e
       0.32322052 0.4167455 0.47645044 0.34035975
000210 41 6c df bd 93 b3 f6 3d a7 ee 6e 3e 26 c4 3a bd
       -0.1090932 0.1204597 0.23333226 -0.045597218
000220 83 4b c0 3d f7 ac 20 3f e5 28 a5 3d 32 d6 55 3d
       0.09389403 0.62763923 0.08064441 0.052206226
000230 49 78 f2 3e fe 42 57 3e 69 db 92 3e 78 1d f9 3e
       0.47357395 0.21021649 0.28683022 0.48655295
000240 ec 5c d0 bb b9 05 57 3e 7f 6f f1 3e fe 52 06 3f
       -0.0063587334 0.20998277 0.47155377 0.52470386
000250 f2 98 10 3e fc 28 72 3e 43 3f b0 3e f4 60 67 3e
       0.14120844 0.23648447 0.34423265 0.22595578
000260 8d 43 16 3e 4d fe f6 3e bb 82 0d 3f 93 b0 a8 bc
       0.14674206 0.4824089 0.55277604 -0.02059201
000270 d5 34 82 3d ba e2 6e 3e 94 dc 4a be f5 de a4 3d
       0.06357733 0.23328677 -0.19810706 0.08050338
000280 49 b5 79 bb 86 e5 55 3e ec a9 df 3d 22 14 1f 3f
       -0.003810244 0.20888337 0.10921082 0.62140095
000290 fc f3 98 3e 76 0b 6b 3e 3d 1f 07 3f 9e 92 03 3f
       0.29873645 0.22953591 0.5278204 0.51395595
0002a0 59 24 bc 3a 05 02 22 3e 9a 7d e8 3e 5c 3b 8d 3e
       0.0014354094 0.15821083 0.45408326 0.2758435
0002b0 cd b1 e3 3e 3f 56 92 3e f4 8d 0d 3e 61 d0 1e 3f
       0.4447159 0.28581426 0.13823682 0.6203671
0002c0 d4 38 b8 3e c6 ec 84 bc 51 c9 01 3f 37 46 3a 3f
       0.35980856 -0.016226184 0.5069781 0.7276339
0002d0 38 f7 e3 3e a4 04 b3 bc f8 56 e7 3e be 33 a3 3e
       0.4452455 -0.021852799 0.4518354 0.31875414
0002e0 19 dc f8 bb 35 f6 a7 3c 57 c8 fe 3e f6 c4 9c 3b
       -0.007594597 0.020503143 0.49762222 0.0047842218
0002f0 a4 7f a9 3e 93 37 c4 3e a0 f6 38 bd 67 e9 e0 3d
       0.33105195 0.3832365 -0.045157075 0.10982018
000300 50 80 0a 3e 14 31 08 3f 91 cc f2 3e 2b 0f 1c 3c
       0.1352551 0.5319989 0.47421697 0.009525101
000310 8a a5 a5 3d 5f 39 cd bc f6 31 d9 be 15 d7 49 be
       0.08088215 -0.02505177 -0.4242093 -0.19710954
000320 ad 90 04 3f ac 33 02 bd 43 ba 63 3e 48 b2 eb 3e
       0.5178326 -0.03178756 0.22239022 0.46034455
000330 59 0c d8 bd a7 b8 61 3e 38 26 8f bd 39 3d c5 bd
       -0.1054923 0.22043096 -0.069897115 -0.09630818
000340 3a 13 ac 3d 01 0e 00 3e 34 01 1e 3e 72 33 1f 3f
       0.08402105 0.12505342 0.15430146 0.62187874
000350 5f e2 2d be 6e 53 99 3d c1 da 9d 3e 41 44 24 be
       -0.16980885 0.07486616 0.30830958 -0.16041662
000360 50 37 be bc 3e e4 ab 3e 44 e6 b5 3e 84 1b 12 3f
       -0.023219734 0.33572572 0.3552724 0.57073236
000370 7d 75 3c 3e 55 b1 61 be 2b e3 18 3f b4 5c 06 3e
       0.18404193 -0.22040303 0.5972163 0.13121301
000380 05 b4 dd 3d 73 90 2b be 65 43 06 3f c7 25 04 3f
       0.108253516 -0.16754322 0.52446586 0.51620144
000390 92 e1 c6 bd ee 59 42 3d 3f 45 40 3f 22 5e 72 be
       -0.09710993 0.047449045 0.7510566 -0.23668721
0003a0 09 0f c6 3e 1a fd 47 3d ff 77 0b 3f 61 fa 0c 3f
       0.38683346 0.04882536 0.54479975 0.5506955
0003b0 70 45 57 3e 6a 5a 12 3e 94 81 80 3d b9 6b 06 3d
       0.21022582 0.14292303 0.06274715 0.032817576
0003c0 1e b4 e0 3c 48 fc c4 3d 42 73 d5 bc cd 52 f2 3e
       0.027429637 0.09618431 -0.026055936 0.47328797
0003d0 36 96 bd 3c 7e 6c 8b 3e 21 d8 fe bd f9 f8 02 3f
       0.023142915 0.2723121 -0.12443567 0.5116115
0003e0 60 37 cf 3d cb 8e 13 3f 61 cf 87 3e 45 ff 22 3f
       0.10117984 0.5763976 0.26525405 0.6367076
0003f0 80 14 a8 3e 54 fe d8 3e e9 85 e7 3d 04 5f c6 3d
       0.3282814 0.42381537 0.11304838 0.096860915

l2.weight f4 [256, 256]
000000 8e 91 c9 3c c1 7c 0c 3e 79 2d 9c 3e fa ef 96 3d
       0.024605539 0.13719465 0.30503443 0.07369991
000010 67 0c be 3d f0 f9 33 3e 9f 32 58 3e 07 b0 01 3e
       0.09279709 0.17575812 0.2111306 0.12664805
000020 f9 2c 97 3d b3 82 4d 3e 8e ae fb 3d 62 76 b7 bd
       0.07381625 0.20069389 0.12289153 -0.089581266
000030 5b ee 67 bd eb b1 ca 3d 11 cc 1d 3e 56 8f 67 3c
       -0.056623798 0.098972164 0.15409876 0.014133295
000040 10 35 03 3d 46 be 6f 3d 86 04 e6 bc a1 cb 33 bd
       0.032033026 0.05853107 -0.028078329 -0.043895368
000050 4b c2 a4 bd 4a de 11 3e 6c 63 c1 3d 9d 9f a0 3d
       -0.08044871 0.14244953 0.09442791 0.07842944
000060 3b 6e 29 3e 92 76 bf 3e d3 f5 e5 3d 48 60 e7 3d
       0.16545956 0.3739515 0.11228528 0.11297661
000070 da 28 3d 3d 12 8f 6c 3d d5 23 8e 3d fb 09 64 bd
       0.046181537 0.05775363 0.06940428 -0.05567358
000080 0f ff 3a bd 05 3c 33 3e 81 b7 68 3d 81 d3 3a 3e
       -0.0456534 0.17503364 0.056815628 0.18244745
000090 e2 57 a6 3d 46 4a 00 3d 5c 58 14 bd 1e ef 3d 3e
       0.08122231 0.031320833 -0.03621708 0.18548247
0000a0 da 70 9b 3d 14 c8 d9 3d cb b3 16 3e 6a 66 35 3d
       0.07589884 0.10633865 0.14717023 0.044287123
0000b0 e6 33 cf 3d a9 c8 e7 3d 58 03 31 bd 47 db 28 bc
       0.10117321 0.1131757 -0.04321608 -0.010306186
0000c0 bc 50 91 3e 8b 7b c8 3d 52 0f a7 3d 49 bd 84 3d
       0.28381908 0.09789189 0.08157219 0.06481416
0000d0 e4 9d 55 3d 95 3b 31 3e dc 9c 9d 3d 96 67 69 3b
       0.05215253 0.17307885 0.07695934 0.003561472
0000e0 1d 45 a5 3d 58 32 9c 3d 12 36 ae 3d dd 3e 59 bb
       0.08069823 0.0762679 0.08506407 -0.0033149042
0000f0 da f4 64 3e f1 d9 83 3d b3 a8 b5 3d 7c 9b b0 3d
       0.22359028 0.064380534 0.088700674 0.08623406
000100 16 48 15 3e 26 c9 e9 3d 71 20 f1 3d c2 3b c2 3d
       0.1457828 0.11415319 0.11773766 0.09484054
000110 f8 f5 2c 3e 3c 13 e4 3d da c4 df bd 31 17 25 3e
       0.16890705 0.11136481 -0.10926218 0.16122128
000120 5a 95 d3 3d fd e0 03 3e 8c a7 a7 3d 0a 81 09 be
       0.10331221 0.12878795 0.08186254 -0.13428131
000130 b2 42 9c 3d af 08 82 bd fe cd cc 3d 7c 7a ea 3d
       0.076299086 -0.063493125 0.100002274 0.11449143
000140 50 b4 07 3e 75 41 cf bc 9c f1 1a 3e 3d 4e 50 3e
       0.13252378 -0.025299767 0.15131229 0.20342346
000150 16 ce eb 3d 83 64 9a 3d ef ac 5a 3e 5a e5 c1 3d
       0.11513917 0.07538702 0.21355031 0.094675735
000160 6f 99 ad 3d 12 2e a8 3d 8d 0e 1b 3e 75 c6 14 bb
       0.08476531 0.08211912 0.1514227 -0.0022701297
000170 b4 cd b9 3d bf dd 3f 3e 9e 6a 05 3e 21 1e ba 3b
       0.09072438 0.18736933 0.13028952 0.005679861
000180 0d 7e 77 3d 59 a0 1c 3d 85 d4 72 3e f0 1e a7 3b
       0.060422946 0.038238857 0.23713882 0.0051001236
000190 5b 92 22 3d d6 d3 26 3e 38 5a 13 3d df b5 ad bc
       0.039690357 0.16291746 0.03597471 -0.021204887
0001a0 59 fb 90 3d 13 e9 95 3b ad 2f fc 3d 4c 8c 3f 3d
       0.07079191 0.0045749038 0.12313781 0.046764657
0001b0 1b bc fc 3d 4b 5f 0d 3e ab 30 e4 3d bc 8f 2a 3e
       0.12340566 0.13805883 0.11142095 0.16656393
0001c0 b6 40 fc 3d 8c 9b b1 bd 60 d4 7b 3d 03 25 fe 3d
       0.1231703 -0.08672246 0.061481833 0.12409403
0001d0 6c 1e ff 3d db ef 2f 3d cd 5e 7c bc 3d cc 0d 3e
       0.124569744 0.042953353 -0.015403462 0.13847442
0001e0 c2 b3 fa 3d e4 ab 9a 3d 18 c0 c0 3d 80 7f 69 3d
       0.12241317 0.07552317 0.09411639 0.05700636
0001f0 31 9c f0 3c 6b aa db 3d 28 49 b0 3d 9b bb 86 3e
       0.029371353 0.10725864 0.086077034 0.26315007
000200 01 4c 87 3c 7d 1c af 3c 22 6d 35 3e 70 1a 1d 3e
       0.016515734 0.021375889 0.17717412 0.15342116
000210 14 a7 21 3c 9e bc 35 3e f5 24 4e 3d e7 d3 41 3e
       0.009866495 0.17747733 0.050328214 0.1892849
000220 ec 3b 52 3d b1 ce 74 3e a5 ee f9 3d aa 1f ea 3c
       0.051326677 0.23906972 0.12203721 0.028579552
000230 92 1d cd 3d fb e4 da 3d bf 0a 2c 3e 50 60 21 3d
       0.10015406 0.10688206 0.16800974 0.03939849
000240 90 3f 70 3c 7a 80 25 3e 97 ee 3e 3c 7b 14 a3 3e
       0.014663592 0.16162291 0.011653564 0.31851563
000250 a0 c5 3d 3e 11 8e ae 3d 17 71 5f 3e 0a e0 65 3e
       0.18532419 0.08523191 0.21820484 0.22448745
000260 60 39 34 3e 3c 9d 18 3e 54 cf 08 3d bc c8 29 3e
       0.17600012 0.1490373 0.03340085 0.1658048
000270 0b 6a 90 3d 4d ed 07 3d be ff 19 bc cb ef 98 3d
       0.07051476 0.033185292 -0.009399353 0.07467612
000280 26 ef ad 3d 72 34 12 3c 02 f5 7c 3a 1f cc 2e 3e
       0.084928796 0.008923637 0.0009649546 0.17070054
000290 6f fb 30 3d 97 76 1c 3e ab d1 1a 3e 94 d2 fb 3d
       0.043208536 0.15279613 0.15119044 0.12296024
0002a0 d0 47 7e 3d 24 4e cb 3d 76 2f 5d 3e 64 09 20 3e
       0.062080204 0.099270135 0.21600136 0.15628582
0002b0 a7 ab e2 3d ba f0 85 3c 93 69 fe 3d 93 56 44 3e
       0.11067896 0.016350139 0.124224804 0.1917365
0002c0 bb f8 2f 3d 5d 24 77 3b f6 b6 c2 3d 83 6a 4b 3e
       0.042961817 0.0037710883 0.09507553 0.1986485
0002d0 af 03 70 3d b4 79 16 3e e7 d1 12 3e 61 ad 12 3e
       0.058597263 0.14694864 0.14337884 0.14323951
0002e0 cb 2e 4d 3e ee c0 d2 3c 32 d7 f0 3d 06 11 41 3d
       0.20037381 0.025726762 0.11759795 0.047135375
0002f0 13 c1 87 3d 20 45 3a 3e e2 fb 3f 3e 35 13 0e 3e
       0.06628623 0.18190432 0.1874843 0.13874514
000300 a5 4d b3 3c 8b e5 7a 3d cf 71 23 3d ec 4b 1a 3e
       0.02188761 0.061254065 0.03990346 0.15068024
000310 88 71 a6 3d 5c 8c 8e bb 4f ac 08 be eb 87 0e bd
       0.08127123 -0.0043502282 -0.1334698 -0.03479759
000320 b0 8b 2a 3e bd 21 ea 3d 9f ac 81 bd 06 aa 29 3e
       0.16654849 0.11432216 -0.06331753 0.16568765
000330 9c 49 9a 3c 2e 06 ab 3d dc e1 2c be ce 70 b1 3d
       0.018833928 0.08350788 -0.16883034 0.08664094
000340 9b 12 7b 3d de 33 27 bd 12 59 04 3e 36 e3 a0 3d
       0.06129704 -0.04082095 0.12924603 0.07855837
000350 87 65 0b bd bf 6a ab 3d 9f e1 d7 3d 7b c3 d5 3c
       -0.03403237 0.083699696 0.10541081 0.026094189
000360 04 ac cb 3c 74 77 0f 3e 3e 73 00 3e 9e 60 c7 3d
       0.024862297 0.14010412 0.12543961 0.09735225
000370 3f 61 c7 3d e1 ab 1e be 95 42 54 3e 4e 5d 3f 3d
       0.09735345 -0.15495254 0.20728524 0.04671984
000380 75 10 60 3c 9d e6 ab 3d 86 f9 a9 3d 29 e2 3d 3e
       0.013675799 0.08393595 0.08299546 0.18543305
000390 7a db b8 ba 53 1c e8 3d 98 eb 6e 3e ed a8 c1 bc
       -0.0014103495 0.113335274 0.2333206 -0.02364012
0003a0 ff 5d ee 3d f8 af 34 3d 82 70 02 3e 15 cf 44 3e
       0.11639022 0.04411313 0.12738231 0.1921962
0003b0 8b ea f1 3d e2 25 df 3d ea 85 f5 3d 17 de d3 3d
       0.11812314 0.108958974 0.11988433 0.10345095
0003c0 25 b2 0f 3e 36 57 4c 3e 27 d2 45 3d a9 c2 bd 3d
       0.140328 0.19955143 0.04829612 0.09265644
0003d0 00 d4 00 3e e2 9e 81 3d cf 65 7b 3d 04 35 3e 3e
       0.12580872 0.063291326 0.06137639 0.18574911
0003e0 7c 13 23 3d fc e1 17 3e 7d dd 90 3d 1b bf a6 3e
       0.039813504 0.148323 0.070734955 0.32567677
0003f0 e3 87 fc 3d 30 23 bb 3d ce c6 25 3d 44 47 12 3e
       0.12330606 0.09137571 0.040472798 0.14284998

l2.bias f4 [256]
000000 93 96 4a 3e d5 7f 39 bd 6e b4 4e 3e 2a 95 75 be
       0.19784002 -0.045287926 0.20186016 -0.23982683
000010 d3 f1 88 3e c9 df 6f 3e e3 31 73 3e 14 02 1e be
       0.26746997 0.23425211 0.23749499 -0.1543048
000020 f2 7e 30 3e 11 37 62 3e 58 46 28 3e 6f 90 73 3e
       0.17235926 0.22091319 0.16433084 0.23785566
000030 1b e5 8c 3e d2 a3 77 3e 55 da 7e be 77 80 35 3e
       0.27518544 0.24183586 -0.24887975 0.17724787
000040 67 25 2c bd ed 84 40 3d 1d c1 36 3e ad 33 4e 3e
       -0.042027857 0.047001768 0.17847104 0.201369
000050 50 d0 ec bc c1 91 24 3e 6f 60 4e 3e aa 2e 8b be
       -0.028907925 0.16071226 0.20153974 -0.2718404
000060 e1 fd 42 3e 3b e3 4d 3e 58 9b 1a 3e 66 9b 04 3d
       0.1904216 0.20106213 0.15098321 0.032374762
000070 11 1f 09 3e a7 7b 9b 3b 5c 80 2e 3e 4d 49 6b 3e
       0.13390757 0.004744965 0.17041153 0.22977181
000080 23 7e 0c 3e 96 f3 6a 3e a4 f2 7e 3e c8 b2 79 3e
       0.13719992 0.22944483 0.24897248 0.24384606
000090 51 cd 6b 3e c8 0c 58 3e 0c 5c 67 3e 03 ae 37 3e
       0.2302754 0.21098626 0.22593707 0.17937474
0000a0 cd a6 48 3e 3c b9 7d 3e 1e 0b 4e be 18 fd 92 3e
       0.1959488 0.24777693 -0.20121428 0.2870872
0000b0 a6 c1 be be 60 cb 28 3d 04 96 72 3e 42 42 6f be
       -0.37257117 0.04120958 0.23690039 -0.23365119
0000c0 67 54 a9 3c 6e 14 e9 3c ba 6c 81 3e 26 b1 76 3e
       0.020670129 0.028452124 0.25278264 0.24091014
0000d0 47 9a 91 3e 35 3a 75 3e 09 05 ec 3a e0 fb 38 3e
       0.28438017 0.23947985 0.0018006872 0.18064833
0000e0 a3 48 b1 3b b3 06 d5 3e 48 14 07 3e 17 78 92 be
       0.0054102703 0.41606674 0.1319133 -0.28607246
0000f0 49 ef 69 3e 66 76 43 be 9c cc 6c 3e 0b 51 47 3e
       0.22845186 -0.19088134 0.23124927 0.19464509
000100 b4 70 7a 3e 1a 2a 49 3e 6d ff 81 3e e1 a9 60 3e
       0.24457055 0.19644967 0.25390187 0.21939804
000110 31 c1 8a 3e c3 aa 61 3c a7 db 71 3e eb a7 5d 3e
       0.27100518 0.013773623 0.23618947 0.21646087
000120 bb ac 0a 3e 0a 24 69 3e f8 64 4d 3e dd 8e d7 be
       0.13542454 0.22767654 0.20058048 -0.42101184
000130 b8 e5 98 3e bc 5d 19 bd 59 a8 4e 3e c5 ef 7e 3e
       0.29862761 -0.037442908 0.20181407 0.24896152
000140 f2 8b 2d be 5c a0 b6 3c 76 4d 85 3c 33 9f 3a be
       -0.16947916 0.022293262 0.016272288 -0.18224792
000150 df d7 47 3d 5a 3e 43 3d 06 d7 9a bd 40 f5 8a 3e
       0.048789855 0.047666885 -0.07560544 0.27140236
000160 a0 b0 0c 3e 2c dd 81 bc 39 89 1b 3e 6c 8b 29 be
       0.13739252 -0.015852533 0.15189065 -0.16557091
000170 38 ba d9 3c 40 07 85 3e a3 73 ca be 8d d2 46 3e
       0.026578054 0.25982094 -0.3954135 0.19416256
000180 5a 0f 67 3e 55 16 1b 3e fb 0b 7e 3e bd 31 d8 be
       0.2256445 0.15145238 0.24809258 -0.42225447
000190 04 9e 85 3e b5 81 73 3e 9c 1a 76 3e 1d 38 b8 be
       0.2609712 0.23779948 0.24033588 -0.3598031
0001a0 8a ba 10 3d 49 6a 49 3d aa 0b ea 3c da c5 79 3e
       0.035334148 0.049173627 0.028570015 0.2439188
0001b0 a5 cb 6e 3e 15 f0 35 3e 11 e0 12 3e 85 46 d7 be
       0.23319872 0.17767365 0.14343287 -0.4204599
0001c0 d1 d8 64 3e dd 5e 31 3e 42 9c 7c 3e ab 09 c0 bc
       0.22348334 0.17321344 0.24668983 -0.02344211
0001d0 7d 02 47 3e b7 f2 76 bd b8 67 45 3e ce 51 8a 3e
       0.19434543 -0.060290065 0.19277847 0.27015537
0001e0 ce 0e 55 be ba 99 51 3e ec 3a 65 3e 22 55 42 3e
       -0.20806429 0.20468798 0.22385758 0.18977788
0001f0 e8 69 47 3b b4 e6 73 3e e1 4c 47 3e 07 13 8d 3b
       0.0030428115 0.23818475 0.1946292 0.0043052468
000200 14 60 53 3e 3c 4f 92 3e b1 c6 2c 3e 43 4c 69 3e
       0.2064212 0.28576076 0.1687267 0.22782998
000210 88 f9 65 3e 5a 2e 8a 3e f0 20 2c 3e 3d 46 14 bd
       0.2245847 0.26988488 0.1680944 -0.036199797
000220 1b 39 65 3e ce c7 aa bd e7 7f 1a 3e fe 80 26 3e
       0.22385065 -0.08338891 0.15087853 0.16260144
000230 d4 23 4e be 8d 82 22 be 1d 9b 6d 3e 80 3f 3c bd
       -0.20130855 -0.15870114 0.23203702 -0.045958996
000240 c3 64 4f 3e 06 78 29 3e 65 0b 46 3e ac 70 81 3e
       0.20253281 0.16549692 0.19340284 0.25281274
000250 63 88 2a 3e c5 53 2d be fe 82 15 be 05 3d 85 3e
       0.1665359 -0.16926487 -0.14600751 0.26023117
000260 2e 14 7d bc 0d de 90 be 82 0f 5c 3e 5d 9b d7 be
       -0.015446706 -0.2829441 0.21490291 -0.4211072
000270 3c 20 20 be 02 60 21 3e 7b 4a 65 3b 41 a6 7c 3e
       -0.15637296 0.1575928 0.003498702 0.24672796
000280 6d 39 4d be 17 e5 27 3e b8 a3 45 bd 94 81 76 3e
       -0.20041437 0.16395985 -0.048251837 0.24072868
000290 b7 e3 4c 3e 37 38 36 3e d8 9d 4f be a1 b2 c0 bd
       0.20008741 0.17794882 -0.20275056 -0.09409071
0002a0 12 09 6f 3e 6a e1 8b 3e 0c 97 19 3e 97 49 7d 3e
       0.23343304 0.27320415 0.14999026 0.24735104
0002b0 ad 58 c5 be 75 b4 71 3e b9 32 45 3e 2b 60 2b 3e
       -0.38544217 0.23603995 0.1925763 0.16735904
0002c0 0f 7b d8 bc 9f ca 29 3f 3c 15 51 3e 96 34 bb be
       -0.026425866 0.663248 0.20418257 -0.36563557
0002d0 78 8f 53 3e 5c 36 45 be 0b f0 6a 3e 82 e8 ee 39
       0.20660198 -0.19259018 0.22943132 0.0004556813
0002e0 8e 3d 81 3e 15 4d 07 3c d5 a5 95 3d f0 dd 31 3e
       0.25242275 0.008258124 0.073070206 0.17369819
0002f0 5f 87 7d be 15 90 05 be f0 11 39 3e f3 23 25 3e
       -0.24758671 -0.13043244 0.18073249 0.16126995
000300 f6 23 8c 3e 20 3b 26 be b8 31 a3 be 6b 95 22 3e
       0.27371186 -0.16233492 -0.3187387 0.15877311
000310 35 58 68 bd ed f5 6f 3e 69 38 81 bd e0 9a 83 be
       -0.056724746 0.23433657 -0.063095875 -0.25704098
000320 67 1e 8f 3e 4c ed 85 3d 2d 58 6f be b1 8d 9b bc
       0.27952883 0.065394014 -0.2337348 -0.018988462
000330 df 7b 28 3e 0b 62 fb bc 12 5b 82 3e 2a f2 64 3e
       0.16453503 -0.030686399 0.25460106 0.22358003
000340 28 e1 2d 3e c3 6f 2b 3e 9b c8 2e 3e 41 29 19 3e
       0.16980422 0.16741852 0.17068712 0.14957143
000350 9f 75 77 3e 81 e0 3c be 9f ad 60 3e 7b a9 6f 3e
       0.24165963 -0.18445016 0.21941231 0.23404495
000360 c6 10 fd bd b3 ff c1 be ef ae 8d 3e 30 81 23 3e
       -0.12356715 -0.37890396 0.27672526 0.1596725
000370 59 bc 13 3e f9 25 13 3e c1 dc 5b 3e fe 22 71 3e
       0.14427318 0.14369954 0.2147093 0.23548505
000380 3a 21 d3 bd 50 c3 64 3d 3b 44 3b be 2a 0a 4e 3e
       -0.10309072 0.055850327 -0.18287747 0.20121065
000390 75 53 a7 be 68 e0 33 3e b0 7c 82 be 03 e3 1f 3d
       -0.3268086 0.17566073 -0.25485754 0.039034855
0003a0 e2 6e df bd 54 5c 58 3e 56 8f 46 be 50 2e 63 3e
       -0.10909821 0.2112897 -0.19390616 0.22185636
0003b0 39 4e 31 3e 64 34 4b 3e cb 85 f9 3c 50 8d 50 3e
       0.17314996 0.19844204 0.030459305 0.20366406
0003c0 66 f0 74 3e 65 89 17 3e bd 4d 89 3e 7a b6 74 be
       0.2391983 0.14798506 0.26817122 -0.23897734
0003d0 1e f4 7a 3e 15 f9 22 3e a9 10 34 3e fb 3c 89 be
       0.24507186 0.1591533 0.1758448 -0.26804337
0003e0 34 fc dc be 49 23 ad bc 7a 38 60 be ab 3f 5b bd
       -0.43161166 -0.02113499 -0.21896544 -0.053527515
0003f0 94 00 23 be e4 50 24 3e 1c 97 86 3e ca e8 14 bd
       -0.1591819 0.16046482 0.26287162 -0.036354817

l3.weight f4 [1, 256]
000000 fd 64 58 3e 8c d9 01 bd 21 7b 38 3e 4a 97 5f bf
       0.21132274 -0.03170161 0.1801572 -0.87340224
000010 53 38 20 3e 9b 87 56 3e be c9 2d 3e c9 83 41 bf
       0.15646486 0.20950167 0.1697149 -0.75591713
000020 d6 64 3f 3e 17 cc 24 3e be ef 31 3e e5 53 56 3e
       0.1869081 0.16093479 0.1737661 0.2093044
000030 56 c9 3b 3e d8 3c 45 3e af 32 d8 bf 7f d1 53 3e
       0.18338522 0.19261491 -1.6890467 0.20685385
000040 57 39 5d bd e9 3c 9a bb 3b cb 53 3e 80 b1 50 3e
       -0.05400976 -0.004706968 0.20682995 0.20380211
000050 4e df 60 bd 56 3e 35 3e 99 50 2b 3e 42 d2 46 bf
       -0.05490046 0.1769956 0.16729964 -0.7766458
000060 cf c7 4c 3e a6 70 4d 3e 8b 13 2a 3e 03 79 fe bc
       0.19998096 0.20062503 0.16609018 -0.031063562
000070 ef a7 90 bf 1d 9a 50 bd 9c 0e 37 3e 67 bf 20 3e
       -1.1301249 -0.050928224 0.17876667 0.15698014
000080 1d ac 56 3e a1 7d 50 3e b5 ee 3a 3e c0 96 4b 3e
       0.20964094 0.20360424 0.18255122 0.19881725
000090 9e 28 38 3e 04 b3 50 3e 6b 20 3d 3e dc 1c 33 3e
       0.17984244 0.20380789 0.18469398 0.17491478
0000a0 3b 1b 26 3e f5 92 21 3e d8 a9 6d bf 1c a8 1e 3e
       0.16221325 0.15778716 -0.92837286 0.15493816
0000b0 bc 17 76 bf ea bd 00 c0 13 5a 2c 3e a6 00 89 bf
       -0.96129966 -2.0115914 0.16831236 -1.0703323
0000c0 1e a9 12 bd 71 ee 0a ba cb 79 49 3e 22 03 4f 3e
       -0.035805814 -0.0005299813 0.19675367 0.20216039
0000d0 10 dd 24 3e 61 11 20 3e 0a 31 4a bd 8a d5 87 bf
       0.16099954 0.1563163 -0.049363174 -1.0612042
0000e0 a5 73 51 bd ec a5 85 3e 4d 53 54 3e 5a 20 75 bf
       -0.051135678 0.2610315 0.20734902 -0.9575249
0000f0 69 fb 53 3e 4f b1 25 bf 82 67 40 3e 8c d1 51 3e
       0.20701374 -0.64723676 0.18789485 0.20490092
000100 b0 70 3a 3e e0 54 4c 3e b9 aa 45 3e 3b 71 4d 3e
       0.1820705 0.19954252 0.19303407 0.20062725
000110 f2 4d 1c 3e 04 69 2d bd d3 90 29 3e 85 65 4d 3e
       0.15264109 -0.04233648 0.16559152 0.20058258
000120 df 3e 45 3e b3 a4 57 3e 8b f8 2e 3e 1c 98 59 bf
       0.19262265 0.21058922 0.17086999 -0.84997725
000130 55 30 23 3e 0f f4 91 bf 41 da 57 3e f1 db 3f 3e
       0.15936406 -1.1402606 0.21079351 0.18736245
000140 42 c2 46 bf a5 8b f9 bc a0 29 46 bd b4 ac 82 bf
       -0.77640164 -0.030462096 -0.04837954 -1.0208955
000150 eb 32 9a bc 16 f2 be bc a2 7c a6 bf 5c b0 2a 3e
       -0.018823108 -0.023308795 -1.3006785 0.16668838
000160 0b 03 49 3e 4d 51 30 bd c5 06 4a 3e 53 3b 33 bf
       0.19630067 -0.043046284 0.19729145 -0.70012397
000170 ed 84 72 bc 23 fa 23 3e 55 07 50 bf cc 83 54 3e
       -0.0148022 0.16013388 -0.8126119 0.20753402
000180 95 89 3d 3e db 6e 3e 3e 87 62 34 3e 3b 84 6b bf
       0.18509515 0.18596976 0.1761571 -0.9199864
000190 0c 30 2f 3e 59 34 22 3e 8f 3e 2c 3e bd e8 46 bf
       0.17108172 0.15840282 0.16820739 -0.7769888
0001a0 33 34 bc bc fe 40 11 bd 9c ad 48 bd 0c 35 51 3e
       -0.02297411 -0.035462372 -0.04899369 0.20430392
0001b0 f0 33 45 3e 78 df 3a 3e a9 56 35 3e 0d b0 99 bf
       0.19258094 0.18249309 0.1770884 -1.2006851
0001c0 8d fa 45 3e 47 b5 35 3e 41 47 19 3e 90 0a 2c bd
       0.19333859 0.17744933 0.14968587 -0.04200226
0001d0 46 da 40 3e 42 3b 4d bd 1f ed 25 3e da be 2a 3e
       0.18833265 -0.05010534 0.16203736 0.16674367
0001e0 e7 da 3b bf 1d 45 36 3e b8 95 33 3e b4 62 54 3e
       -0.73380893 0.17799802 0.17537582 0.20740777
0001f0 ab d5 10 bd 70 43 42 3e 79 70 23 3e 56 13 9b bf
       -0.03536002 0.18971038 0.15960874 -1.2115276
000200 61 d9 25 3e 31 d8 20 3e 28 bb 5a 3e 51 7f 41 3e
       0.16196205 0.1570747 0.21360457 0.18896224
000210 8a 70 33 3e d1 c7 2d 3e cd 5d 3e 3e 12 1d e0 bc
       0.17523399 0.16970755 0.1859047 -0.027357612
000220 e4 f6 56 3e 82 8f 87 bf 4c 05 3f 3e 28 12 3d 3e
       0.20992619 -1.059067 0.18654364 0.18463957
000230 cf 13 83 bf 93 27 8b bf a1 19 22 3e 7d 72 30 bd
       -1.024042 -1.0871452 0.15830089 -0.043077935
000240 d2 c5 25 3e 53 8b 4f 3e 30 76 5b 3e d3 de 22 3e
       0.16188744 0.20267992 0.21431804 0.15905313
000250 4e b0 34 3e c7 57 50 bf 99 e1 36 bf 48 cb 28 3e
       0.1764538 -0.8138394 -0.71437985 0.16483796
000260 19 57 57 bc ed 7b 85 bf 40 4d 36 3e 61 6d a0 bf
       -0.013143324 -1.0428444 0.17802906 -1.253338
000270 88 74 5d bf a3 aa 3d 3e 7f ef fc bc 9c 94 23 3e
       -0.8650594 0.18522124 -0.03087592 0.15974659
000280 2b 9f 45 bf f1 e9 4d 3e ed 62 93 bf d5 9a 34 3e
       -0.77195996 0.20108773 -1.1514565 0.17637189
000290 8c b6 43 3e 83 9a 1b 3e 70 27 51 bf 4a dc 93 bf
       0.19112605 0.1519566 -0.817008 -1.1551602
0002a0 35 b4 32 3e b3 ed 27 3e ac d5 2d 3e 49 48 21 3e
       0.17451556 0.16399269 0.1697604 0.15750231
0002b0 d1 0f 98 bf 89 6e 54 3e 9e 97 4c 3e 02 63 1b 3e
       -1.1879827 0.20745291 0.19979712 0.15174487
0002c0 8a 76 cd bc 23 ac cd 3e 04 4d 51 3e e8 3f 68 bf
       -0.025080938 0.40170392 0.20439535 -0.90722513
0002d0 08 4c 57 3e 9b c6 86 bf bf b8 1d 3e 4d 98 4f bd
       0.21025097 -1.052936 0.15402506 -0.050682355
0002e0 d8 63 23 3e f5 37 a3 bc ae 50 98 bf f8 79 20 3e
       0.15956056 -0.019924143 -1.1899621 0.15671527
0002f0 ef 48 7d bf 6a 85 a3 bf b4 1b 36 3e 1f 65 27 3e
       -0.9893941 -1.277509 0.17784005 0.16347168
000300 d3 a6 20 3e 9f f4 8b bf c0 1b 5d bf 89 33 3a 3e
       0.15688638 -1.0934027 -0.8637047 0.18183722
000310 96 c4 67 bd 7c 9b 53 3e 85 77 6a bc 6f fe 34 bf
       -0.056583963 0.20664781 -0.014310722 -0.70700735
000320 96 5b 28 3e 97 87 9a bf b7 8b 4e bf 8f 2e 32 bd
       0.16441187 -1.2072629 -0.8068194 -0.043501433
000330 c4 25 20 3e e6 c7 a7 bf b9 d2 24 3e a8 49 2d 3e
       0.15639406 -1.3107879 0.1609601 0.16922629
000340 b0 d9 44 3e d9 42 56 3e a5 20 2c 3e dc 1f 3a 3e
       0.19223666 0.20923938 0.16809328 0.18176216
000350 ba 7d 25 3e 5d 2b 45 bf e2 64 28 3e 2b d4 34 3e
       0.16161242 -0.7701929 0.16444734 0.1765906
000360 76 f6 5b bf 8c 9e a3 bf 2c c3 22 3e 87 17 42 3e
       -0.85922945 -1.278276 0.15894765 0.18954287
000370 b0 10 40 3e 72 e2 3d 3e 88 80 44 3e 6a d6 59 3e
       0.18756366 0.18543413 0.19189656 0.21273199
000380 c3 5d 63 bf ac 40 21 bd ca 76 61 bf 53 8d e1 bf
       -0.88814944 -0.039368317 -0.8807188 -1.7621254
000390 c7 e7 5a bf 58 07 52 3e d4 12 87 bf 2b ba db bc
       -0.85509914 0.20510614 -1.0552621 -0.02682217
0003a0 4b b2 b2 bf 72 a3 55 3e 0e c2 41 bf 0d 92 39 3e
       -1.3960661 0.2086313 -0.7568673 0.1812212
0003b0 01 f6 41 3e d7 f6 3b 3e 00 66 30 bd 17 c2 45 3e
       0.189415 0.1835588 -0.043066025 0.1931232
0003c0 52 f0 51 3e 9a d5 40 3e 4b 50 19 3e c1 3c 5f bf
       0.20501831 0.18831483 0.14972036 -0.8720208
0003d0 e3 d6 c0 bf 3f 0c 38 3e 14 92 3c 3e 34 74 55 bf
       -1.5065578 0.17973422 0.184151 -0.83380437
0003e0 ec c1 85 bf 9d ac e8 bb e5 63 3c bf 5a 75 18 bf
       -1.0449805 -0.007100655 -0.73589927 -0.59554064
0003f0 48 e5 71 bf 53 fe 4a 3e 0f 77 26 3e 01 3e 18 bd
       -0.9449048 0.1982358 0.16256355 -0.037168507
