model/walker2d-medium-replay-v2.pt (torch, 284503 bytes, 5 tensors)

l1.weight f4 [256, 17]
00000000: a539 1a3e 0615 03be 081a 563e 7fb4 de3e
00000010: 72bd d93e 3f12 5bbe ccd7 d5bd a781 f03d
00000020: 62c0 6c3e 8767 083e 2abf babd a333 bc3d
00000030: aea8 1dbe fef0 59be 3534 f0bd ff88 dfbd
00000040: fa6c 7e3e 4327 6b3e 0cf4 c93e 8d5c 0d3e
00000050: 4766 2dbd 48c3 cabd ffcb a7bd 82c7 0b3e
00000060: 12f6 19bf 5cb8 6a3d b539 7d3e 8f35 cbbd
00000070: 3119 bbbd b3a8 0bbd a4f3 de3d fa9d 853e
00000080: 9866 c3bd 3154 bcbe 63fc 003d 22bb 903e
00000090: 5a38 e13d 8ff6 1c3e 3d03 093f ad00 563e
000000a0: c03f 18be 08cd a7be abb9 bb3d 0750 003f
000000b0: 9f17 2dbe a1bb ab3e 8bb1 603e 5ffa 59bd
000000c0: 9c9a ddbd c469 07bd a9f2 653e d86b c63d
000000d0: ad29 473e 3b96 b5be a756 7d3e e6bc b4bd
000000e0: df71 83bd cc5d aa3c 1cb1 3cbe b317 483e
000000f0: 34ca 253c 1d15 e1be de51 bd3e c1b3 95be
00000100: 2815 0cbe d8c7 25be 980c 2d3e 726d 9d3c
00000110: df59 c93e a9a6 5d3d 7035 a43e 2189 1ebe
00000120: 5a35 d63e 3e94 83bd 195f 4ebd 7f77 abbe
00000130: 184b c43e 096f c03e cc68 ae3c 27d5 0fbe
00000140: 7137 72be 5f2b 5d3e 58ba 163e 6ead 623e
00000150: eeb7 7cbe f6aa 8f3e e1ec e3bd 846c e6be
00000160: f710 4dbe 65d9 bdbd 5e8c 1ebd 1d28 9dbd
00000170: 05ba 873e 79a4 35be cb68 763c 812b 533d
00000180: 39f3 d0be 15c9 a4be db4f 9cbc 6391 f03d
00000190: e5f9 903e 6bee 103e db63 813e 2c33 adbe
000001a0: 6a7f 60be 29b3 afbc d9e0 0d3f c556 1f3e
000001b0: 2c52 aabe 1534 2d3e d4fd f13e 1548 ad3e
000001c0: a6bf 5a3e 9730 653e 2708 8c3d 96d9 243e
000001d0: 8bae 82bc 4ec5 bfbe 8ff2 42be 5569 0e3e
000001e0: 4e51 63be b78c a03d 8d90 afbe 99e2 95bd
000001f0: a090 2e3e b22e dbbe 0efe 9f3c 3faf 1a3e
00000200: 078c b4be 0370 1fbe 829c b2bd 2c4a 6c3d
00000210: 8e00 6a3e 6236 143e 7710 bebd 6073 3d3e
00000220: 81ce ab3d bfae a33c fa09 9a3e e148 333e
00000230: 937d 913e eb09 2f3e 3dd2 2b3e c834 283d
00000240: 9635 5a3e adc5 eabd f4ce 0ebe edba 0e3e
00000250: 03a9 a0bd 2aaf 3d3b ae8e d83d 447e 8d3e
00000260: 6995 a83b 8cd7 aebc 61f3 03be 6f7c 1c3e
00000270: 810e 5d3e bf2d 963e c89c 063f 3d80 b0bd
00000280: 41c0 c4be 3b81 99be c6fb ae3d fbc5 4f3d
00000290: c726 833e 471c 9b3e b9e2 b13e 7bd8 de3d
000002a0: 19d3 84be 8bba 81be f856 f63d 535d 683e
000002b0: dce0 46bc 0a0e 5dbe ecf3 8ebe 4235 0b3f
000002c0: ec44 4e3e ef08 103f 7d74 893d 8aa7 a5be
000002d0: 916f 513d 0fcd 19be b30e 51be 558d eb3d
000002e0: c976 a13d 58b8 c43c fe35 9d3e 985e 75be
000002f0: 102b c13e 3ec6 babe 9d53 de3e 6582 e5bd
00000300: 9eb4 a4be a5e5 8dbe f314 fdbe dc55 4b3e
00000310: 6f80 1dbe ad05 05bd d796 433e daf1 dd3d
00000320: cd41 28be 0acf 15bd 40be 0abe 769a b53c
00000330: 70b4 37bd 07de 6fbe 8f11 80be 65be 373c
00000340: 9f3e ffbd 567f ddbd 224b 4dbe 837b 883e
00000350: 9d7e b53e eab4 1c3e 41f9 a73d 419a 0d3d
00000360: 0059 fb39 3aed 40bd b021 efbd 21cc 11be
00000370: 1b39 36bd 4101 a13d 159e b5be f672 443e
00000380: 1d1f 42be 327c ddbe cfaf 03be 7fcc 4f3f
00000390: 4b44 0a3f 914b 66bb a8fb d03e 55f5 9abe
000003a0: af62 093e 2931 e0bb 51db ae3e f0c8 813e
000003b0: 9061 433e 1e20 6b3d 153b 1f3e 93dd 113f
000003c0: e508 033d 063c 9abe 2541 09be 2e26 edbd
000003d0: 4e49 033e 33e9 053f 3151 a63e 404e fa3d
000003e0: e9e4 3b3d dd9b c13e 0580 d13e 63af 99bd
000003f0: 2e51 2cbe 699f b03e 2b27 243e 7485 7f3d
0.15061052 -0.12800989 0.20908368 0.43497083 0.42527348 -0.21393679 -0.104415506 0.11743479
0.23120263 0.13320743 -0.09118493 0.091895364 -0.15396377 -0.21283337 -0.11728708 -0.10914802
0.24846259 0.22964196 0.39444005 0.13804837 -0.042333867 -0.09900528 -0.08193206 0.13650325
-0.601411 0.057304725 0.24729045 -0.09922325 -0.09135664 -0.03409643 0.108863145 0.2609709
-0.095410526 -0.36782983 0.031490695 0.2826777 0.10997076 0.1532843 0.53520566 0.20898695
-0.14868069 -0.32773614 0.09166273 0.5012211 -0.16903542 0.33541587 0.21942727 -0.053217288
-0.10820505 -0.03305985 0.22455849 0.09688538 0.19449492 -0.3546618 0.24740086 -0.08825092
-0.064182036 0.020796679 -0.18426937 0.1954029 0.01011901 -0.4396142 0.36976522 -0.29238704
-0.13679945 -0.16189516 0.16899335 0.019217227 0.3932638 0.054114018 0.3207202 -0.15481998
0.4183758 -0.06424759 -0.05038366 -0.33489606 0.38338542 0.37584713 0.021290205 -0.14046155
-0.23653962 0.21598576 0.14719522 0.2213647 -0.24679539 0.2806012 -0.111291654 -0.45004666
-0.20026003 -0.0926998 -0.038708083 -0.076736666 0.2650911 -0.17738523 0.015039633 0.05155516
-0.40810564 -0.32184663 -0.019081047 0.1174648 0.28315654 0.14153449 0.25271496 -0.33828104
-0.21923605 -0.021447735 0.55421215 0.15560444 -0.33265817 0.16914399 0.47263968 0.33844057
0.2136217 0.22381817 0.068374924 0.16098627 -0.01595237 -0.3745522 -0.19037841 0.13907368
-0.22198984 0.07839339 -0.3428997 -0.07318611 0.17047358 -0.42809063 0.019530322 0.15105914
-0.35263082 -0.15570073 -0.08721258 0.057687923 0.22851774 0.1447387 -0.09280484 0.18501043
0.08388997 0.019980786 0.30085737 0.1750827 0.28416118 0.17093627 0.16779418 0.04106596
0.21309504 -0.11463485 -0.13946134 0.13938494 -0.078447364 0.0028943517 0.10574089 0.27635396
0.005144764 -0.021343015 -0.1288581 0.15281843 0.21587564 0.29331776 0.5258298 -0.086182095
-0.38427928 -0.29981408 0.08544116 0.05072592 0.25615522 0.3029501 0.34743288 0.10881134
-0.25942305 -0.25337633 0.12028307 0.2269185 -0.012138572 -0.21587387 -0.27920473 0.5437814
0.20143479 0.5626363 0.067116715 -0.32354385 0.05113179 -0.1501963 -0.20415764 0.11501566
0.078839846 0.024013683 0.30705255 -0.23961866 0.37728167 -0.36479372 0.43423167 -0.112065114
-0.3216905 -0.27714267 -0.49430045 0.19856972 -0.15381025 -0.032476116 0.1910051 0.10837145
-0.16431351 -0.0365744 -0.13549137 0.02216838 -0.044849813 -0.2342454 -0.25013396 0.011214827
-0.12463116 -0.10815303 -0.20048192 0.26656732 0.3544816 0.15303388 0.08201838 0.034570936
0.0004794076 -0.047101237 -0.11676347 -0.14238025 -0.044488054 0.07861567 -0.3547217 0.19184479
-0.18957181 -0.43258816 -0.12860034 0.8117141 0.54010457 -0.0035140256 0.40816998 -0.30265298
0.13416551 -0.006841798 0.341517 0.25348616 0.19080186 0.057403676 0.15549882 0.5697872
0.031990904 -0.3012392 -0.13403757 -0.11579548 0.12820932 0.5230896 0.3248382 0.12221956
0.045872603 0.37814227 0.40917984 -0.075041555 -0.16827843 0.3449662 0.16030566 0.06238313

l1.bias f4 [256]
00000000: 3074 973e 8145 883d ed64 583d 3c60 98be
00000010: 7d25 933d 478e 723e 8136 2bbe a8ed 2f3e
00000020: 9b82 f43e ff8f 893e 386f d83c f49b 29bb
00000030: 7e5f 173f e05a 463e bc23 84bd 26ed f73d
00000040: 4d7d 183d d008 bcbd 129a 953d 005c 1b3c
00000050: 5cca 073f b480 813d 8852 ec3e 3b85 d4bb
00000060: ac99 4e3d ed83 b3bd 3a15 9f3b 8ad1 513e
00000070: e734 cb3e 2fe8 083e 9357 a93e e779 293f
00000080: 58d8 483e 9b40 3d3e c94a 0f3f 6f3f 813e
00000090: 632d ed3e 7e95 4fbe 9190 46bc 0815 0a3d
000000a0: 5db8 3d3e ff64 953e 832c 213e afc2 6f3e
000000b0: 7d9f 83bd dcc0 3a3e 56c1 073e 11dc 0cbd
000000c0: 20fc a33e c603 053e de22 ccbd 7d53 bb3b
000000d0: 5bd6 f83e af92 373e ea36 30bb 0f50 023f
000000e0: 72c5 7f3e 566a ea3e d805 c13e cebf 0e3e
000000f0: a59d 603e 3d6a b63d a792 89be bb14 b63e
00000100: 2a8c 98bd 55d4 0abe 7b3c d23e 1064 c23e
00000110: 1753 813e e55e b23e 5184 973d 359d 223e
00000120: 00de afbd dc1d 37bd a8a7 c2bd 74d4 adbe
00000130: f708 f63e 04f8 1abe 7ef0 633c 5f1d a33e
00000140: bcca b6bc 34d4 a83e 76f6 b0be 36b6 743e
00000150: 0bed a53e c21a eb3d 7969 c63e fde2 9ebe
00000160: f12a d03e b152 033f de0c 753e ac5b 023f
00000170: 52f1 50be 54a5 9b3d 36f5 073f 0603 cebe
00000180: ec2e 243f b1e9 203d ea05 033e 4324 913e
00000190: ec2b 693e 735b 8c3d eb66 2f3f 5f63 2fbe
000001a0: 9ffd eb3e a688 d43e 77e2 65be 979a f23e
000001b0: 6591 5a3e 6e05 a63e 7c14 673d fefb 9b3e
000001c0: 4ba2 9c3e eaf3 463d eb1b 9a3b 27db 403d
000001d0: 949d a9bb f62b 083f eca0 1d3e ae13 d43d
000001e0: 07a2 d13e 1c8a ac3d ab63 403e 9946 f73e
000001f0: c208 2dbe 4c9a 1e3e 7970 83bb 6a85 bfbd
00000200: 062b b03d 3baf 8cbd 862f 7dbc 7986 c53e
00000210: 42db 993e 20bc 3bbe 736f d0ba ff0d c73e
00000220: 5190 913d bb9b 983e 2218 483e e5f7 b23e
00000230: 36aa ef3d b230 b23e 820b 26be 9b79 d53e
00000240: 72f4 0f3c 998f 893e 409b 933e 17cf 873e
00000250: b205 c6bc bd26 033f 6b8f 053f 4a29 173e
00000260: c9ac 053e 336c 17be 4342 053f 7434 933e
00000270: 8458 433e 95c2 a03e 00b2 58bd 050c 863e
00000280: eed0 143e 1cef 563e 8376 863e 74fd 06be
00000290: c592 1cbe 0405 88bd f851 0c3f 2e30 103f
000002a0: 196b 81bd abc0 313c 3e22 c13b 4ee3 2c3e
000002b0: 4219 42bd f33b ac3d be64 2bbe 4ba1 91bd
000002c0: 324c f43e 5779 86be c7c0 223d 69d5 0c3f
000002d0: ce39 e03d be61 913e b5f8 043d 26d2 823d
000002e0: b40b d53e 16ab a93d 54ce 663d 6c2e 923d
000002f0: a250 8e3e 8649 ea3e 1289 e73d bb45 d73e
00000300: c2d6 a83d 531c 663d 822b c73e 6fbc 9e3e
00000310: 9088 7e3e 8581 a43e c45f 1b3f da57 673e
00000320: e9aa 2d3b 855e a03e 87e5 b43e 6cda 833e
00000330: a346 ae3e cc98 603e 5cd5 30bd 1d86 933d
00000340: d656 213f dfd0 503e 4c12 f93e cb1e 3a3e
00000350: 0f84 8f3e 467c d93d a1db 833e 3e45 7c3d
00000360: c3ce 07be a103 003f 6238 133e f019 cf3e
00000370: e40a d93e b731 ce3e 0a90 2bbe 312f 903e
00000380: c50c 14be 84e9 f73d 22c4 9e3c 228d c23e
00000390: 711b 52be 716d 0e3f 6eeb ab3d 6269 f93d
000003a0: bf68 e0bd 9f96 e13e 021a a53e 8d74 7fbe
000003b0: 7130 343d 75d7 f73e fe37 debd 11d5 983d
000003c0: 75ad af3c 7ff1 a5be 8dc5 1abe c7d6 b13e
000003d0: 0335 313d 6cf2 a43d 0ceb 22be 7b96 353d
000003e0: bc57 d03e 4701 0c3e e9b1 633d 135b 9b3e
000003f0: f946 753e 8b90 753e ba30 32be a104 d4bc
0.29580832 0.06653882 0.052830625 -0.2976092 0.07184885 0.23687087 -0.1672001 0.17180502
0.47755894 0.26867673 0.02642022 -0.0025880309 0.59130085 0.19370604 -0.06452128 0.12105779
0.03722887 -0.09181368 0.07304777 0.009482384 0.5304315 0.06323376 0.46156716 -0.006485609
0.05043952 -0.08765397 0.0048548253 0.20490089 0.396888 0.13369821 0.33074626 0.66201633
0.19613779 0.18481676 0.5597349 0.25243708 0.4632369 -0.2027187 -0.012119428 0.033711463
0.1852736 0.29178616 0.15739636 0.2341411 -0.06426904 0.18237633 0.13257346 -0.03438956
0.32028294 0.1298972 -0.09967588 0.0057167397 0.4860104 0.17927049 -0.00268882 0.5090341
0.24977663 0.45784253 0.3769977 0.13940355 0.21935137 0.08906982 -0.268697 0.3556269
-0.07448609 -0.1355756 0.41061768 0.37966967 0.25258705 0.34838024 0.07398284 0.15880282
-0.08587265 -0.04470621 -0.09504634 -0.3395115 0.48053715 -0.15133673 0.013912318 0.31858346
-0.022313468 0.32974398 -0.34563035 0.23897633 0.32407412 0.11479713 0.38752344 -0.31032553
0.40657762 0.5129805 0.2393069 0.5092113 -0.20404556 0.07599893 0.5310854 -0.40236682
0.641341 0.039285365 0.12795225 0.28347978 0.22770661 0.0685338 0.68516415 -0.17127751
0.46091935 0.41510504 -0.2244967 0.47383568 0.21344526 0.32426018 0.05641602 0.30465692
0.3059257 0.04857246 0.004703035 0.047084 -0.0051762555 0.5319208 0.15393418 0.10355316
0.4094393 0.0842478 0.1878802 0.4829605 -0.16897872 0.15488547 -0.0040112105 -0.093516186
0.08601956 -0.0686936 -0.015453225 0.38579157 0.30050093 -0.18333483 -0.0015902355 0.38877866
0.07107604 0.29806313 0.19540456 0.34954754 0.11702387 0.34802777 -0.16215327 0.4169434
0.008786308 0.2686737 0.28829384 0.26525185 -0.024172638 0.51230985 0.52171963 0.14761844
0.13054194 -0.14787368 0.5205423 0.28750956 0.19076735 0.31398454 -0.05290413 0.26181045
0.14532825 0.2098965 0.26262292 -0.13182622 -0.15290363 -0.06641582 0.54812574 0.56323516
-0.063192554 0.010849158 0.0058939746 0.16883585 -0.04738737 0.08409872 -0.16737649 -0.07110842
0.47714382 -0.2626445 0.039734628 0.5501314 0.10948525 0.28394884 0.032463748 0.06387739
0.4161049 0.08284585 0.056349114 0.071377605 0.27795893 0.4575922 0.11305441 0.42045388
0.08244087 0.056179356 0.3890038 0.31003138 0.24856782 0.32130066 0.60693 0.22592106
0.0026499575 0.31322113 0.35331365 0.2575258 0.34038267 0.21933287 -0.043172225 0.072033145
0.63023126 0.20392178 0.48646772 0.18175809 0.2803044 0.106194064 0.257535 0.061589472
-0.13262467 0.5000554 0.14376977 0.40449476 0.4239112 0.40272304 -0.16754165 0.28161004
-0.14457996 0.121050864 0.019380633 0.379983 -0.2051828 0.55635744 0.08394514 0.12178303
-0.10957479 0.44060227 0.32246405 -0.24946804 0.04399151 0.48406568 -0.108505234 0.07462514
0.021445015 -0.3241081 -0.15114422 0.34734175 0.043263447 0.08054051 -0.15909976 0.044332962
0.40691936 0.13672362 0.05558959 0.30342922 0.23952855 0.2398092 -0.174014 -0.025881113

l2.weight f4 [256, 256]
00000000: b454 243e 8489 9e3d ffb5 223e c66e 983d
00000010: e4f9 f0bc 24b8 dd3d 31ed 483e 1a63 243e
00000020: 5da9 413e 928e 323e 4113 c7bc d715 803e
00000030: 2da0 0c3e 7eec af3d 290c 4c3e 6794 16bd
00000040: 4749 f4bd cc36 233e 5f70 0f3e e740 373d
00000050: 4fda de3c 411d 673e cadb 363e e79c 513d
00000060: 172a 6b3c b942 013e 5743 6e3e bb92 7b3e
00000070: bea3 aa3d 7360 cd3d d350 2c3e f572 543c
00000080: 3857 323d 888a 89ba 552e 173e 6fea 4c3e
00000090: 61c4 793e 2bf8 adba acd7 7b3e b90c 503c
000000a0: 18e7 c03d 479b 923d 8bc0 2ebc a4a4 d63c
000000b0: 9fec 1ebc 1209 eebb f484 1c3e 5951 cfbd
000000c0: 02f5 e33d 1562 6e3e 3dce 5ebd 6f8b 6e3e
000000d0: 9d0e 803d 88e2 1d3e e665 243d 2c53 c93d
000000e0: 49dd c43c d136 bd3d 79cc 4f3e 813c 083d
000000f0: 83cf 503d 96e4 1b3e e327 f33d c7b2 2a3e
00000100: 8c43 c83d 5a51 53bb bd11 483e 263d 3c3e
00000110: bc1a 043e e39c 1cbe d940 193d 811e 853e
00000120: c3a1 913d 89ed 1cbd 4855 0d3c 9434 013e
00000130: 0a7c 313e b18b b03c 40cf ec3d 2a99 053e
00000140: 0938 17bc 2fab 0a3e 5f9a 8a3c c5df 90bd
00000150: 81c9 ed3d 8fdb 173e 1049 c9bd 6407 913e
00000160: aa44 e53d f5ee 9f3d 999f 2c3e 6d59 a83d
00000170: 9326 cd3c 6978 ec3d 7b2a 263e 30c3 673e
00000180: ec72 f33c fd52 8dbb 06c3 a63e 455c 373e
00000190: a2c9 473e c19f c63d a7ad 403e 18a2 883e
000001a0: 6d7f 3d3e a3f7 353e 496a 103e d6cd 8e3d
000001b0: 3789 1a3e c028 aa3c e839 233e 3091 303e
000001c0: ec8b 373e 9abf 97bc 608f 66bd a162 d53d
000001d0: 2c1e db3d 26ea 833d 780b af3d 303c 113e
000001e0: 13a5 aa3d 1d59 ae3d 1b6b 163e 4daf 5d3e
000001f0: 98bd 973c aaf1 2d3e e7c4 723e b3a1 59bd
00000200: 8920 343e d13a be3b 8d4c 973d f902 423e
00000210: 58b4 9a3d 804f 8b3c 845c d53b 11f6 a63a
00000220: 4c0c 07be 69c0 533e aa39 113e 91a1 b23d
00000230: b7fe 9f3d 08ff c73d 3f4b 363d 469a f43d
00000240: ac19 963d e76e b23d ecda 353e 7caf a73d
00000250: 1686 273b cf86 be3d f387 8a3d b876 c33d
00000260: 272c 223e 5075 ad3d 0547 033e 2cc6 143e
00000270: f606 823e 4a70 b93b 14ed 643d 6fdb 6c3e
00000280: f91b 333e 9b60 7f3d 8323 313e e09a 343d
00000290: 5e6a 663e 3640 4c3e 7ab5 123e ba65 1f3e
000002a0: 3c2c bd3d 3cbb b73d dd19 e63c 5d48 643e
000002b0: 444f 1a3e 5457 663d f12b 393d 8f81 0ebc
000002c0: 72d4 2d3e 6167 d53d aac5 923e 26f4 213e
000002d0: b7bf 843d fb64 3e3e dfbf fc3d 5926 123e
000002e0: b8f7 293e 0cd0 ff3d 356d 0c3e 1500 1b3d
000002f0: e27a 363e 1811 1b3e 07ee 32bd c02d 283e
00000300: 8652 63bd 62cd 783e a215 03be 50be 073e
00000310: cf05 383e bab4 243e 607b ae3d 215d 3a3e
00000320: 8595 643e 1417 0d3d e41e 233e b61b 763e
00000330: ec99 203e b494 0bbd 49d3 483e f377 11bd
00000340: 121f f53d c1bd 513e f2fe ef3d c8e9 c83d
00000350: 6aa7 5a3e 9ff8 2b3d 27ea a0bd 9770 023e
00000360: bbd9 863d 64df 143e 0504 243d d492 793d
00000370: 443d 7b3d ac80 973d cc9f ebbd 96de 283e
00000380: 9e09 903e 7fab 8c3e e072 4a3e 222f e23d
00000390: 1505 23bd b14f 053e 781b 863d bf09 0c3e
000003a0: a297 113d 5c5c ad3d 6648 453e 8706 c4bb
000003b0: b640 d83d aaba 553e b6f9 f9bd 743d c63d
000003c0: ae27 823d 9b55 5a3e 2c6b 803e 9368 2a3e
000003d0: ec7b 053e 488c 4c3e 2a6b 73bd 3618 383d
000003e0: 4b79 ce3d b3c0 a23d 9f45 243c 21fb 4a3e
000003f0: 7711 233e da16 543e a932 933d f60b 433e
0.16047937 0.07741073 0.15889739 0.07443003 -0.029416032 0.10826138 0.19621731 0.16053429
0.18912263 0.17437199 -0.024301173 0.25016662 0.13732977 0.08590029 0.19926514 -0.03676262
-0.11928039 0.15938872 0.1400771 0.04473963 0.027203707 0.22569753 0.1785728 0.051175024
0.014353297 0.12623109 0.23267876 0.24567692 0.083320126 0.10028162 0.16827707 0.012966861
0.04354021 -0.0010493556 0.14763768 0.20011304 0.24391319 -0.0013272812 0.24593991 0.012698346
0.09419078 0.07158523 -0.010666023 0.026201554 -0.00969997 -0.007264265 0.15285093 -0.10122938
0.11130716 0.23279603 -0.054395903 0.23295377 0.06252787 0.15418446 0.04013624 0.09830317
0.024031298 0.09238971 0.20292844 0.033260826 0.05097915 0.15223917 0.11872842 0.1666976
0.097785085 -0.0032244534 0.19538017 0.18382701 0.12900823 -0.15294223 0.03741536 0.25999835
0.07110932 -0.03831247 0.00862629 0.12617713 0.17332473 0.021550985 0.11562967 0.13046709
-0.009229668 0.13541864 0.016919313 -0.07073931 0.116106994 0.14829849 -0.09828389 0.2832595
0.11194737 0.07809249 0.16857757 0.082201816 0.025042808 0.11546404 0.16227143 0.22633052
0.029717885 -0.0043128715 0.32570666 0.17906292 0.1951051 0.096984394 0.18816243 0.26686168
0.1850564 0.17770247 0.14103045 0.06972854 0.15091406 0.020771384 0.15940058 0.17242885
0.1792447 -0.01852398 -0.056289077 0.104192026 0.10699114 0.06441145 0.08547109 0.14183116
0.08332267 0.08513091 0.14689295 0.21648903 0.018523023 0.16986719 0.23707925 -0.053132724
0.17590536 0.0058053513 0.07387648 0.18946446 0.07553929 0.017005682 0.006511273 0.0012738128
-0.13188285 0.20678867 0.14182153 0.087222226 0.07812255 0.0976544 0.044505354 0.11943488
0.07329115 0.08712559 0.17759293 0.08187768 0.00255621 0.093030564 0.067642115 0.09544128
0.15837155 0.08469641 0.1282006 0.14528722 0.25395936 0.005659138 0.055890158 0.23130582
0.1749114 0.06234799 0.17298703 0.044093013 0.22501513 0.1994637 0.1432704 0.1556615
0.09236953 0.08971259 0.028088504 0.2229323 0.150693 0.056235626 0.04520792 -0.008697881
0.16975573 0.104201086 0.2866643 0.15815791 0.06481879 0.18593208 0.12341284 0.14272441
0.16598403 0.12490854 0.13713534 0.037841875 0.17820314 0.1514324 -0.04368403 0.16423702
-0.055498622 0.24297097 -0.12801221 0.13256192 0.17970966 0.16084567 0.08519626 0.18199588
0.22322662 0.034445837 0.15929753 0.24034008 0.15683717 -0.03407736 0.19611849 -0.035514783
0.11968817 0.20482542 0.11718549 0.09810215 0.21352926 0.04198515 -0.07857161 0.12738262
0.065844975 0.14538342 0.040042896 0.06093104 0.061337724 0.07397589 -0.11505088 0.1649116
0.28132337 0.2747459 0.19770384 0.11044146 -0.03979977 0.13018681 0.06548208 0.13675593
0.035545 0.08464882 0.19265899 -0.0059822234 0.10559218 0.20871988 -0.12205832 0.0967969
0.063552245 0.21321718 0.25081766 0.16641454 0.13035554 0.19975388 -0.05942837 0.044944964
0.100817285 0.07946911 0.010026365 0.1982236 0.15924631 0.20711842 0.07187397 0.19047531

l2.bias f4 [256]
00000000: ac65 72bc 93e3 87be 77b4 f13d f206 c5bd
00000010: 730c 78be 47b8 ae3d 5d1f 2cbe 2896 8a3d
00000020: 0779 25be ea02 f13c 338b ec3d 91fb 07be
00000030: 0cd6 3d3d 19a6 cc3d 91d2 d5be 4ec5 353c
00000040: c83d ab3d 2d71 333d 931f afbe 9fea 90bd
00000050: 8e1e 213d 6cb1 cfbe ac06 d9bc c933 9f3d
00000060: 108f bf3d 612e 1c3d 8b18 bcbe 5f4a 86be
00000070: 83a5 bcbe 08ef 373d 9c1c 64be 8089 c73d
00000080: de29 753e 3fdc 6f3c 1a78 ed3d 91f5 7fbe
00000090: 7dc4 bdbe 9cbb 403d 83a2 6fbe 3e47 bc3d
000000a0: 4d61 5e3d 5f53 763c a63a c53d 49ec c03d
000000b0: fa9e 873d f2ac 8a3d c26a a6be f7ff b33d
000000c0: 5a4b 64be c4be c83d d760 a23d 7cdd 93be
000000d0: de5f 5fbc c09e 593d 8c96 c23d db69 23be
000000e0: 074e a5be 4091 c83d b961 4ebd bf9f bebe
000000f0: 34a5 bebe c79f 113d c92a a33d 508e a93d
00000100: 9c7a 92be 8a97 85bc de10 87be c9e5 5a3c
00000110: 486c 063e 2e01 cc3d ff5f b1be 479e a1bc
00000120: 862e 833b 1d9b be3c 1c18 d2be 294d bfbe
00000130: 3b6a a1be a19e bfbe d0d1 9d3d f3ac a6bc
00000140: 211c dfbe da7b cbbe 7485 293e 77f4 853d
00000150: 3c9f afbe 597d 683c 4744 fe3c a6f6 1abe
00000160: a8d0 5c3d 52e5 be3d 91d0 8e3d 372b c03c
00000170: c69e a53d 4f29 6d3d a7e2 afbc 71b9 91be
00000180: cf6c ca3d 5ad3 77be 27d0 b7be c730 263d
00000190: 32bc 98be bacc 56bc edac 923b 2d6b 88be
000001a0: 2a03 a2bb 63db 163d f86e 5ebc 2dc9 093e
000001b0: ffe6 873e 70e8 9a3d ce51 013b da56 0c3d
000001c0: 29ad 8b3c 94aa 8e3d eff0 9f3d b978 b63e
000001d0: 8b5e dc3d ac0b 97be b974 413d 9035 93be
000001e0: 4e92 3e3d ae6c 763d 07e5 92be 5df1 e2be
000001f0: 8e80 7d3d d77d a5be ad17 b8be ab6d 4ebe
00000200: a108 ba3d c453 1a3d 9b8f 0f3e 3aae 94be
00000210: d45e a53c c6d1 883d bfa5 2e3b 12c2 d53d
00000220: c97c c13c 1ea3 bbbc cd18 263b 05d1 fe3c
00000230: 8355 aebe 4c91 9ebe c244 ca3d 55ab 603d
00000240: 442f 9e3d a3a9 8fbe e286 52be 3be5 2cbe
00000250: 30be 863c 8418 8ebe ebac f73e 9c39 c0be
00000260: e0eb 453d bdf0 b13d 022b e43d e94c 713d
00000270: 9369 3e3d 334c 98bd 2511 273d c7fd 583d
00000280: 97c9 d0be 5ab8 cc3d 6887 f63b dcc8 1b3d
00000290: 2884 7c3c eaf1 6a3d 9f3f 79bc 2ca0 b53d
000002a0: c8f4 a63d 33ef a33d d9f2 363d 6047 b93d
000002b0: e73a 71bc 234e 0a3d 2d89 b7bc c2ec 6c3d
000002c0: f189 babe 5b1b 66ba 77c6 9d3d fd31 7dbe
000002d0: c990 b63c ea45 be3d 97c3 0e3d fabd c03e
000002e0: fcd7 893c aea2 bcbe cf7c c5be c25c 143c
000002f0: d688 d33d d82d 9dbe 09fc 8bbe 63ed 97be
00000300: 5166 053d 3861 d3be 9260 ae3d f06e b73d
00000310: c0e9 623d 469a 1ebc f1d7 b93d 7422 3e3d
00000320: ea8a 7bbb a261 b43c ba23 f03d e2e6 923d
00000330: a690 1d3d 187f 6fbe 9ebb 323d 1eca 13bc
00000340: 2864 adbe 00fd 303d 1735 c4be abda 313d
00000350: ec4d 043e 716e 033d 28bc a6be 89e6 8e3d
00000360: 7163 013e 820d b13d 50e5 04be 897b b8be
00000370: 40c4 a4be a783 8bbd e72d 3a3b 9dd7 c83d
00000380: 568c 7fba 9cf6 ea3d 4d93 933c dcde 393d
00000390: 80f4 413d e955 d83d 88f2 9ebe 9809 673c
000003a0: 0590 ccbe e0bc 6d3d e279 a5be 5a20 df3c
000003b0: 2a9d 69be 8557 86bd 086e 883d 6357 583a
000003c0: c48c a6be 9669 05be 0a12 6c3d c090 fbbd
000003d0: 9371 bdbe 7ccd 973d ad89 81be 5802 9f3d
000003e0: a6fb 423d 69ba f43b fc0b a83d 7d21 b93c
000003f0: 9455 043e b30c 5dbd 6c54 ac3d 92ad 903a
-0.014794748 -0.26540813 0.11801999 -0.09620465 -0.24223499 0.08531242 -0.16808839 0.06766921
-0.1615945 0.029420335 0.11549988 -0.13279559 0.04634671 0.09992618 -0.41762212 0.011094404
0.08361393 0.043809105 -0.34203777 -0.070760004 0.03933578 -0.4056505 -0.02649244 0.07773549
0.09353459 0.038130168 -0.36737475 -0.26228616 -0.36845025 0.044905692 -0.22276539 0.09743023
0.23941752 0.014639913 0.11595173 -0.2499602 -0.3706397 0.04705392 -0.23401837 0.09193276
0.054292012 0.015034526 0.09630327 0.09420068 0.06622119 0.06771268 -0.32503325 0.08789056
-0.2229437 0.09802011 0.07928627 -0.28879917 -0.013633696 0.05312991 0.09501371 -0.1595835
-0.32286093 0.09793329 -0.050386164 -0.37231252 -0.37235415 0.035552766 0.07967145 0.08279097
-0.2860917 -0.016307611 -0.26380056 0.013360449 0.13127244 0.099611625 -0.34643552 -0.019728793
0.0040033488 0.023267323 -0.4103402 -0.37363556 -0.3152636 -0.37425712 0.07706034 -0.02034614
-0.43576148 -0.3974293 0.16554815 0.065407686 -0.34301174 0.014190041 0.031038417 -0.15133151
0.053909928 0.09321083 0.06973375 0.023458106 0.08086924 0.057900723 -0.021470381 -0.28461793
0.09884035 -0.24201718 -0.35900995 0.04057386 -0.29831082 -0.013110334 0.0044761808 -0.2664427
-0.004944225 0.036830317 -0.013576262 0.13455649 0.26543424 0.07563865 0.0019732597 0.034262516
0.017050343 0.06966129 0.07809626 0.3563898 0.1076022 -0.29501092 0.047230456 -0.28751802
0.046526246 0.06016224 -0.2869036 -0.4432477 0.061890177 -0.3232257 -0.35955563 -0.20159023
0.09083677 0.03767754 0.14019625 -0.29039174 0.02018682 0.06680636 0.0026649085 0.104374066
0.023619073 -0.022904929 0.0025344372 0.031105528 -0.34049615 -0.30970228 0.09876396 0.054850895
0.07723859 -0.2805911 -0.20559266 -0.1688432 0.01644811 -0.2775308 0.48374113 -0.37543952
0.04832065 0.08688495 0.111410156 0.058911238 0.046487402 -0.07436409 0.040787835 0.052976396
-0.407788 0.099961 0.007523466 0.03803335 0.015412368 0.057359613 -0.015212922 0.08868441
0.08152157 0.08004608 0.04466519 0.09046817 -0.014723516 0.033765923 -0.022404278 0.057842977
-0.36433366 -0.000877788 0.0770387 -0.247261 0.022285836 0.09290679 0.034854498 0.3764494
0.016826622 -0.36842865 -0.38571784 0.009055318 0.10328834 -0.30699039 -0.27340725 -0.296733
0.03256828 -0.4128511 0.08514513 0.089567065 0.055398703 -0.009680336 0.09074391 0.046419576
-0.003838236 0.022019211 0.11725564 0.07172944 0.038468026 -0.23388326 0.043635957 -0.009020356
-0.33865476 0.04321003 -0.38321754 0.04342143 0.1292035 0.032087747 -0.32565427 0.06977565
0.1263559 0.086451545 -0.12978101 -0.3603175 -0.32180977 -0.0681222 0.0028408708 0.0980675
-0.000974839 0.11472818 0.018014574 0.04537855 0.047352314 0.10563261 -0.31044412 0.014101408
-0.39953628 0.058041453 -0.32319552 0.027237106 -0.2281386 -0.06559662 0.06661612 0.0008252768
-0.3252927 -0.13028559 0.05763439 -0.12283468 -0.37000713 0.0741224 -0.2530035 0.07764119
0.047603272 0.007468511 0.08205411 0.022598976 0.1292327 -0.05396719 0.0841454 0.0011038056

l3.weight f4 [1, 256]
00000000: b078 4b3e d696 a1bf fe5c 443e bd82 68bf
00000010: ad2b 5cbf 117f 263e 13c7 8abf 3b50 4f3e
00000020: 373e a5bf a724 333e be32 323e 3341 8abf
00000030: d35e 433e d267 2e3e ef35 8abf f09a 543e
00000040: 862a 333e b8b4 3b3e dbce 82bf e913 7dbf
00000050: 8f07 653e eb75 9dbf 9c81 a7bf 864a 6d3e
00000060: 6978 563e d053 2b3e c51a 41bf 0083 b3bf
00000070: f17b aabf 5530 483e 55a7 d4bf 09b1 2b3e
00000080: 88e8 553e 5a79 4b3e 1fcb 3a3e 7c4a a7bf
00000090: 7fb3 a6bf 3228 453e 843f 9ebf 34e9 e0bf
000000a0: 184c 4f3e 8890 6abb fd98 693e 5c59 563e
000000b0: d2a2 343e 1690 5c3e 3820 6abf 9b84 623e
000000c0: f4c1 59bf 0dc4 533e ae11 5a3e 8be9 86bf
000000d0: f5ca 5b3e e4e3 643e 2050 4d3e 1104 adbf
000000e0: 0527 b8bf a225 4d3e fe6f 8dbf 1739 a1bf
000000f0: 321e 89bf 53b7 3d3e 90a6 4a3e 5695 4b3e
00000100: cf5d 5abf 7e83 8cbf aa2c a3bf 381c 413e
00000110: 6691 2d3e 6289 283e 07d6 bcbf cd49 573e
00000120: 61ea 643e 7700 593e 8772 9ebf ea80 79bf
00000130: 9277 49bf bcd3 62bf a503 2f3e 2f03 84bf
00000140: abcc 81bf 4ce9 43bf ab69 81bf f4cd 4c3e
00000150: 72ef 48bf 53a5 523e 0864 433e 2ce8 7dbf
00000160: 8867 603e 7139 383e b210 3d3e 9fae 4a3e
00000170: 155e 443e fc84 573e 8ae8 5d3e 51b9 3dbf
00000180: cc1a 533e ba79 93bf d094 53bf f96a 603e
00000190: d527 4bbf f6a5 4b3e 7718 6d3e 452c 3cbf
000001a0: 6d92 3c3e cabb 6e3e a9df 553e 7de8 2b3e
000001b0: cf51 a0bf a896 353e 9fd3 6c3e 0d6d d8bf
000001c0: 030f 323e f5ca 4c3e c9a9 5b3e 85d9 f93f
000001d0: 38e6 4a3e 01f7 4abf 7b64 533e ff73 44bf
000001e0: 948b 2e3e d01c 3a3e c7f8 a1bf b9c3 65bf
000001f0: b687 433e 366f 49bf da3a 84bf 654f a4bf
00000200: 8b79 3e3e 7f5e 2b3e cf81 3a3e 54d5 88bf
00000210: f7f4 363e d1a3 313e bfa3 61bf 2881 463e
00000220: 1e89 3d3e 694c 633e e6ea 4e3e 2e52 c9bf
00000230: adc5 b4bf da85 59bf 4955 2c3e ba29 533e
00000240: 8a91 2c3e d4a8 8cbf dd25 89bf f838 30bf
00000250: 9265 343e dc37 aebf 500a a63f a2f5 7abf
00000260: dfef a4bc 3d69 323e 243d 2b3e 77ad 5e3e
00000270: fa49 3f3e 0534 a4bf 5e54 4b3e 255f 333e
00000280: c836 46bf 9754 253e 1317 5d3e 9d5a 413e
00000290: 5f64 633e aff5 2d3e 3bbc 633e ec81 673e
000002a0: 3325 8abf d3ba 583e 6038 4d3e fabd 2b3e
000002b0: 321d 33bf 1482 293e 41c1 72bf 2ed7 643e
000002c0: 1b69 85bf 6759 523e 902b 613e 2cdd b7bf
000002d0: e97c 403e 88e3 433e 77df 403e 4a05 183f
000002e0: 9eaf 503e aa04 61bf 62ee 82bf 2dad 333e
000002f0: af80 263e 03af 97bf 9238 55bf 69b2 54bf
00000300: c3ae 6d3e 3588 67bf 912a 553e 9aad 663e
00000310: 2f70 3b3e a93d 663e 4c33 373e 6b24 343e
00000320: 703a 9fbe f401 473e ff42 2b3e f6c0 433e
00000330: 65f2 463e 7a0a 8cbf 2b20 533e 510d 6abf
00000340: d0ea 71bf 2e74 3f3e f3fc 48bf 5b51 553e
00000350: 343c 303e a843 633e b5ac 46bf 1e54 5a3e
00000360: 6e99 62bf 7fe6 3a3e 7e0c bbbf aaed 85bf
00000370: 7087 41bf 8e6f b5bf 8ba0 3b3e 7892 493e
00000380: 48c2 3b3e 377b 333e 3653 333e bee0 383e
00000390: 9e81 643e 705d 323e 22a3 8abf 9e5a 653e
000003a0: ccc4 6ebf 1110 523e 8f54 a1bf fe52 5d3e
000003b0: f9c3 b6bf 02ad d8bf ec68 563e d7d6 503e
000003c0: 8f2d 61bf 1401 86bf 6f44 3c3e f2e1 7cbf
000003d0: 88aa 83bf 29bc 553e eade a2bf 6985 363e
000003e0: 83f1 303e 295d 653e c122 553e 01b2 2e3e
000003f0: 4316 323e 6928 9bbf 5e42 643e b4bd 623e
0.19870257 -1.2624156 0.19176099 -0.9082449 -0.86004144 0.1625941 -1.0842003 0.20245449
-1.2909611 0.1749445 0.17402169 -1.0801147 0.19079141 0.17031792 -1.0797709 0.20762229
0.1749669 0.18330657 -1.0219377 -0.98858505 0.22366165 -1.2301611 -1.3086429 0.2317296
0.2094437 0.1673119 -0.7543147 -1.4024353 -1.3319074 0.19549687 -1.6613566 0.16766752
0.20889485 0.1987051 0.18241547 -1.3069606 -1.3023528 0.19253615 -1.2363133 -1.7571168
0.20243871 -0.0035791714 0.22812267 0.20932525 0.17640236 0.2153934 -0.9145541 0.22120897
-0.85061574 0.20680256 0.21295807 -1.0540022 0.2146414 0.22352558 0.20050097 -1.3516866
-1.4386908 0.20033887 -1.1049802 -1.2595547 -1.071234 0.18526964 0.19790101 0.19881186
-0.8529939 -1.0977628 -1.2748005 0.18858421 0.16949996 0.16458657 -1.4752816 0.21024247
0.22355033 0.21191584 -1.2378701 -0.9746233 -0.78698075 -0.8860433 0.17091234 -1.0313472
-1.0140585 -0.7652786 -1.0110372 0.2000044 -0.78490365 0.20570879 0.19081128 -0.9918239
0.21914494 0.17990662 0.184634 0.19793175 0.19176514 0.21046823 0.21670738 -0.74110895
0.20615691 -1.1521523 -0.82648945 0.21915807 -0.79357654 0.19887528 0.23153864 -0.7350505
0.18415232 0.23313823 0.20886101 0.16787906 -1.2524966 0.17733252 0.23127602 -1.690828
0.17388539 0.19999297 0.21451487 1.9519507 0.19814384 -0.7928315 0.20643799 -0.76739496
0.17045432 0.18175054 -1.2654046 -0.89751774 0.19094738 -0.7868532 -1.033046 -1.2836729
0.18601052 0.16735266 0.1821358 -1.0690103 0.17866884 0.17347647 -0.8814048 0.19385207
0.18509337 0.22197117 0.20206794 -1.5728204 -1.4122826 -0.84969866 0.16829409 0.20621386
0.16852394 -1.0989022 -1.071468 -0.6883693 0.17616871 -1.3610797 1.2971897 -0.98031056
-0.02013391 0.17422958 0.16722542 0.21745859 0.18680564 -1.2828375 0.19856402 0.17516764
-0.7742734 0.1614555 0.21590833 0.18882222 0.22206257 0.16988252 0.22239773 0.22608155
-1.0792602 0.21165018 0.20041037 0.16771689 -0.69966424 0.16553527 -0.9482613 0.2234771
-1.0422701 0.20541917 0.21989274 -1.4364371 0.1879765 0.19129765 0.18835245 0.5938307
0.20379493 -0.8789774 -1.0228999 0.1754653 0.16260026 -1.1850284 -0.83289444 -0.8308473
0.23211198 -0.9044221 0.20817019 0.22527161 0.18304513 0.22484459 0.17890662 0.17592017
-0.31099272 0.19434339 0.16724776 0.19116578 0.19428404 -1.0940697 0.2061774 -0.9142657
-0.9449892 0.18696663 -0.7851097 0.20831816 0.17210466 0.22193778 -0.7760728 0.2132115
-0.88515365 0.1825199 -1.4613187 -1.0463154 -0.75597286 -1.4174669 0.18322961 0.1968478
0.18335831 0.17527471 0.17512211 0.18054482 0.2231507 0.17418456 -1.0831034 0.22397849
-0.9326904 0.20513941 -1.260393 0.2161369 -1.4278556 -1.6927798 0.20938462 0.20394455
-0.8796014 -1.0469079 0.1838548 -0.98782265 -1.0286417 0.20872559 -1.2724278 0.1782433
0.1727963 0.22398819 0.20814039 0.1706009 0.17391305 -1.2121707 0.22290942 0.22142678
